Homography_Trained_Model/E2EMP_UL2_20.pth (torch, 885388 bytes, 291 tensors)

weight f4 [1, 1, 1, 7]
000000 f1 bd af be 7a 08 66 3e b3 75 90 be e6 26 36 bd
       -0.343246 0.22464171 -0.28214797 -0.04447069
000010 5b db a8 3c ae 83 42 be 05 97 d0 be
       0.02061241 -0.18995544 -0.4074022

weight f4 [1, 1, 1, 7]
000000 5d 12 ca bd ea 0e 60 bd 08 25 6c bc ea fe b3 be
       -0.09866784 -0.054701723 -0.014413126 -0.35155421
000010 69 22 97 3e 6b b9 4f be 11 b0 ee 3d
       0.2951844 -0.20285575 0.11654676

weight f4 [1, 3]
000000 bf 5e c3 3f 0b d6 a5 3f 50 49 4b 3c
       1.5263289 1.2955946 0.012407616

bias f4 [1, 2]
000000 dc ce 09 bd e7 26 ea 3d
       -0.033644542 0.11433201

running_covar f4 [1, 3]
000000 ec d0 1e 3c 1d fb 1c 3c 17 08 6f 3b
       0.009693366 0.009581354 0.0036473328

weight f4 [1, 1, 5, 1]
000000 a1 94 c3 3d f3 df 68 3e 9e 51 f9 3e 23 11 7a be
       0.09549833 0.2274168 0.4869508 -0.244206
000010 ff a6 90 be
       -0.28252408

weight f4 [1, 1, 5, 1]
000000 71 a4 69 be aa 89 98 3a f2 4f 5d 3d 32 e0 33 be
       -0.22816636 0.0011637707 0.05403132 -0.17565992
000010 d5 40 fc 3d
       0.12317053

weight f4 [1, 3]
000000 c1 df a4 3f e8 fe b5 3f 0a ef e4 bd
       1.2880784 1.4218416 -0.111784056

bias f4 [1, 2]
000000 d7 b7 11 3e f9 88 e5 3d
       0.14230286 0.11207766

running_covar f4 [1, 3]
000000 79 c3 5d 3e 48 3b b4 3d b7 89 1c bc
       0.21656598 0.088003695 -0.009554318

weight f4 [1, 1, 5, 1]
000000 72 f5 09 3e a1 c3 22 3d 3b 3e b6 3e 8c d1 85 be
       0.13472536 0.039737348 0.35594353 -0.26136434
000010 ca 71 aa 3e
       0.3328994

weight f4 [1, 1, 5, 1]
000000 a6 57 fa bd f5 24 a4 be d6 fa 0e bf b6 80 86 be
       -0.12223749 -0.32059446 -0.55851495 -0.26270074
000010 5d ac 17 3e
       0.14811845

weight f4 [1, 3]
000000 33 10 bd 3f 17 ed ad 3f db 28 24 3d
       1.4770569 1.3587979 0.040078025

bias f4 [1, 2]
000000 28 80 04 bb 34 49 68 3d
       -0.0020217989 0.056710437

running_covar f4 [1, 3]
000000 71 c5 29 3c c6 f3 14 3c 0c f7 3c ba
       0.010362015 0.009091323 -0.0007208444

weight f4 [1, 1, 1, 7]
000000 3e 26 c0 3e dc 13 45 3e 36 55 3d 3e 3e fe fe 3d
       0.37529176 0.19245857 0.18489537 0.124508366
000010 88 9b bf 3e 51 d4 b3 be 4b 9b 6e be
       0.37423348 -0.35122922 -0.23301427

weight f4 [1, 1, 1, 7]
000000 f6 46 2d be 45 c4 91 3e f8 da 86 3e e6 34 e3 bd
       -0.169216 0.28470054 0.26338935 -0.11094074
000010 74 fa 7b bd 3b 4d 8b be a9 8b 1f be
       -0.061518148 -0.2720736 -0.1558062

weight f4 [1, 3]
000000 e4 ce bb 3f 4c a7 b7 3f 9e 86 55 3d
       1.4672513 1.434793 0.052130334

bias f4 [1, 2]
000000 e2 f4 2f 3d 07 3c f8 3d
       0.042958148 0.12120824

running_covar f4 [1, 3]
000000 c8 50 b8 3e c4 8f 86 3e 6d 07 ec 3c
       0.3599913 0.2628156 0.028812135

weight f4 [1, 1, 3, 3]
000000 e7 99 4d be a1 60 b7 3d b0 28 43 3e 65 84 b2 3e
       -0.2007824 0.089539774 0.1905849 0.34866634
000010 31 1a a3 3e 3a ea 83 bc 14 88 53 bd c9 9f d6 3d
       0.3185592 -0.016102899 -0.051643446 0.10479695
000020 21 b2 8e bc
       -0.017418923

weight f4 [1, 1, 3, 3]
000000 2b 73 b7 3e 2b b8 81 bd 1e b5 a5 3e b6 c6 ac 3d
       0.35830054 -0.063339554 0.32364744 0.084363386
000010 38 11 c2 be 74 6f 90 3c 85 4f 31 be f0 bb 80 3e
       -0.37903762 0.01763127 -0.1731549 0.25143385
000020 1c 7c 51 3e
       0.204575

weight f4 [1, 3]
000000 d7 43 aa 3f 25 f3 bf 3f 2e fd 74 bc
       1.3301953 1.4996077 -0.014952941

bias f4 [1, 2]
000000 ea 3b 6e 3d 16 7e e9 3c
       0.058162607 0.028502505

running_covar f4 [1, 3]
000000 8d 65 4c 3c fb 05 82 3c c3 d1 93 bb
       0.0124753835 0.015871992 -0.0045110895

weight f4 [1, 1, 3, 3]
000000 cc d1 5c bd d7 fa 41 3e d9 da c4 3d 10 94 08 be
       -0.053911015 0.18943344 0.096120544 -0.13337731
000010 cc 0e 24 bd 48 d3 da 3d 4f c3 8a be 11 a7 8b be
       -0.040053174 0.1068483 -0.27102134 -0.272759
000020 68 d4 7d bc
       -0.015492536

weight f4 [1, 1, 3, 3]
000000 c5 12 d7 3d e3 f7 ac 3e 03 a1 48 be 98 e6 a6 be
       0.10501627 0.33782873 -0.19592671 -0.32597804
000010 d3 76 8e bd 4b 95 a6 be 23 d4 3d be db aa 41 3e
       -0.06956258 -0.32535776 -0.18537955 0.18912832
000020 88 6a 81 3e
       0.2527659

weight f4 [1, 3]
000000 65 c3 d0 3f ed e8 b6 3f 66 b8 a6 3c
       1.630963 1.4289833 0.0203516

bias f4 [1, 2]
000000 70 02 3d 3d b5 0c 0c 3c
       0.046144903 0.0085479515

running_covar f4 [1, 3]
000000 b8 28 30 3f 34 4b 02 3f 27 e8 b6 bd
       0.6881213 0.50896 -0.08930998

weight f4 [1, 1, 1, 7]
000000 fa 8a 56 3e 78 2b 9e 3e 88 dd 04 be f6 7c 32 be
       0.20951453 0.3089254 -0.12975132 -0.17430481
000010 1d a8 98 3e 57 20 8e be 45 ab b2 be
       0.2981576 -0.27759048 -0.34896293

weight f4 [1, 1, 1, 7]
000000 21 66 a3 be 7b 0a 75 be 7c 80 76 3e 79 a9 54 3e
       -0.31913856 -0.23929779 0.2407245 0.20767774
000010 38 70 b6 bd 37 b6 00 3e fe 55 c8 be
       -0.08908123 0.1256951 -0.39128107

weight f4 [1, 3]
000000 df ce b4 3f 54 76 b5 3f b5 e3 5b 3d
       1.4125632 1.4176736 0.053683955

bias f4 [1, 2]
000000 e2 38 d0 3c 9b b2 9f bd
       0.025417749 -0.07797738

running_covar f4 [1, 3]
000000 05 9e 00 3c a2 6c df 3b aa ef 99 3a
       0.007850175 0.00681837 0.0011744399

weight f4 [1, 1, 5, 1]
000000 95 85 a2 be e4 14 e7 3e 1f fa 86 3e 82 9e 68 3d
       -0.3174254 0.45133126 0.26362702 0.05679179
000010 f7 2d e9 be
       -0.4554288

weight f4 [1, 1, 5, 1]
000000 99 c1 9c 3e 03 81 b6 3d 63 18 63 3e d7 6d c8 be
       0.30616453 0.08911326 0.22177272 -0.391463
000010 e3 2f a6 3e
       0.3245841

weight f4 [1, 3]
000000 01 58 b2 3f 36 75 9d 3f 77 ec 98 3d
       1.3933107 1.2301395 0.07466977

bias f4 [1, 2]
000000 0a 7a c3 bc 05 1f f1 bd
       -0.023861904 -0.11773495

running_covar f4 [1, 3]
000000 38 a2 fc 3e c3 7a 86 3d 96 e8 a3 bd
       0.49342513 0.06566384 -0.080033466

weight f4 [1, 1, 5, 1]
000000 03 a0 bd bd 5a cb 96 bd 53 d0 a3 3e 95 b4 c0 be
       -0.092590354 -0.07363005 0.31994876 -0.37637773
000010 7f be 41 3e
       0.18920325

weight f4 [1, 1, 5, 1]
000000 eb 8d c5 be 69 01 00 3e ba e3 88 3e 6a dc 34 be
       -0.38584837 0.12500538 0.26736242 -0.17662206
000010 5e 7d d4 be
       -0.41501898

weight f4 [1, 3]
000000 24 fa b2 3f 50 2f b8 3f 56 ef 3b 3c
       1.3982587 1.4389439 0.011470636

bias f4 [1, 2]
000000 e0 38 37 3c 07 fc 77 bc
       0.011182994 -0.015135772

running_covar f4 [1, 3]
000000 23 5c 90 3b 26 79 f5 3b f9 a9 8c bb
       0.004405515 0.0074912487 -0.0042927233

weight f4 [1, 1, 1, 7]
000000 82 32 76 bd 3d 58 f9 bc 46 32 72 3e 17 eb 76 be
       -0.06010676 -0.030437583 0.2365199 -0.24113117
000010 1a aa c0 be 48 96 83 bd 83 bc bb 39
       -0.37629777 -0.06425148 0.00035807872

weight f4 [1, 1, 1, 7]
000000 5e cb 23 be 7d 8a b3 3e e0 5c 94 3e fa 0b 36 3e
       -0.15995547 0.35066596 0.28977108 0.17778006
000010 bd 35 b6 3e 54 be b6 bd 6d 82 a6 be
       0.35587874 -0.08923021 -0.32521382

weight f4 [1, 3]
000000 96 6c b7 3f 6f 7c ad 3f 5b d5 fb 3c
       1.4330013 1.3553599 0.030741384

bias f4 [1, 2]
000000 c4 68 6d 3c af 62 14 3d
       0.01449031 0.036226925

running_covar f4 [1, 3]
000000 ee 0e 2b 3f 99 6f ec 3e a9 88 02 3f
       0.66819656 0.46178892 0.50989777

weight f4 [1, 1, 3, 3]
000000 bd 7e 6e be 40 c4 a4 be 8a 73 6c 3c 2d a5 24 3e
       -0.23290534 -0.32180977 0.0144318435 0.16078635
000010 6f 06 f6 3c 90 46 8a 3e 0f 04 71 be 9c 7c f1 3c
       0.030032365 0.2700696 -0.23536704 0.029478364
000020 ed 41 f3 bd
       -0.11877809

weight f4 [1, 1, 3, 3]
000000 d3 e7 80 3e 2a 9c 3e bd e4 12 5c be 80 9d a5 be
       0.25176868 -0.04653565 -0.21491581 -0.32346725
000010 d4 7e be 3e 4f dc 49 3e 83 24 6e be f4 cc 84 be
       0.37206137 0.19712947 -0.23256116 -0.25937617
000020 3e 88 90 be
       -0.28228945

weight f4 [1, 3]
000000 d5 f9 b7 3f 0d 8d b2 3f 16 a0 aa 3c
       1.4373118 1.3949295 0.020828288

bias f4 [1, 2]
000000 ec 28 37 3d 11 2e 49 bb
       0.04471676 -0.0030697624

running_covar f4 [1, 3]
000000 2f 4f 96 3b c0 e5 4a 3c e2 d9 eb ba
       0.004587076 0.012383878 -0.0017994011

weight f4 [1, 1, 3, 3]
000000 9d 90 89 be 84 56 c9 3c c2 11 09 3e a6 47 b5 be
       -0.26868144 0.024577387 0.1338568 -0.35406226
000010 b3 3d c1 be d3 08 57 3e 29 28 4b bc 3d 28 65 3d
       -0.37742385 0.2099946 -0.012399712 0.055946577
000020 04 f3 83 be
       -0.25771344

weight f4 [1, 1, 3, 3]
000000 77 e0 f2 3c 06 22 9f 3e d1 ab 32 3d f8 13 48 3e
       0.029648049 0.31080645 0.04362089 0.19538867
000010 36 ae 12 be 39 f2 68 be 63 46 f9 3d 05 19 a7 bd
       -0.14324269 -0.2274865 0.12171628 -0.08159069
000020 4e 4c a4 be
       -0.32089466

weight f4 [1, 3]
000000 28 f0 ab 3f 0f d2 b4 3f fc c0 9a bc
       1.3432665 1.4126605 -0.01889085

bias f4 [1, 2]
000000 99 88 90 bc 5f f3 12 3d
       -0.01764326 0.035876628

running_covar f4 [1, 3]
000000 32 a3 09 3f 1a 43 54 3f 87 ec 9f bc
       0.5376464 0.8291489 -0.019521965

weight f4 [6, 6, 9]
000000 40 46 45 bd 27 7c 00 bd 34 a3 3b 3c 62 2c 94 bc
       -0.0481627 -0.0313684 0.011452485 -0.01808757
000010 ca cf 2f 3d 3e 51 84 bd 03 38 fa 3b f5 3f e2 3c
       0.042922772 -0.06460808 0.0076360716 0.027618388
000020 68 5e 31 be de 58 49 3e 27 97 91 3d 83 21 bd bc
       -0.1732117 0.19662806 0.07108908 -0.023087269
000030 07 d2 b4 bd 01 5d 8b 3d e8 00 30 be ce f5 24 be
       -0.08829122 0.068048485 -0.17187846 -0.16109392
000040 ad 67 5e bd 86 8f d5 3d 71 39 a0 bd 3d 6a c3 3c
       -0.05429809 0.104277655 -0.07823456 0.02385437
000050 d7 79 aa bd c8 7a 66 be 6e 8e ce 3c 08 ba dd bd
       -0.0832402 -0.22507775 0.0252144 -0.10826498
000060 45 57 86 bd e8 30 f9 bd 21 6d 1c bc fd e9 cd 3d
       -0.06559614 -0.12167531 -0.009547503 0.10054395
000070 86 70 40 3d 33 37 9c 3d 87 ad 09 3e 99 d2 6d 3d
       0.04698231 0.07627716 0.13445102 0.05806217
000080 4c 57 0c 3e 85 d2 ca bb aa 79 41 bd f8 f1 a3 bd
       0.13705176 -0.0061896467 -0.04723517 -0.08005136
000090 12 d1 c7 bc 2e 5a 98 bd 46 bc c0 bc 06 13 04 be
       -0.024391685 -0.074390754 -0.023527276 -0.12897882
0000a0 7b 2f 43 3c 84 ed 42 be 2c a5 0f bd dc 1c e9 3c
       0.011913176 -0.19035918 -0.03506963 0.028456144
0000b0 80 cb 84 3c 32 e2 14 3c 8e 47 85 bd 91 4c ef bd
       0.016210318 0.009087132 -0.065077886 -0.11684526
0000c0 71 9a 15 3d b4 84 4f bd 87 9d db bd 56 0c 78 bd
       0.03652424 -0.050663665 -0.10723405 -0.06055864
0000d0 00 7a 09 3e 47 83 ec bb 8a 7b fd bd 1d e4 7f bd
       0.13425446 -0.007217798 -0.12377079 -0.062473405
0000e0 40 ca 18 3d 08 a4 ec bc 6d 24 fe bb 8d 27 f4 3c
       0.037302256 -0.02888681 -0.007755807 0.029804016
0000f0 62 ae 77 bd 6b f7 f2 bd 9b f7 fe bb 8e 4c 51 be
       -0.06046904 -0.118635975 -0.0077809817 -0.2043936
000100 e9 ec 0e 3d f3 e0 79 bc 75 10 2f bd fe 59 d4 3d
       0.034893904 -0.015251386 -0.042740304 0.10368727
000110 dd ad ff bc ad ac 15 bb f7 80 85 bc 73 b8 75 bc
       -0.031210834 -0.0022838518 -0.016296847 -0.014997589
000120 29 51 a4 3d 71 f5 7e bc b0 bb 09 3e 9a 33 03 3e
       0.080232926 -0.0155614475 0.13450503 0.12812653
000130 67 6a 19 3e 5c e1 07 3d 00 69 ce 3d 72 a8 54 3e
       0.14981996 0.033173904 0.10078621 0.20767382
000140 04 cd 15 3d a0 8e 24 bd 0f b5 71 3d 02 bc 98 bd
       0.03657247 -0.04017508 0.05901056 -0.07457735
000150 33 19 86 bd d8 c5 af 3d a8 7a 18 bd 67 cf f9 bd
       -0.06547775 0.085826576 -0.03722635 -0.12197762
000160 2d ff 62 bc ae ac b2 3d cb aa 81 bd ad a3 0e be
       -0.013854784 0.08724342 -0.06331404 -0.13929625
000170 a3 0c 9d 3d e7 c6 55 3d 0b 7a a7 3d 7d 5d dd 3b
       0.07668426 0.05219164 0.08177575 0.0067555294
000180 f0 de d0 bd 52 9d dd bd ae 4a 40 3d 50 6c 57 bd
       -0.10198772 -0.10821022 0.04694622 -0.05259353
000190 5a bc e8 3c b7 77 46 3d ff 2c a8 3d 39 83 cd 3d
       0.028410126 0.048454013 0.08211707 0.10034794
0001a0 e8 ec 00 3e 9a 31 db 3c 05 9a ef bc 3c 61 20 3e
       0.12590373 0.02675705 -0.029248247 0.15662092
0001b0 c5 bf 5a bd ed cd 79 bd a1 49 22 3d a7 f9 12 be
       -0.053405542 -0.0609874 0.039621 -0.14353047
0001c0 9c 56 f7 3d df 87 36 bd bb 42 2e 3e f6 45 c1 3a
       0.12077066 -0.04456317 0.17017643 0.0014745581
0001d0 eb d9 3f 3e e0 df 0c be 2e 3d 83 be 0d e0 a6 bc
       0.18735473 -0.13757277 -0.25632614 -0.020370508
0001e0 25 5a 6a bc e3 6e ac bd 8e c5 57 bd 38 0d 5b bd
       -0.014303719 -0.084195875 -0.052678637 -0.053479403
0001f0 34 e4 c7 3c 39 bb da bd c2 6a a5 3d bd cd f3 3d
       0.024400808 -0.10680241 0.08077003 0.11904476
000200 b5 71 49 bd 25 22 5d 3e 50 cc 26 bd da 93 16 3e
       -0.049180705 0.21595056 -0.04072219 0.14704838
000210 88 73 96 3d d5 46 66 bd bb 41 a0 bd 39 af 75 bd
       0.073462546 -0.056219894 -0.07825037 -0.05998156
000220 e8 11 85 bb 73 b8 05 be be 16 da 3c e6 16 78 3d
       -0.0040609725 -0.13058643 0.026622172 0.060568713
000230 5c b6 80 3c fb 90 27 3d a9 38 00 3e a4 23 44 be
       0.015711956 0.04090975 0.12521614 -0.19154221
000240 d4 40 9a bc 14 38 00 3d eb 10 33 3e f7 5a b9 bd
       -0.01882974 0.03130348 0.17486922 -0.09050553
000250 f6 fd 97 3c 1f 94 6e 3d f7 72 7f bd d3 55 07 3d
       0.018553715 0.058246728 -0.0623655 0.033040833
000260 41 47 b5 bd 39 04 59 bd 4e 30 12 be 7e 71 c0 bd
       -0.08851481 -0.052982543 -0.1427624 -0.09396647
000270 55 0d 98 bd 1f 36 03 be b3 b3 7f bd 46 da 55 bc
       -0.07424418 -0.12813614 -0.062427234 -0.013052529
000280 16 94 01 3b f5 c9 af bd 16 aa 10 be d9 a0 cf bc
       0.0019772104 -0.08583442 -0.14127383 -0.025345253
000290 28 d8 98 bd 24 8a 2e bc 49 fa 05 be f2 52 22 be
       -0.074631035 -0.0106530525 -0.13083757 -0.15851954
0002a0 6a b2 88 3d 6a 34 4e bd d0 c7 b9 bc 02 42 fb 3c
       0.06674655 -0.050342955 -0.022678286 0.030671123
0002b0 91 2d 01 3e e2 73 13 3c 92 10 a2 bd 9a d5 83 bd
       0.12615038 0.008999797 -0.07913317 -0.06437226
0002c0 ff de dd bc 7f 8f d9 3d 26 5c 8f 3d e6 f0 2c bd
       -0.027083872 0.10623073 0.06999998 -0.042221926
0002d0 9f 46 35 bd 17 c6 af 3c b2 79 9b bd 20 50 42 be
       -0.044256803 0.021456761 -0.07591571 -0.18975878
0002e0 31 a8 17 be 6e f4 b5 bc 6d 4e 5c be f9 d0 b7 bd
       -0.14810254 -0.02221128 -0.21514292 -0.08975405
0002f0 bd 3c df bd 17 61 13 3c fb 21 0b bd e1 1a 82 3b
       -0.10900257 0.008995316 -0.033967953 0.0039704894
000300 ea a2 18 be 5b 84 97 bd 1f b1 d5 bd fb f3 94 3d
       -0.14905897 -0.07398292 -0.10434174 0.07273098
000310 a5 89 d7 bd 9e 12 6c 3d 8c 99 c1 3d db fc 18 3e
       -0.105243005 0.057634942 0.09453115 0.14940207
000320 bf 80 66 3d e2 aa aa 3d a3 4d eb 3d fa 80 c0 3d
       0.056275126 0.083333746 0.114894174 0.093996
000330 83 c2 e4 bd e3 71 f8 bd 62 d7 c8 bc 0d 15 b4 3d
       -0.11169913 -0.12131097 -0.024516765 0.087930776
000340 49 60 ad bd c9 d5 da bd 77 09 09 3e 16 8c d4 3d
       -0.084656306 -0.106853075 0.13382517 0.10378282
000350 f5 fb 9d bd 8d c3 70 bc 5a 81 fb 3d f1 bb 8c bd
       -0.077140726 -0.01469506 0.12280531 -0.068717845
000360 a1 e5 ed bc bb 5f b3 bd 04 6d 25 3e 6f 9b 35 bc
       -0.02904016 -0.087584935 0.16154867 -0.011084422
000370 88 b5 1d 3e 7b 7f f5 3c 4d 7e 3d 3c 14 55 ec 3d
       0.1540128 0.029968014 0.011565757 0.11539665
000380 09 c6 6a 3d c9 43 12 3d 24 25 16 be 5f a9 80 bd
       0.057317767 0.035709176 -0.14662606 -0.06282305
000390 b9 0f 0c be b9 4e 1b 3c 8f e2 b9 bd d6 04 50 be
       -0.13677873 0.009479218 -0.09076416 -0.20314345
0003a0 10 7b 34 be b3 da c2 bd 06 1f a1 3c bf 20 00 bd
       -0.1762507 -0.0951437 0.019668113 -0.03128123
0003b0 44 55 af 3d 31 c7 ef 3d b5 e6 88 3e d6 b5 5d 3e
       0.08561185 0.117079146 0.26738515 0.21651396
0003c0 c6 e1 8e bd 4e 41 1f bd d1 e8 d4 3d cc d5 15 3d
       -0.069766566 -0.03888064 0.10395969 0.036580846
0003d0 d8 bf 23 be d6 33 01 bc c3 2e fc bd f4 b9 c3 bd
       -0.15991151 -0.007885894 -0.123136066 -0.09556952
0003e0 bc 50 4e 3c 60 7b 84 bd ce 9d c6 bd 95 1e d5 bd
       0.012592491 -0.064688444 -0.096980676 -0.10406224
0003f0 57 c6 0d 3e bd 03 b0 3d 2c 25 0a 3e fd 30 8a 3d
       0.13845192 0.08594463 0.13490742 0.06747625

weight f4 [6, 6, 9]
000000 3f 04 01 be e8 de 2a bc d1 f0 30 bd 82 59 d4 bd
       -0.12599276 -0.010429122 -0.04319841 -0.10368635
000010 82 9f c7 bd e4 18 eb 3c 10 23 e0 bd 6f 0f 98 bc
       -0.097472206 0.028698392 -0.10944188 -0.018562047
000020 9c e1 3a 3d fc f7 39 bd ab b7 9e bd ca 71 90 3d
       0.045625314 -0.045402512 -0.07749876 0.070529535
000030 1d bd 4c 3d 43 27 79 bc e2 cf ea 3d 81 7a 41 bd
       0.04998504 -0.015207115 0.11465432 -0.04723597
000040 aa e4 ae bd 10 1b ff 3d 85 72 a5 bd 23 51 04 bd
       -0.08539708 0.12456334 -0.080784835 -0.03230394
000050 31 ac b3 bd d6 c2 68 be ba b2 3d be 95 d2 22 be
       -0.08773077 -0.22730574 -0.1852521 -0.15900643
000060 0d 5f 32 be e2 6c ab 3d d1 77 04 bd e4 f2 47 3d
       -0.17419071 0.08370377 -0.03234083 0.048815623
000070 e5 5b 9b bc ca ee d1 3d fc 45 12 bd d8 7b f7 3c
       -0.018964717 0.102506235 -0.035711274 0.03021042
000080 1b 05 86 bd 23 29 8a 3d 01 37 ef bd bb 5a 49 3d
       -0.065439425 0.067461275 -0.11680413 0.049158793
000090 cf dc 1e 3e ca ae 6b bc 76 37 52 3e 57 64 93 3d
       0.1551392 -0.014384935 0.20528969 0.07196873
0000a0 81 e5 27 bc 73 9f bc bb f1 35 07 3e f9 c4 12 bd
       -0.010247589 -0.0057563125 0.13204171 -0.03583238
0000b0 e5 3e b6 3d 85 cd ab bd 47 89 b3 bd ef a6 5c bd
       0.08898715 -0.08388809 -0.08766418 -0.053870138
0000c0 bf 3b 1c be e0 f0 96 3c 0e c7 c4 bd 52 bb af bd
       -0.15257166 0.018425405 -0.09608279 -0.085806504
0000d0 8e 31 9e bd c7 3b 9d 3d 80 14 ef 3d 78 b0 a2 3d
       -0.077242956 0.07677417 0.11673832 0.07943815
0000e0 0c 9f 14 3c 2e a3 04 be 68 06 2c be 35 47 98 bd
       0.009071123 -0.12952873 -0.16799319 -0.07435457
0000f0 90 6e e8 bd c8 87 fa 3c 4d 9e bb 3d d8 81 2c be
       -0.11349213 0.030582324 0.09161053 -0.16846406
000100 18 08 cb 3c 09 03 2d be da 6a 8c bd e5 d7 a2 bd
       0.024784133 -0.16895689 -0.06856318 -0.07951335
000110 74 89 ae bd 67 7a e1 3d ea 66 62 bd 41 b3 3b bd
       -0.08522311 0.110096745 -0.055273928 -0.045825247
000120 26 48 a0 bc 11 e4 68 bd 9b 16 ad bd dd 8e 23 bd
       -0.019565653 -0.056858126 -0.08451577 -0.039931167
000130 f7 e5 fd ba 5a c7 de 3d b6 19 69 bd 2f e1 20 be
       -0.0019370903 0.10877867 -0.056909285 -0.157109
000140 c4 a0 28 be 39 ac da 3b 53 a6 34 bd 98 14 85 3d
       -0.16467577 0.0066733626 -0.04410393 0.064980686
000150 90 05 e1 3d bb 94 63 bd 07 03 3e bd 66 73 0b bc
       0.10987389 -0.055561762 -0.046389606 -0.0085114
000160 83 d0 8a bd ad b5 c5 3d eb 78 27 bd b2 34 81 3d
       -0.06778052 0.096537925 -0.0408868 0.06308879
000170 d6 98 bf bd a1 32 cd 3c e1 f1 a8 bd 56 e6 22 b9
       -0.09355323 0.025048556 -0.0824926 -0.00015535331
000180 c5 65 20 bd 00 2c 2a 3e 84 8a 93 3d 73 27 b4 bd
       -0.039159555 0.16618347 0.07204154 -0.08796587
000190 03 55 86 3b 44 4e 02 3e d1 9e 81 3d b4 77 92 bd
       0.0040994897 0.12725168 0.0632912 -0.07151738
0001a0 29 cd e8 3c 27 aa 99 3d 60 af 95 bd 40 56 97 3c
       0.02841814 0.07503157 -0.07308841 0.018473744
0001b0 63 da 80 3d e6 aa 23 be 66 a5 ca 3d df ce 26 bd
       0.06291654 -0.15983161 0.098948285 -0.04072463
0001c0 4c dd a2 3d 23 0f 95 bd f1 6f e4 bd d8 82 0a bd
       0.07952365 -0.07278278 -0.11154164 -0.03381619
0001d0 83 52 d9 bc f0 0c a0 3d 48 e1 ab bd c4 48 af 3d
       -0.026528602 0.07814968 -0.08392578 0.08558801
0001e0 32 6f c6 3d c6 11 1f 3d 18 11 07 bd b7 8e a2 bd
       0.096891776 0.03883531 -0.032975286 -0.07937377
0001f0 bc da 8d bd 7f 49 14 be 86 7c 1c 3e 3b 6d 2c 3e
       -0.06926486 -0.14481162 0.15281877 0.16838543
000200 a4 f5 e4 3d c9 a7 52 3d cb 5c 09 bd 0b 5a 6f bd
       0.11179665 0.051429544 -0.03353576 -0.05843548
000210 22 88 c4 3c a9 9b b1 bd 73 ce 15 bd d1 8b e0 3c
       0.023990694 -0.08672268 -0.03657384 0.02741042
000220 f4 ca c7 3c c5 f7 3a be f3 eb b3 3d a1 12 c4 3d
       0.024388768 -0.18258579 0.08785238 0.09573866
000230 ff 02 94 3d 1a 06 d0 3d de a4 7d 3d 98 3d 98 3c
       0.07227134 0.10157414 0.061924808 0.018584058
000240 17 9e 00 be 2f 92 c5 bd dc b9 e6 bd cd fb 59 bd
       -0.12560306 -0.09647023 -0.112659186 -0.05321865
000250 a5 7a 1e 3d 26 53 f4 bd e6 7f 63 3d 6f c7 14 be
       0.03869118 -0.11929922 0.055541895 -0.14529203
000260 f9 80 0f 3d 02 99 af 3b ac 83 3e bd 26 ea ea 3d
       0.035035107 0.005358816 -0.04651229 0.114704415
000270 f0 49 d5 bd 1e bc a6 bd 99 8d 9c 3d 25 b3 ce bc
       -0.10414493 -0.08141349 0.07644195 -0.025231907
000280 85 c4 c0 3d b2 69 ed bd 99 03 e1 3c c6 ce 5a 3d
       0.09412483 -0.115924254 0.027467536 0.05341985
000290 81 8b 47 3d f8 ba f2 bd 72 a5 17 bd 25 b6 e0 3d
       0.048717026 -0.11852068 -0.037023015 0.10972241
0002a0 8e dd 85 bd 55 f4 08 3e d1 b2 bb 3c c8 33 54 3d
       -0.06536399 0.13374455 0.022912415 0.051807195
0002b0 32 c8 56 bd 1e 14 eb 3d 7c 17 fe 3d 38 e3 37 3e
       -0.052437015 0.114784464 0.12406823 0.17957771
0002c0 2b 0b ed 3d a3 65 12 bd f5 10 c9 3d 82 3d 5c bd
       0.11574396 -0.03574146 0.098176874 -0.053769596
0002d0 94 6a 1e be c7 e6 66 bd b4 3c 48 be e3 f3 6c be
       -0.15470344 -0.05637243 -0.19554406 -0.2313991
0002e0 20 01 38 be f8 ed 1a 3c 1c 55 f6 bd 98 de 11 be
       -0.17969179 0.00945615 -0.12027952 -0.14245069
0002f0 88 6d 54 3d 5d ba 91 bd ee ab 12 3b c3 9a 58 3d
       0.05186227 -0.07115624 0.002238031 0.052881967
000300 5a 50 a2 bd 64 9d 9d bd c1 5c 37 3e a6 5e f5 3d
       -0.07925482 -0.076960355 0.17906477 0.119809434
000310 a6 d7 aa 3d 41 a9 06 be c1 e1 02 3e 98 66 8e bd
       0.08341913 -0.13150503 0.12781431 -0.06953162
000320 3a 89 f2 bc e1 56 c1 bd bb d8 b1 bc 56 70 0d be
       -0.02960645 -0.09440399 -0.02170979 -0.13812384
000330 7c 35 43 3d d1 9d 8d 3d 3b 89 f3 3c a2 d8 2a 3d
       0.04765843 0.06914867 0.029728523 0.041710503
000340 17 2e fa 3c b6 32 8a 39 b3 b2 07 be 47 7b 99 3c
       0.030539555 0.00026359194 -0.13251762 0.018735541
000350 c7 0f 46 bd 6f ca 0b 3d 23 19 01 be 06 8f d8 3d
       -0.04835489 0.034128603 -0.12607245 0.105741546
000360 5c 37 8e 3c 8a b0 0d 3d df ae e2 3d 0d 56 95 bd
       0.017360382 0.03459219 0.1106851 -0.072918035
000370 1f 28 b5 3d 77 a2 f4 3d 04 f0 d7 bd 4f c3 bb 3c
       0.08845543 0.1194505 -0.10543826 0.022920279
000380 db 92 84 3d 38 8b 51 3e cd 5c e0 3d d1 94 cd 3b
       0.06473323 0.20463264 0.109552 0.006273844
000390 5c 11 58 3d ad ce e3 bc 1c 07 0c 3d 1c 8b 77 bd
       0.05275093 -0.027808512 0.034186468 -0.0604354
0003a0 bb f7 fa 3b 31 bb a4 bd 8b 94 1a be b3 66 f3 bc
       0.0076589263 -0.080435164 -0.15095727 -0.029712057
0003b0 ef 1b e0 3c 67 19 e9 3d 47 db ab 3d 92 6c 81 bd
       0.02735707 0.11381798 0.08391433 -0.06319536
0003c0 ad cc 54 bc 77 25 b8 3d 30 f5 a5 bd f4 01 bc 3a
       -0.012988252 0.08991521 -0.081034064 0.0014343844
0003d0 1b 07 44 3d 6e 11 cb 3b f7 86 2c bd 7c 9e 88 3d
       0.04785834 0.006197146 -0.0421209 0.066708535
0003e0 d4 b2 09 bd 6c 57 00 be b8 46 84 3d e6 bf c5 3d
       -0.03361781 -0.12533349 0.06458801 0.09655742
0003f0 3e 3b cf 3c 28 ea c3 bd 2c e1 08 3e 4c a8 79 bd
       0.025296804 -0.09566146 0.13367146 -0.060951516

weights f4 [6, 1, 3, 1]
000000 bd 9a 87 3f 1d dc 7d 3f c8 98 6b 3d f2 ae 6d 3f
       1.0594097 0.9916399 0.05751875 0.9284507
000010 fb d6 81 3f 73 2c 16 3d a5 d0 86 3f e8 bc 64 3f
       1.0143732 0.036663484 1.0532423 0.8935075
000020 16 08 a8 3d ed a7 55 3f 80 8a 83 3f 33 3b b5 3a
       0.08204667 0.8345936 1.0276642 0.0013826847
000030 88 ba 7a 3f 1d 26 81 3f a8 b0 ca bc c3 3e 86 3f
       0.97940874 1.0089756 -0.02474244 1.0487903
000040 22 d2 7b 3f b7 cb cf 3d
       0.9836751 0.101462774

running_cov f4 [1, 6, 2, 2]
000000 67 b4 63 3f 1f 95 95 bd 1f 95 95 bd 12 aa 52 3f
       0.8894715 -0.07303833 -0.07303833 0.82290757
000010 c2 cb 96 3f 9e 9f 5b 3d 9e 9f 5b 3d 08 82 8a 3f
       1.1780932 0.05361902 0.05361902 1.0820932
000020 14 8d 71 3f df bd 42 bd df bd 42 bd 9e e7 8a 3f
       0.94355893 -0.047544356 -0.047544356 1.0851934
000030 85 17 48 3f 74 ab 65 bd 74 ab 65 bd 36 9e 3a 3f
       0.7816089 -0.056071714 -0.056071714 0.7289766
000040 75 13 2a 3f c4 e1 4e bc c4 e1 4e bc 8a 5e 47 3f
       0.6643594 -0.012627069 -0.012627069 0.7787863
000050 30 73 36 3f 24 85 a8 3c 24 85 a8 3c fd 40 17 3f
       0.7126951 0.020571299 0.020571299 0.5908354

weight f4 [6, 6, 5]
000000 3f 4a f7 3d 79 6a 09 3d c2 11 d6 3d 65 95 de bd
       0.12074708 0.033548806 0.10452606 -0.108683385
000010 cc 85 3d be 89 ce 2b 3e 8a 9f 25 be d7 16 2f be
       -0.1850807 0.16778006 -0.1617414 -0.17098556
000020 e1 a7 39 be d5 79 d8 bd b1 0e 0c bc f7 84 36 be
       -0.18130447 -0.105701126 -0.008548425 -0.1782416
000030 9f f8 61 be fd 0a 3d be 6d 06 25 be bc ab 01 3e
       -0.22067498 -0.18461223 -0.16115732 0.12663168
000040 b7 d6 a0 bd b3 64 49 3e 0b f2 1b 3e a1 5a 36 bd
       -0.078534536 0.1966732 0.15229051 -0.044520024
000050 b5 26 b0 bd 36 15 42 3c 27 cd f0 3d 65 9d 08 be
       -0.08601133 0.011845877 0.1175788 -0.13341291
000060 5d f0 12 3e 91 20 ad bd 90 70 b2 3c bb d2 7b 3d
       0.14349504 -0.08453477 0.02178219 0.061480265
000070 ee 6c 17 3e 3c ba cd 3d e4 b8 a9 3c a4 09 10 be
       0.14787647 0.10045287 0.020718046 -0.14066178
000080 6d c9 0e be 80 90 e5 bd 8d 66 00 3c bc e6 08 be
       -0.13944025 -0.11209202 0.00783695 -0.13369268
000090 fb 83 87 3d f1 25 0c be f7 57 00 be 1a 52 ca bd
       0.0661697 -0.13686348 -0.12533556 -0.09878941
0000a0 7e 95 08 be b6 7e 1e be 14 2d 14 3e a0 05 16 3e
       -0.13338277 -0.15478024 0.14470321 0.14650583
0000b0 3b ce 36 3e 2b 0d fc bd 8e 21 6f 3d fb a8 9b 3c
       0.17852108 -0.12307199 0.05838161 0.019001475
0000c0 09 a3 12 3e 60 21 22 be 75 1e 28 bd b2 51 c8 ba
       0.14320005 -0.15833044 -0.04104467 -0.0015283136
0000d0 6d 5e 8c bd 6d df 14 be 1f 32 e2 bc 54 96 de 3d
       -0.06853948 -0.14538355 -0.02761179 0.108685166
0000e0 e1 2b 9d 3d 19 a9 8a 3d 72 96 09 3d 1f b6 da bd
       0.07674385 0.06770534 0.03359074 -0.10679268
0000f0 6b 9d b9 bd e7 2b 31 3d bc ef 95 bd 31 a8 ac bc
       -0.09063228 0.04325476 -0.07321116 -0.021076294
000100 cf b4 0a bc 1e dc 13 be 5b a0 60 bd 77 43 77 bd
       -0.00846596 -0.14439437 -0.054840427 -0.060367074
000110 58 30 80 3d 68 1a e4 3d 7b c1 f0 3d 01 f6 f7 3d
       0.06259221 0.11137849 0.117556535 0.121074684
000120 76 5c d9 bd d2 fb 13 3e b0 36 39 be 4e 96 af bd
       -0.10613339 0.1445153 -0.18087268 -0.0857359
000130 32 5f b6 3d d1 1e 42 be ea 1e 19 3e bb 22 ec bd
       0.08904876 -0.18957068 0.14953199 -0.11530062
000140 af 11 60 3e b8 85 01 bd f3 21 e5 3d 70 22 0a be
       0.21881746 -0.031621665 0.11188116 -0.134897
000150 77 7a 32 be d3 69 4f 3e 88 3a 56 be 0a 88 a6 3d
       -0.17429529 0.20255212 -0.20920765 0.08131416
000160 c7 75 4a 3d 07 b1 2c be 5f 01 53 3d 67 7f 4a 3e
       0.049428727 -0.16864406 0.05151498 0.19775163
000170 6c ea 88 3c f4 d5 02 3e aa c2 80 3b 3a a6 27 3e
       0.016713344 0.12776929 0.0039294558 0.16372004
000180 22 b8 32 3e 0e 86 03 be 1b 44 fc bd 7b 47 0b bc
       0.17453054 -0.12844107 -0.123176776 -0.008500929
000190 d3 30 ee bd a1 1e 72 be 84 b6 cb bd 98 9c 19 be
       -0.11630406 -0.23644497 -0.099469215 -0.15001142
0001a0 46 09 4b be 51 6e ec bd dc 90 5f bd d4 eb 05 be
       -0.19827756 -0.11544479 -0.054581508 -0.13078243
0001b0 58 d0 c5 bd e7 90 c3 bd 47 72 e0 bd 85 bb df 3d
       -0.09658879 -0.09549122 -0.10959297 0.109244384
0001c0 57 90 44 3d 3e 9f b5 bd d6 c7 7c 3d 9f 93 25 be
       0.047989216 -0.08868264 0.061714016 -0.16169594
0001d0 32 9d cc bd 54 82 6f bd 82 ed 4a 3d 95 fc b5 bd
       -0.0999092 -0.0584739 0.04954291 -0.08886067
0001e0 e7 c4 32 bd 3a 2c 95 3d 64 70 38 3e 1e 90 85 3d
       -0.043644812 0.07283826 0.18011624 0.06521629
0001f0 e0 84 83 3e c1 a3 d2 bd 0d 8b 0d be f4 ae 32 bc
       0.25687313 -0.1028514 -0.13822575 -0.01090597
000200 c3 e6 8a 3d f0 67 07 bd fb be da 3d 98 23 30 3e
       0.067822956 -0.033058107 0.10680958 0.17201078
000210 01 1a 88 3e af 1c 12 3e ec 94 74 bb b8 07 16 bd
       0.2658234 0.14268754 -0.003732021 -0.036628455
000220 26 7d 87 bd ab a8 21 3e e5 d4 a6 3d a4 1a 2e be
       -0.06615667 0.15786998 0.08146075 -0.1700235
000230 bc 7a 39 3e a5 fb 92 bc a0 ce c8 3d 8f 11 23 3e
       0.18113226 -0.01794226 0.098050356 0.15924667
000240 d8 7d f2 bd 61 d4 8c 3d f8 15 a0 3d a7 b8 0c be
       -0.11840409 0.068764456 0.0781669 -0.13742314
000250 81 68 2a be 42 a5 9c bd 8e a2 39 3e 24 4e d4 bc
       -0.16641428 -0.07648708 0.18128416 -0.025916167
000260 ff 22 f6 3d a0 f8 95 bc e1 a5 54 3d e8 c3 39 be
       0.12018394 -0.01830703 0.051916007 -0.18141139
000270 4d 06 c2 3d bc 64 86 bd 3d b4 4a bd 70 f7 11 3e
       0.09473858 -0.06562182 -0.049488295 0.14254546
000280 8c 21 e4 bd c1 6f 3d be 2f 9b 9b bd a9 4d 80 3d
       -0.11139211 -0.18499662 -0.07597958 0.062648125
000290 d0 75 82 bd 7f 43 4b 3e ac 05 bd bd b5 5b de bd
       -0.06370127 0.19849966 -0.092295974 -0.108573355
0002a0 c4 4b a1 bc b9 96 1e 3e ba 8a 21 be 88 83 42 be
       -0.019689448 0.15487184 -0.15775576 -0.18995488
0002b0 52 b3 dd bc 3a 14 e4 3d bc 7a d2 3d b3 ac 07 bd
       -0.027063046 0.111366704 0.10277316 -0.033123683
0002c0 0d c0 0f 3e 0a bb be 3d 85 58 3a be ee 3b ec 3d
       0.14038105 0.093130186 -0.1819783 0.11534868

weight f4 [6, 6, 5]
000000 c8 55 6f 3d dd e1 d9 3c 3f 49 13 3e 73 22 f2 bd
       0.058431417 0.026596958 0.1438341 -0.11822977
000010 e8 b4 38 3e 37 38 17 3e 5e 76 54 bd 98 9c a7 3d
       0.1803776 0.14767538 -0.051870696 0.08184165
000020 8e a9 84 bd 23 36 50 bb 66 cd 6d 3c 97 47 24 bd
       -0.064776525 -0.003177055 0.014514303 -0.040107336
000030 56 1b 8f be d0 bf 60 3d cf b3 04 3e 48 df e9 bd
       -0.27950543 0.054870427 0.12959217 -0.11419541
000040 07 01 ca 3d 3c 55 22 3e 2a f9 92 3d af 55 2d 3e
       0.09863477 0.15852827 0.071764305 0.16927217
000050 19 55 87 3e 9e ba da bd 17 de 0b be 38 d4 fd bd
       0.26432112 -0.10680126 -0.1365894 -0.12393993
000060 4d 26 47 3e 50 9f 44 be e6 6c 05 3d 53 e9 e5 bc
       0.19448204 -0.19201398 0.032574557 -0.02806536
000070 ea 86 09 3e 37 f9 bc bd b0 0c 2a 3e 7b 1a 97 bd
       0.13430372 -0.092272215 0.16606402 -0.073780976
000080 12 6a 2f bd e5 3a 01 3e 52 4c ed bc 94 01 eb bd
       -0.042825766 0.12620123 -0.028967056 -0.114749104
000090 c9 81 a9 3d 7e ed 1c 3e 7f 34 0e 3e 52 b0 35 3e
       0.08276708 0.15324971 0.13887213 0.17743042
0000a0 91 fa f8 bd 37 50 d3 3d 8a 02 22 be 28 94 1b 3e
       -0.12157167 0.10318034 -0.15821281 0.15193236
0000b0 88 61 fd bd cc 1d 1c be cd a6 37 bd 30 9e ca bd
       -0.12372118 -0.15245742 -0.044836808 -0.09893453
0000c0 ea 21 e5 3c da 21 c9 3d aa d6 df 3d f9 0f ed 3d
       0.027970273 0.0982091 0.10929616 0.11575312
0000d0 93 4c 66 3e 7d 95 91 bd 47 86 c0 bd d2 90 86 bd
       0.22490148 -0.07108591 -0.09400611 -0.06570591
0000e0 a6 c2 0d 3e 6f 17 10 be 3c e3 25 be db fb c8 3d
       0.13843784 -0.14071439 -0.16199964 0.098136626
0000f0 ca 66 27 be 38 67 ef 3d a8 de f6 3d d7 af 9c bd
       -0.16347805 0.11689609 0.12054187 -0.07650726
000100 9f 6d 65 3d 52 4c ef bd 2a 66 2b 3e 7c 33 27 3c
       0.056012746 -0.11684479 0.16738191 0.010205146
000110 1f 57 41 39 c0 06 37 be ad 43 87 3e ff 65 18 3e
       0.0001843837 -0.17873669 0.2641882 0.14882658
000120 83 bb f8 3d 41 ac e8 3c f4 8a f2 bb 38 cd 8d bd
       0.1214514 0.02840245 -0.0074018184 -0.06923908
000130 c2 18 a3 3d 2a 6a fc bc b4 a3 01 bd c2 ad b7 bd
       0.079637066 -0.030812342 -0.03165026 -0.089686885
000140 3b de 6d 3d 0a dc 1d be 66 fd 0c be 7e fe 06 be
       0.058073264 -0.1541597 -0.13768539 -0.13183019
000150 38 2a a8 3d b6 ea 29 3e 0d ad e7 bd c6 e8 b0 3d
       0.082111776 0.16593441 -0.11312304 0.08638148
000160 6a 0b db 3d 90 76 a6 bd 0a 8c 29 be be e5 85 3d
       0.106955364 -0.08128083 -0.16557327 0.065379605
000170 c8 b7 60 be 9f 27 37 bd 44 95 06 be 4c de 7b 3d
       -0.21945107 -0.04471552 -0.13142878 0.061491296
000180 86 2c 41 3e ee e4 3f 3e 89 fd a9 3d 7e a6 c7 3c
       0.1886464 0.18739673 0.08300311 0.024371382
000190 81 96 26 be 0b e8 02 be 76 95 5c be 5c 2f 94 3c
       -0.1626835 -0.1278383 -0.2154139 0.018088989
0001a0 32 ec 18 3e 4f 77 d7 bc d0 d3 19 3d 74 39 01 bb
       0.14933851 -0.026302008 0.037555516 -0.0019718083
0001b0 aa fe f4 bd 98 4d 0e bd f3 e2 f8 bd 42 74 22 be
       -0.11962636 -0.034741968 -0.12152662 -0.15864661
0001c0 09 61 cf 3d 67 0e 12 be 79 66 e8 bd 32 eb e4 3c
       0.1012593 -0.14263307 -0.1134767 0.027944181
0001d0 18 eb 25 be 89 20 35 3e 84 59 0e be 35 81 f2 3c
       -0.16202962 0.17688192 -0.13901335 0.029602626
0001e0 85 80 0a 3e 83 58 d4 ba c0 2a 49 3d 8d 96 66 bd
       0.13525589 -0.0016200695 0.049113035 -0.05629592
0001f0 ea bb bc 3d 5e 35 66 3d 0b 44 d5 3d cf b9 80 3d
       0.09215529 0.05620324 0.10413369 0.0628544
000200 c2 f1 f0 bd 9a c1 81 bd e3 1b 4c be 9b 27 ee 3d
       -0.11764862 -0.06335755 -0.19932513 0.11628648
000210 cf 23 21 3e fc b8 de 3d 95 d5 8f 3c 22 36 0e 3d
       0.15736316 0.10875127 0.017557899 0.034719594
000220 a7 4c 99 3c 99 e3 4c 3e bc bf f5 bd 14 e3 9f 3d
       0.018713308 0.20008697 -0.11999461 0.078069836
000230 56 c8 18 bc bb 73 5a be 60 dc 8d 3d 26 d2 1e 3e
       -0.009325108 -0.2133321 0.06926799 0.15509853
000240 da 8d 46 bd 04 90 15 be 64 dc ed bb d4 a8 23 3d
       -0.048475124 -0.14605719 -0.0072589386 0.03995593
000250 91 a7 af bd e1 2b 3a 3e 28 51 fe bd df 00 1b 3c
       -0.08576883 0.18180801 -0.12417823 0.009460657
000260 d8 cb 13 3d 80 78 c0 3d 60 7a 06 3e ef 70 3f bd
       0.036083072 0.093979836 0.1313262 -0.04673856
000270 b5 65 70 3e ce 38 37 bd 67 7a 07 3e 1d ae c7 3c
       0.23476298 -0.044731908 0.13230287 0.024375016
000280 0e 49 aa bd 6b 3e 93 be de a0 32 be 60 a0 66 be
       -0.08314715 -0.2875856 -0.17444178 -0.22522116
000290 81 5b 56 be 94 55 1c be c5 2e 11 be f8 ff 10 3e
       -0.20933343 -0.1526702 -0.14177997 0.14160144
0002a0 10 a8 05 3e 8b de 55 3c 5d 43 38 be 89 4f 90 bd
       0.13052392 0.013053547 -0.17994447 -0.0704642
0002b0 36 10 bb 3d 3d ae 33 3e 53 ff d8 3b f3 0e 0f be
       0.09133951 0.17546935 0.006622234 -0.13970546
0002c0 8c ec 82 bd 2a a8 a8 bb 07 e6 0e 3d 45 0b 13 3e
       -0.06392774 -0.005147 0.03488734 0.14359768

weights f4 [6, 1, 3, 1]
000000 55 01 81 3f 88 d5 87 3f be 25 e2 3c 0c a7 7f 3f
       1.0078532 1.061204 0.027605888 0.9986427
000010 fa 30 7f 3f ad 83 e5 3c e9 53 84 3f 81 e9 81 3f
       0.9968411 0.02801689 1.0338107 1.0149385
000020 7c 9d 10 3e f4 21 84 3f dc eb 85 3f 90 f5 13 3e
       0.14122576 1.0322862 1.0462604 0.14449143
000030 3c ea 8a 3f 97 35 85 3f 97 90 3f bd 9b 05 70 3f
       1.0852733 1.0406979 -0.04676875 0.93758553
000040 2e 1a 89 3f 54 36 ab bc
       1.0711114 -0.02089993

running_cov f4 [1, 6, 2, 2]
000000 68 66 7e 3f c0 4d 02 3e c0 4d 02 3e 3c b5 cb 3f
       0.9937501 0.12724972 0.12724972 1.5914683
000010 5c 0c 87 3f c5 89 82 bd c5 89 82 bd db fb b0 3f
       1.0550647 -0.06373934 -0.06373934 1.382686
000020 e8 bc b9 3f f1 2e f8 bc f1 2e f8 bc ca 07 a2 3f
       1.4510775 -0.03029582 -0.03029582 1.2658627
000030 06 81 6d 3f 25 84 26 bd 25 84 26 bd ca c8 4a 3f
       0.92775 -0.040653367 -0.040653367 0.7921263
000040 1c 01 63 3f 74 c0 7f bd 74 c0 7f bd 2a 5a 89 3f
       0.8867357 -0.062439397 -0.062439397 1.0730641
000050 a6 30 88 3f d4 68 de b9 d4 68 de b9 8a 58 61 3f
       1.0639846 -0.00042421243 -0.00042421243 0.88025725

weight f4 [6, 6, 3]
000000 2d 49 48 be 7a 14 6c be a0 32 98 3d be 4a 38 3d
       -0.19559164 -0.23054686 0.07431531 0.044993155
000010 d0 74 91 3d 3b 4a 81 bd ad e0 01 be ad 62 b7 be
       0.07102358 -0.063129865 -0.12683363 -0.3581747
000020 4c 0e ee 3d 19 84 01 3e 3c 3b 4d bc 11 bb 32 3e
       0.11623821 0.12648048 -0.01252633 0.17454173
000030 c1 d2 b6 bd 1c 36 ec 3c cf 60 0c 3d 7a 52 91 3c
       -0.08926917 0.028834395 0.03427201 0.017739523
000040 14 05 02 3e 2d 30 6c 3e 39 49 40 be f0 c7 51 be
       0.1269725 0.23065253 -0.18777932 -0.20486426
000050 ea 5f 41 3d f6 6d 41 3e 88 d6 75 3e d6 15 b1 bd
       0.04721061 0.18889603 0.24007618 -0.08646743
000060 6e 58 69 3e 14 a7 4b be 6d 99 ec 3d 47 40 ee bd
       0.2278764 -0.19887954 0.11552701 -0.11633354
000070 80 89 72 3d 75 31 86 be 1d 64 f4 3d df cc ca 3c
       0.05921316 -0.26209608 0.119331576 0.024755893
000080 27 57 df bd dd 04 06 3e 2b c3 04 be fe 83 08 be
       -0.10905295 0.13087793 -0.12965076 -0.13331601
000090 a6 23 84 bd 50 92 db bd c3 7b dd 3d d1 d8 06 3e
       -0.06452112 -0.10721266 0.10814621 0.13168646
0000a0 37 98 95 bc 15 2c 34 be e6 c3 62 3e 7f 8e fb 3d
       -0.018261058 -0.17594941 0.22145042 0.12283038
0000b0 61 e7 6f bd 11 32 1d bc 97 12 8d be 14 e6 91 3d
       -0.05857027 -0.009594456 -0.27553245 0.07123962
0000c0 66 82 a9 3d 02 e5 89 bd ec 4a f4 3d 37 74 49 be
       0.08276825 -0.06733133 0.11928353 -0.19673239
0000d0 28 13 61 be 14 04 11 be 1e a4 5a be c0 c5 94 bd
       -0.21979964 -0.14161712 -0.21351668 -0.0726428
0000e0 b3 42 e9 3d 1d c4 68 3e 15 1f 0d be 65 97 56 be
       0.11389675 0.22731061 -0.13781388 -0.2095619
0000f0 ff 60 5d bd 72 37 59 bd 28 d0 73 3d 7e 8a ee bd
       -0.05404758 -0.053031392 0.059524685 -0.11647509
000100 88 5d b5 be b8 3b 64 bd 11 95 5f 3e 8a b8 ba bc
       -0.3542292 -0.055721015 0.21834208 -0.022793073
000110 61 3b da 3c b6 b9 33 3d dc 14 18 3e 13 cf f0 bc
       0.026639642 0.04387828 0.14851707 -0.029395616
000120 51 77 4b 3d 52 55 10 3d ec cd 15 3e a3 d5 19 3e
       0.049674336 0.035237618 0.14629334 0.15022902
000130 b3 41 13 bc e9 dd 74 be 4d d4 79 bd 45 a3 4c 3e
       -0.008987832 -0.23912777 -0.06099348 0.19984157
000140 51 4a ba 3e ec 53 12 bd 8e fb e2 bd a5 ac 88 3d
       0.36384824 -0.035724565 -0.110831365 0.06673554
000150 2e 4c 73 be 6e 53 1d 3d fb 35 94 3d ec 55 f7 3d
       -0.23759529 0.038409643 0.072368585 0.12076935
000160 b2 d1 f7 bd e7 30 b3 be d6 df 60 bd d2 4f 96 3c
       -0.12100543 -0.34998247 -0.054900967 0.018348608
000170 03 44 cd bb 78 47 d6 3c a7 ca 8f bc da ea 4f 3e
       -0.006264211 0.026157126 -0.017552687 0.20304433
000180 af 0a 36 3e a3 ce 35 be 8e 3c 34 3e 8e 60 69 3c
       0.17777513 -0.17754607 0.17601225 0.014244212
000190 42 41 54 be 1a 36 6a 3e 10 44 e1 3d a6 13 c0 3d
       -0.20728019 0.228722 0.1099931 0.09378748
0001a0 44 9c 9f 3d 85 8f 50 bd db 31 d5 3d aa f3 fc bd
       0.07793477 -0.05091812 0.104099 -0.12351163

weight f4 [6, 6, 3]
000000 07 ff 35 3e 52 f4 76 3e 47 46 04 be d2 46 2f be
       0.17773066 0.24116638 -0.12917434 -0.1711686
000010 c0 2a df bd 83 b4 7f 3e 1d 03 8d be fc 94 87 bd
       -0.10896826 0.24971204 -0.27541438 -0.066202134
000020 de 3c 18 be de 62 b7 bd b3 a7 ac 3d 44 40 0c 3e
       -0.14866969 -0.08954404 0.084304236 0.1369639
000030 27 15 37 3e 00 b4 23 be 5b e8 0a be 47 10 27 3e
       0.17879163 -0.15986633 -0.13565199 0.16314803
000040 f9 60 59 be 72 0e 41 be 97 4d 15 3e 73 e9 25 bd
       -0.21228398 -0.18853167 0.1458038 -0.040505838
000050 46 9b 30 be 62 0f 1e 3e 54 ff 62 be 33 90 09 be
       -0.17246732 0.15435556 -0.22167712 -0.13433914
000060 ad f6 9a bb 57 af 45 3e da 15 51 be bf cf 63 3e
       -0.004729113 0.19305168 -0.20418492 0.22247218
000070 98 8b 50 3e 84 66 14 bd 34 aa b2 3d 40 2c e0 bd
       0.20365751 -0.03623058 0.0872387 -0.1094594
000080 1e bc 72 3e 4b 57 01 3e 9e be 98 bd 9f 88 9a 3d
       0.23704574 0.12630956 -0.07458232 0.0754559
000090 af 9d 8b 3d df a0 1d be 53 06 36 3d fd f7 77 3e
       0.06817185 -0.15393399 0.044439625 0.24215694
0000a0 c0 ef 10 bd f4 d9 94 3d 34 dd 91 3d 97 e2 11 bc
       -0.035384893 0.07268134 0.07122269 -0.008904121
0000b0 15 8a 7e 3c 09 6e de 3d 4e 45 54 be c4 8d be bd
       0.015535851 0.10860831 -0.20729563 -0.093043834
0000c0 58 32 7a 3d 69 d0 60 bd 00 93 4c 3e 5e f5 11 bc
       0.061083168 -0.054886255 0.19977951 -0.008908598
0000d0 dc 4f 59 bc 2f 0f 86 be 78 1d 2d be a7 ca 6d be
       -0.013263669 -0.2618346 -0.16905773 -0.23221837
0000e0 10 c6 36 be 02 6d cb bc bc d9 ce 3d f6 5b 3e 3d
       -0.17848992 -0.024832252 0.10100123 0.04647442
0000f0 1e 73 67 bd b9 2f b9 bb d9 92 35 3d 47 e2 47 3c
       -0.05650627 -0.005651441 0.044329498 0.012199945
000100 2a b5 63 3e 07 aa b3 3c 97 19 1f bd ee e8 91 3b
       0.22237077 0.021931661 -0.038842764 0.004452816
000110 74 8a 67 be 09 7b 09 3e d5 b4 86 3e 57 ea d1 3d
       -0.2261141 0.1342584 0.2630984 0.10249775
000120 85 d3 60 3e 94 26 2c be 5f 8a 18 be 24 fb 0a be
       0.21955688 -0.16811591 -0.14896534 -0.13572365
000130 c3 6b 69 bd 40 30 8f 3d a7 2d d6 bd 24 8c 81 3d
       -0.056987535 0.06991625 -0.10457926 0.06325558
000140 22 84 22 be 2d ff 9e 3c fd cd ec bd 58 23 aa bd
       -0.15870717 0.019408787 -0.11562727 -0.083075225
000150 9d 2d 26 3d e9 ce 9a bd 43 e9 6d 3e f0 1d 19 be
       0.040570844 -0.07558996 0.23233514 -0.14952826
000160 23 87 0b be cb 1f 6c be 60 3a 6a be 20 60 bf bd
       -0.1362577 -0.23059003 -0.22873831 -0.09344506
000170 b6 5d 80 bb 6d 26 9f 3e 5c 9e 2d 3e a9 d5 aa 3b
       -0.003917421 0.31084004 0.1695494 0.0052134586
000180 d3 e9 b0 be 75 58 2a be e9 7c 42 3d cf aa 21 be
       -0.34553394 -0.16635306 0.047482405 -0.15787815
000190 0d 28 6d 3e 2a ff 38 3c 44 32 c8 bb ae 89 48 be
       0.2315981 0.011291305 -0.0061095078 -0.1958377
0001a0 a7 e9 d6 bd 20 2a f0 bd 28 15 bc 3b f8 d0 80 bc
       -0.104937844 -0.11726785 0.0057398267 -0.015724644

weights f4 [6, 1, 3, 1]
000000 5a 6d 6c 3f ff 85 83 3f 31 a7 6c bd 28 05 7b 3f
       0.9235436 1.0275267 -0.057776634 0.9805474
000010 7f 92 73 3f 21 65 ca 3c ef 85 73 3f 46 91 83 3f
       0.9514541 0.024706425 0.9512624 1.0278709
000020 2d cd 29 3e c9 c0 89 3f ca 7d 5d 3f ed cc 61 bd
       0.16582175 1.0761958 0.86520064 -0.055127073
000030 84 a7 73 3f 5d de 88 3f 9f fa 84 3d b2 51 79 3f
       0.95177484 1.069286 0.06493115 0.9739028
000040 f2 bf 85 3f ee b4 71 3d
       1.0449202 0.05901044

running_cov f4 [1, 6, 2, 2]
000000 48 93 93 3f dd dc 14 bd dd dc 14 bd 38 d6 a0 3f
       1.1529322 -0.036343444 -0.036343444 1.2565374
000010 a7 cd 9f 3f d8 fc 99 bd d8 fc 99 bd 04 41 bc 3f
       1.2484635 -0.07518929 -0.07518929 1.4707341
000020 a6 a4 b0 3f 14 0d e7 3d 14 0d e7 3d e8 82 da 3f
       1.3800247 0.11281791 0.11281791 1.70712
000030 03 4b aa 3f 46 36 b6 bd 46 36 b6 bd b1 9d 78 3f
       1.3304142 -0.088970706 -0.088970706 0.9711562
000040 ef da 8e 3f e8 fb 2f 3e e8 fb 2f 3e 12 61 de 3f
       1.1160563 0.17185938 0.17185938 1.7373374
000050 9c 40 99 3f 8e 26 df 3d 8e 26 df 3d 3c 13 84 3f
       1.1972842 0.108960256 0.108960256 1.031837

weight f4 [1, 6, 1]
000000 67 0e 88 3e 45 69 c4 3b 94 4c aa be 70 77 74 3e
       0.26573488 0.0059939944 -0.3326155 0.23873687
000010 fd e3 2b be 8e 26 62 3e
       -0.1678619 0.2208502

weight f4 [1, 6, 1]
000000 ba e8 33 3e 12 db 7a 3e 42 0a 68 be 47 ad 3c 3e
       0.17569247 0.24497631 -0.22660163 0.18425475
000010 1f a9 04 be ee 12 0d be
       -0.1295514 -0.13776752

weights f4 [1, 1, 3, 1]
000000 5d d4 70 3f ad 78 a3 3f 60 40 65 bd
       0.9407404 1.2771202 -0.055969596

running_cov f4 [1, 1, 2, 2]
000000 48 10 3c 3f 22 5b 4b bd 22 5b 4b bd 56 9b 40 3f
       0.73462343 -0.049647458 -0.049647458 0.75237024

weight f4 [6, 6, 7]
000000 2f 0b 18 3e 28 7e da bd 26 32 3b bd fa 28 4a be
       0.14848016 -0.10668594 -0.045702122 -0.19742194
000010 27 ab 86 bd 5b f8 1e bd 76 88 09 3e 18 d7 1c bd
       -0.065756135 -0.03881107 0.13430962 -0.038291067
000020 61 ea 26 3d a8 ef 7b 3d 51 d0 e6 3d ee 55 26 3d
       0.040750865 0.06150785 0.11270202 0.040609293
000030 3b b8 db bd 70 77 57 be 86 45 c9 3d 70 3c 70 bc
       -0.107284985 -0.21041656 0.09827714 -0.014662847
000040 79 69 f6 3a 29 17 c3 bd c1 d2 ec 3d 4e c3 1d be
       0.0018799744 -0.09525902 0.115636356 -0.15406534
000050 91 3d 68 be 8f 28 78 3d e4 30 53 bd d0 b9 25 bc
       -0.22679736 0.060585555 -0.051560298 -0.010115102
000060 04 df ff bd c0 b2 14 3d 76 ba cb 3d fc 1a 33 3e
       -0.12493709 0.03630328 0.09947674 0.17490762
000070 c3 9a 20 be 61 49 d3 3d 25 38 81 bd 95 d1 c3 bd
       -0.15684037 0.1031673 -0.06309537 -0.09561459
000080 af 2c 37 3d 8f d4 e5 bd 31 a7 83 bc fc 5e f1 bd
       0.044720348 -0.11222183 -0.016070934 -0.11785695
000090 17 82 ef 3d 37 15 ae 3d cf 5d 20 3d cd 6e a4 3c
       0.116947345 0.0850014 0.039151963 0.020072365
0000a0 2a 85 1b be 53 c9 87 3d 5a 84 51 3e f4 ea 00 3e
       -0.15187517 0.066301964 0.20460644 0.12589628
0000b0 c1 67 82 bd 13 a2 72 bc 6f e6 32 bc c8 1f c5 39
       -0.06367446 -0.014809149 -0.010919197 0.00037598447
0000c0 c4 b4 e1 bc 16 b8 61 bc 74 34 31 be 24 77 a7 3c
       -0.027552016 -0.0137768 -0.17305166 0.020442553
0000d0 7f cb 38 bd c8 77 05 3e 61 dd 72 be d8 88 44 bd
       -0.045115944 0.13033974 -0.23717262 -0.047982067
0000e0 ee da 1a be 33 d4 92 3d 83 5e 25 3d db 07 88 3d
       -0.15122578 0.0716938 0.040373337 0.06642123
0000f0 74 39 0a be e3 31 dd bd 88 84 96 be 30 63 04 be
       -0.13498479 -0.10800531 -0.29397988 -0.12928462
000100 2f 7a a9 3d a6 ad 05 3e f3 16 ba bd 5f 50 9f bd
       0.08275258 0.13054523 -0.090864085 -0.077790014
000110 91 c2 92 bd bf 29 0c 3c 0f 50 c0 bc 48 aa 00 be
       -0.07166017 0.008554875 -0.023475675 -0.12564957
000120 75 5e 72 bc 31 66 68 3d bc 4b 04 be 73 22 2f 3d
       -0.014793028 0.056738082 -0.12919515 0.042757463
000130 1e d3 d0 3c 64 c9 df bc c4 f8 e9 bb 8f 05 ae 3c
       0.025491294 -0.02731771 -0.007140251 0.021242885
000140 2e b8 70 3d f8 6e 41 bc a4 82 fd 3d 92 16 c7 3d
       0.058769397 -0.011806242 0.12378433 0.09721102
000150 83 b5 25 bd 11 d8 92 bd 22 24 29 3d 94 e5 58 bd
       -0.040456306 -0.07170118 0.041294225 -0.052953318
000160 46 2f 8b 3d 7a 29 ad 3c ed 93 21 3d b6 d4 39 be
       0.06796126 0.021137942 0.039447714 -0.18147549
000170 f6 7b a2 bc 1d f6 02 3d 0e da 9a 3d fd 02 07 3e
       -0.0198345 0.031972993 0.07561122 0.13184734
000180 78 7b 6d 3e 3a 38 bc 3c d9 43 1e 3e b3 01 ea bc
       0.23191631 0.02297603 0.1545557 -0.028565263
000190 61 a7 f6 3d c0 e5 35 bd 34 82 db 3d 38 91 3e be
       0.12043644 -0.04440856 0.10718194 -0.18610084
0001a0 53 69 4d 3d 8c 95 e0 bd 43 b3 63 bc c5 5e 4c bd
       0.050149273 -0.10966024 -0.01389772 -0.049895067
0001b0 0d d8 38 bc 22 60 ea bd 8a fc 1e 3e 77 63 88 3d
       -0.011281979 -0.11444117 0.15526024 0.066595964
0001c0 60 17 45 bd fd 8b 50 bc 2f 28 33 be 92 8e e1 bd
       -0.048117995 -0.012728688 -0.17495798 -0.11013521
0001d0 e2 12 1a be bb c5 0f be 32 5f 22 3e ac 73 0c be
       -0.15046266 -0.14040272 0.15856627 -0.13716
0001e0 a5 da 9e 3d 60 15 0e be b8 2a 4d be 3f 6e 01 3d
       0.07756547 -0.13875341 -0.20035827 0.03159928
0001f0 ae 25 6e 3c 6f f8 0b 3e c6 58 bd bd d6 42 15 3c
       0.014535351 0.13668989 -0.09245448 0.009110173
000200 2b c7 ae bd 5d ab 3e 3e fb f3 1b 3c 4a 84 61 bc
       -0.08534082 0.18620057 0.009518619 -0.01376445
000210 31 0c 3d 3d 62 a9 e9 3b 2c 95 0a 3e 67 4d 53 3d
       0.046154205 0.0071307877 0.13533467 0.05158749
000220 70 db f1 bd fe 9c 02 be c8 92 ac 3d aa f7 ac 3c
       -0.118094325 -0.127552 0.08426434 0.02111419
000230 bd be e2 3d 95 3f 1c 3e 8a ed 3d 3d 7a dd 00 bd
       0.11071537 0.1525863 0.046369113 -0.031461217
000240 0b 89 28 bd 98 4d ab bd 9f 21 cc 3c 97 95 94 3c
       -0.04114632 -0.08364409 0.024918376 0.018137736
000250 58 76 0d 3d 7e 86 13 be 3f 09 50 bc 4a 52 8e bc
       0.03453669 -0.14406773 -0.012697517 -0.017373223
000260 8c 9b 18 3e 58 4a 97 3d 6b c1 96 bc 57 5d 5e 3d
       0.14903086 0.07387227 -0.018402776 0.054288235
000270 f4 91 81 3d 10 14 93 3d 48 03 b8 3c e1 4d 39 3c
       0.063266665 0.07181561 0.022462502 0.011310072
000280 21 4a 8f 3c 75 16 a0 3c 2a c5 4c 3d c9 ff 80 bd
       0.017491402 0.019541958 0.049992718 -0.06298787
000290 ac ff 32 bd 1f d3 b4 bc 4d 5f e5 bd 83 dd ad 3d
       -0.04370086 -0.022073327 -0.11199818 0.08489516
0002a0 3e 1f c9 bd 25 5a 03 3e 4b ff 9c 3d 0c 4c 87 3d
       -0.09820412 0.12827356 0.07665881 0.06606302
0002b0 d3 bc 08 be de af 38 3d b1 7a 2b 3d 76 0c 95 3c
       -0.1335328 0.045089595 0.041865055 0.018194418
0002c0 81 08 4a 3d ff a0 ce 3b 37 65 47 be 2e 26 3b be
       0.049324516 0.0063058133 -0.19472204 -0.18276283
0002d0 c9 87 0b be eb be 2b 3d 17 51 2b bd d8 f8 da 3c
       -0.13626017 0.04193012 -0.04182538 0.026729986
0002e0 2d dc 34 3d f7 7a 23 3e cc 05 d8 bd 50 de 88 3e
       0.04415529 0.15964876 -0.10547981 0.2673211
0002f0 f4 b7 c9 3d 4f dd 1f 3e 87 8c 07 be b2 fa 04 3e
       0.098495394 0.15611766 -0.132372 0.12986258
000300 6d d6 85 3d 92 39 06 3d 06 23 1a be 72 04 4a bd
       0.06535039 0.032769747 -0.15052423 -0.049320646
000310 29 2c 05 3e a4 6b 53 3d d7 2b 1b be d8 0d d8 3c
       0.13005127 0.051616326 -0.15153442 0.026373789
000320 a3 ab 54 3d f7 a5 e4 3d f4 a5 89 3d 70 6a 8e 3d
       0.051921498 0.11164468 0.06721106 0.06953895
000330 ed 7c 19 3e 19 3e 20 be 3c 65 8e 3b 59 fc 13 bd
       0.14989062 -0.15648688 0.004345564 -0.03612933
000340 55 b6 1c be 97 e2 82 bd be 7d 2b 3c 1d 7d 92 bd
       -0.15303929 -0.06390875 0.010466991 -0.0715277
000350 0c 05 8e bd a5 a3 c0 bd 45 67 8a be c6 2c e2 bd
       -0.06934556 -0.09406213 -0.27031913 -0.11043696
000360 66 f1 b0 3d 86 0c fe bd 07 f8 df 3c a3 ce 4e be
       0.08639793 -0.124047324 0.027339948 -0.20196013
000370 be 86 25 be 69 e8 86 bd 7a ac 39 bd a4 f8 fc 3c
       -0.16164681 -0.065872975 -0.045330502 0.03088028
000380 91 cc f2 3d 19 47 9f bd 86 86 f3 3d 02 7d 79 bc
       0.11855424 -0.07777233 0.11890893 -0.015227558
000390 c2 d3 d2 bd 30 58 47 bd 68 71 5b 3e 8d ea ea 3d
       -0.10294296 -0.048668087 0.2142998 0.11470518
0003a0 08 e5 82 ba 10 c0 bf 3d 5d 8e 85 bd 77 62 8b bd
       -0.000998647 0.09362805 -0.06521294 -0.0680589
0003b0 9e 5f 0f 3d f1 fa 18 3e 86 bd 2c bd 49 fd dc 3d
       0.035003297 0.14939477 -0.04217293 0.10790498
0003c0 b0 e8 88 bd d1 20 9c 3d 88 6f 22 3d 54 e8 1e 3d
       -0.066850066 0.07623447 0.039657146 0.038795784
0003d0 21 3b a0 bc 99 cd ef bd 0a 97 78 3d 52 4a 6e bd
       -0.019559445 -0.117091365 0.060690917 -0.058176346
0003e0 14 c6 e7 bd 31 db aa bd 38 a3 25 bc 47 85 3f 3e
       -0.11317077 -0.08342589 -0.010109715 0.18703185
