Homography_Trained_Model/E2EMP_UL1_50.pth (torch, 885260 bytes, 291 tensors)

weight f4 [1, 1, 1, 7]
00000000: 4f36 88be ec1c 55be f917 4c3e b874 8f3e
00000010: 1e21 a03e 33ba 52be 8428 9bbd
-0.26603934 -0.20811814 0.1993102 0.28018737 0.31275266 -0.20578842 -0.07576087

weight f4 [1, 1, 1, 7]
00000000: ecf2 173d bee0 ab3e 5733 9e3e 31ac be3d
00000010: c31a 813e 5e8f c63e 488c d23e
0.037096903 0.33569902 0.30898544 0.09310187 0.2521573 0.38781255 0.4112265

weight f4 [1, 3]
00000000: 0f17 a83f a62c be3f 8fd6 9e3d
1.3132037 1.4857376 0.077557676

bias f4 [1, 2]
00000000: 4fc5 173e 8a60 843d
0.14821361 0.06463726

running_covar f4 [1, 3]
00000000: e34d c73c 5b72 833c 05dd f5bb
0.024329131 0.01604574 -0.007503154

weight f4 [1, 1, 5, 1]
00000000: 0adb 3b3d 21e7 303e e8d1 a1be 5de5 533d
00000010: 1356 c9be
0.04586319 0.17275669 -0.31605458 0.05173241 -0.39323482

weight f4 [1, 1, 5, 1]
00000000: f968 a2be ff26 5f3e 435f dcbe 73a6 b93d
00000010: 1495 173e
-0.31720713 0.2179222 -0.4304143 0.09064951 0.14802963

weight f4 [1, 3]
00000000: 8ce1 c03f 6782 b63f a108 80bd
1.5068831 1.4258546 -0.06251646

bias f4 [1, 2]
00000000: d3e1 1c3c 7148 e03b
0.009575325 0.006844573

running_covar f4 [1, 3]
00000000: 1425 ac3e 8bd8 ce3e f3db 883b
0.33622038 0.40399584 0.0041766106

weight f4 [1, 1, 5, 1]
00000000: cf4f dfbe 3c44 763e 1c18 3a3d f958 51be
00000010: 3756 d43e
-0.43615577 0.24049467 0.04543315 -0.20444097 0.41472027

weight f4 [1, 1, 5, 1]
00000000: f24d 7ebe 2dd2 283e 2f99 0dbf e4ab 5c3e
00000010: 6e46 a3be
-0.24834421 0.16486426 -0.55311865 0.21549946 -0.3188967

weight f4 [1, 3]
00000000: 6540 b93f a082 b13f 4a1d 093d
1.4472777 1.3867989 0.033475198

bias f4 [1, 2]
00000000: 8ca9 a33b bffc 993c
0.004994577 0.018797277

running_covar f4 [1, 3]
00000000: 3497 393c 1bda 2b3c af1f 0f3b
0.011327554 0.010489012 0.0021838953

weight f4 [1, 1, 1, 7]
00000000: 1e2d 7fbe ebb4 5f3e c249 8d3e d29d 4ebd
00000010: d7a6 b33e 0305 a9be bd35 80be
-0.24919555 0.21846358 0.27595335 -0.050443478 0.35088226 -0.33011636 -0.25041

weight f4 [1, 1, 1, 7]
00000000: bbde 70bd 8159 cebd 035c 60be 8cd6 54bd
00000010: 2748 2bbe 24ba af3e cea9 9a3d
-0.058806162 -0.10075665 -0.219101 -0.05196242 -0.16726743 0.34321702 0.07551919

weight f4 [1, 3]
00000000: 49f3 ad3f 9f36 c43f 6430 7c3d
1.358987 1.5329169 0.061569586

bias f4 [1, 2]
00000000: 8376 653b 0bea 1f3d
0.0035013265 0.03904156

running_covar f4 [1, 3]
00000000: e045 843d b35a 813d 1500 d9bb
0.0645864 0.06316128 -0.006622324

weight f4 [1, 1, 3, 3]
00000000: f9e9 a4bd 4669 8b3e 6698 753e 04be 943e
00000010: 66f1 9abd 4439 a73e fc95 11be b0f3 39bd
00000020: 21e7 c8bd
-0.08052439 0.27228755 0.23983917 0.2905122 -0.07565574 0.32660878 -0.14217371 -0.045398414
-0.09809709

weight f4 [1, 1, 3, 3]
00000000: 5dd0 1c3e 290c 713e 7aba 71be ed3d 8d3e
00000010: c9aa 323e 4400 c5bd b28c 1e3e 1405 82be
00000020: 48c4 eabd
0.1531386 0.23539795 -0.23606291 0.27586308 0.17447962 -0.09619191 0.15483359 -0.253945
-0.11463219

weight f4 [1, 3]
00000000: b78d b73f 27a9 b03f b740 583d
1.4340123 1.3801621 0.052796092

bias f4 [1, 2]
00000000: c1cd 113e e26a b13c
0.14238645 0.021657411

running_covar f4 [1, 3]
00000000: 5c17 da3b ee5e 043c d3d8 ad39
0.0066556167 0.008079274 0.00033158678

weight f4 [1, 1, 3, 3]
00000000: 2115 97be f52c 42be a86e 07be 1f2b 4f3d
00000010: a121 98bd 2e41 9b3d 18ac 86be d9d2 34be
00000020: 774e 2fbe
-0.29508308 -0.18962462 -0.13225806 0.050578233 -0.07428289 0.075807914 -0.26303172 -0.17658557
-0.17119776

weight f4 [1, 1, 3, 3]
00000000: 365b a73e 9f1c 8e3e ef98 8abd 1635 753e
00000010: 2057 583e 891b 103e a0e0 5abe d053 8bbd
00000020: ed3c 583e
0.32686776 0.2775621 -0.06767451 0.23946032 0.21126986 0.14073004 -0.2137475 -0.06803095
0.21116991

weight f4 [1, 3]
00000000: cb60 b53f c957 b53f ed6d 41bd
1.4170164 1.4167415 -0.047223974

bias f4 [1, 2]
00000000: 37af 9ebc b91b 613d
-0.019370658 0.05495808

running_covar f4 [1, 3]
00000000: 891a 303f 9861 063f 8659 13be
0.6879049 0.52492666 -0.14389619

weight f4 [1, 1, 1, 7]
00000000: 4f0e 5b3e 650e f6bc 1114 9bbe 1106 79bc
00000010: e1ac ebbd 93f4 b73e fe7a 00be
0.21392177 -0.03003616 -0.30288747 -0.0151992 -0.115075834 0.35928783 -0.12546918

weight f4 [1, 1, 1, 7]
00000000: 028d 3bbe d32d 34be dbaf 7c3d 586f 7cbd
00000010: 9454 3b3e 51c5 98be c089 3e3d
-0.18315509 -0.17595606 0.061691146 -0.061629623 0.18293983 -0.2983804 0.046518087

weight f4 [1, 3]
00000000: 40af b43f 3197 b53f a377 d43a
1.4115982 1.4186765 0.0016209971

bias f4 [1, 2]
00000000: c727 4d3c ace2 893b
0.012521691 0.0042079296

running_covar f4 [1, 3]
00000000: 3acf 3d3b 8d58 5c3a 4401 03ba
0.0028962628 0.0008405529 -0.0004997442

weight f4 [1, 1, 5, 1]
00000000: ecd8 52be 0ff0 eabe adfe a33d 0326 e1bc
00000010: 76e3 9b3e
-0.20590562 -0.45886275 0.0800756 -0.027483946 0.30446976

weight f4 [1, 1, 5, 1]
00000000: 12cd cdbe 42bf e23e b1d0 ca3d 4973 133e
00000010: 6f86 5e3e
-0.4019552 0.44286543 0.09903086 0.14399447 0.2173097

weight f4 [1, 3]
00000000: 898b b13f df64 ae3f 04ac a23d
1.3870708 1.3624533 0.079429656

bias f4 [1, 2]
00000000: b8d2 38bc 6a65 cb3b
-0.011280708 0.006207158

running_covar f4 [1, 3]
00000000: 785a f23e 6219 593e f8e5 663e
0.47334647 0.21201089 0.22548664

weight f4 [1, 1, 5, 1]
00000000: 5d64 a1be f3cd b33e 8290 e63e cab7 c6be
00000010: cc70 ddbe
-0.31521884 0.35118064 0.45032126 -0.38812095 -0.4325012

weight f4 [1, 1, 5, 1]
00000000: 814a cdbd 3c19 83be 70e3 603d c7cc a7be
00000010: 3404 5b3e
-0.10023976 -0.2560519 0.0549044 -0.3277342 0.21388322

weight f4 [1, 3]
00000000: f29d b23f 6b9d b73f 9525 11bd
1.3954451 1.4344915 -0.03543623

bias f4 [1, 2]
00000000: be25 a9bc b363 39bb
-0.02064788 -0.0028288185

running_covar f4 [1, 3]
00000000: 5f59 093c 143d 0b3c 4755 b23b
0.008383124 0.008498449 0.0054422948

weight f4 [1, 1, 1, 7]
00000000: 0d8b 843c 2d55 233e cd48 133e ea6e c5bc
00000010: 95b2 0fbe b39b 063e 3b53 053e
0.016179586 0.1595046 0.1438324 -0.02410074 -0.14032967 0.13145332 0.13020031

weight f4 [1, 1, 1, 7]
00000000: c1d4 5e3e bbb3 6e3e 2c87 953d 12c8 b3bd
00000010: 84da 043e 02ce adbd 967c b2bd
0.21760847 0.23310749 0.073011726 -0.08778395 0.12973982 -0.084865585 -0.08715169

weight f4 [1, 3]
00000000: efbc ac3f 0ba5 a83f f463 44bc
1.3495158 1.3175367 -0.011986721

bias f4 [1, 2]
00000000: cfb8 a9bd 38fb 92bd
-0.082872026 -0.071768224

running_covar f4 [1, 3]
00000000: 0673 913e aeb1 183f 2619 cdbd
0.28408068 0.5964612 -0.10014562

weight f4 [1, 1, 3, 3]
00000000: b93e b73e 491b d63b 71ab 67be 3eb9 a83d
00000010: 4d3b 14bb fa7c f93d 6320 8fbd 5eb8 98bd
00000020: b2e5 98bd
0.3579004 0.0065340144 -0.22623993 0.08238457 -0.0022618354 0.121820405 -0.06988599 -0.0745704
-0.07465686

weight f4 [1, 1, 3, 3]
00000000: ca2c 19be c6ad 8c3c cb99 86be 2a93 7cbe
00000010: 0062 26be 13ee 163d 819c 8dbe 3d86 8f3e
00000020: 36fe a5be
-0.14958492 0.017172705 -0.2628921 -0.24665514 -0.16248322 0.03684814 -0.27658466 0.28032103
-0.3242051

weight f4 [1, 3]
00000000: ce5c b03f 922d ba3f 69a2 1a3c
1.3778322 1.4545157 0.009438136

bias f4 [1, 2]
00000000: 52bc 32bc c2f4 45bc
-0.010909157 -0.012082281

running_covar f4 [1, 3]
00000000: 3950 d93b 141a 9e3b 3050 60bb
0.0066318777 0.004824886 -0.0034227483

weight f4 [1, 1, 3, 3]
00000000: d683 e23d bcbc f53c 0d49 013e 7ac6 5a3e
00000010: a397 bcbd 0476 943e 8c8d b8be 60b2 dc3d
00000020: 7dff 87be
0.11060302 0.029997222 0.12625523 0.21364775 -0.0920861 0.2899629 -0.36045492 0.1077621
-0.2656211

weight f4 [1, 1, 3, 3]
00000000: 7dc0 b7bd 30c5 0a3e d099 39bd 2e78 82be
00000010: 25d2 433e ded0 dfbd 37c8 b3be 4a8e 863e
00000020: 785b a13e
-0.08972261 0.13551784 -0.045312703 -0.25482315 0.19123133 -0.1092851 -0.3511369 0.26280433
0.31515098

weight f4 [1, 3]
00000000: 867f ad3f 7303 b03f 319e e1bb
1.3554542 1.3751053 -0.006885313

bias f4 [1, 2]
00000000: 9005 4cbd a139 0b3c
-0.049809992 0.0084976265

running_covar f4 [1, 3]
00000000: fc17 fa3e 301a db3e a2e8 7f3e
0.48846424 0.42793417 0.24991086

weight f4 [6, 6, 9]
00000000: 9e50 dc3d 12b7 263d 819c 59bd 17de 5bbd
00000010: 3bf8 0ebd 87c0 6e3d 2435 68bd 890a 44bd
00000020: 696d 7fbd c29d 01be f558 753d be5f 963c
00000030: fb05 fb3d 6ace 02bd bc96 363d 0cdf b63d
00000040: 6ecb ebbd c17d 123e a703 ff3c c74d 5d3c
00000050: 8f9a cd3d 62b4 f2bd ece8 413d 1032 bcbd
00000060: 3c17 d0bd 7752 94bc e5f1 cd3b 5dc1 11be
00000070: 74d9 10be 29af d63c ace0 503d 995e bcbd
00000080: 2a4b bbbc 43ce f83b e5f5 cd3d 3525 f9bd
00000090: bdf1 26be 66e3 ffbd 1af7 b93d c484 1abe
000000a0: 3efb d7bc 8304 eabd 28d4 b6bb 720c 883d
000000b0: 6d36 cebb d25d e53c 67f4 b33c a65f 70bd
000000c0: 4317 34be 83b9 52be 4ea7 cf3c f882 fabc
000000d0: 000a 0c3d 4b5e e4bd 50f3 eabd 04ac 9fbd
000000e0: bfbe e03c 3a01 d8bb 8358 2dbe b705 48be
000000f0: 30ae 4ebe f7ab 15be feb4 70bd 20f2 323e
00000100: d95a 023e 5d6b 083e 37ec 613d 8904 14bd
00000110: 394b a03c 4b9f ec3d 4d35 a53b f905 a53d
00000120: a5c0 f2bd 1730 aebd 1c33 6bbc d540 a7bd
00000130: 9f32 f4bd 4c51 fabd 5d26 18be 7715 18be
00000140: 7368 25be 6852 e83c 5585 0f3e 6a00 48bc
00000150: 8d15 93bd c7db b9bd 6c83 013e 27d3 f7bc
00000160: 65e8 283d 189d 433d 193c a53d b5cf c7bd
00000170: 7cb9 9fbd 6652 c93d 7526 4fbd 2372 853b
00000180: cef7 903d 5566 413d 6c32 7ebd 5f81 c33c
00000190: ae35 d33d cf22 ce3d f2f4 2dbd af1b 0cbe
000001a0: ed58 413d cc53 e2bd c3eb fb3d 04ec 27bd
000001b0: 8a80 c9bc 4776 4c3e cb53 473e 700a 2d3e
000001c0: 5e1d 653e f242 f83d b5e8 8f3d 3eda 66bd
000001d0: 4d38 0fbe 61c0 5dbe e30f b93c 789a 053d
000001e0: 903a d2bd d94d a63b 98cb ffbd 7935 b3bd
000001f0: 5e86 88bd de49 0fbe 106c 0c3e 1b96 31bd
00000200: dd03 113d 45e2 0fbe d7bb 5fbd 1fca f1bd
00000210: bfff 0ebd e7ed c3bd d726 f7bc 18b5 78bd
00000220: 56e6 a63d 3fc4 523d d7e9 263d 35d0 99bd
00000230: 4e0e 4ebb fa4b 0abd f06d 23bd 6b26 df3d
00000240: a54a c2bd 0688 b03d e90a 633c 58be dfbc
00000250: 9a8a 393d ae62 2c3c c3d7 89bd f791 7f3d
00000260: 5955 883c 1d2a c03c 523a 823d 02e5 b6bd
00000270: 882c acbd 9d8f 073a 1137 92bd 1f0e de3c
00000280: f96d 2cbd 70f1 f53c 6191 cdbd 40bd 5dbd
00000290: d2eb 0e3e 2d4c 8ebc 0b2f 1fbd 2259 513d
000002a0: 22bf 22be fa19 64be d19e 7ebb 8079 a4bc
000002b0: 1855 303d 4f20 a43c 38f6 313d 6356 843d
000002c0: 1a4a a4bd d5b9 a33d 3496 8dbd c445 34be
000002d0: 8480 04be 6c2c 3bbe 707a 28bd 5a64 18be
000002e0: 808e 63bd 032b 50be 326f 6bbc e738 373d
000002f0: 271e cabc 7312 043e a9be 0cbd 8428 eebd
00000300: 5872 e73d c529 eb3c b1dd cb3d 77ce ce3d
00000310: 5665 12be f9f1 413c 8204 b5bd ae04 28bd
00000320: e88d 863d ec59 01be ae63 35bd 3b66 17be
00000330: 74c0 13bd b0df 58bc 2cbe 123d bb5a d6bd
00000340: d4cf 21be a4e2 29be 27f4 963d 26c9 9e3d
00000350: 6eef 17be 49ea 40bb c83b 113d f76a bdbc
00000360: a13c ce3d fd26 29bd 2783 f53d b016 db3b
00000370: d51f a7bd e050 5c3d e435 473d fbf6 603d
00000380: c4ad 5bbe b56f 50be dc7a d3ba 5fc5 00be
00000390: 4baf 733b f316 2a3e b21c 9fbd e221 df3c
000003a0: b38a 3bbe 3f73 0abe 4b0b e53d b834 323d
000003b0: c28f 8bbd 1347 9b3d 1cb7 103e 7fcd ab3d
000003c0: f728 d4bc 67ac 8ebd 3dc7 d6ba 36ef ffbd
000003d0: 202b 49bd 519e c2bd 9f0b b43d a001 2c3d
000003e0: 3cff 9a3d 6e33 583d 8148 2bbd cd72 1bbd
000003f0: 8a86 03be 304b 3c3d c95d e3bd 65d9 babd
0.10757564 0.040701933 -0.05312777 -0.0536786 -0.0349047 0.058289077 -0.056691304 -0.04786161
-0.0623602 -0.12657836 0.05989929 0.0183562 0.12257 -0.031935133 0.044577345 0.089292616
-0.115134105 0.14305784 0.031129671 0.013507313 0.10039245 -0.118508115 0.047341272 -0.09189236
-0.101606816 -0.018105729 0.0062849396 -0.14233918 -0.14145452 0.02620657 0.050995514 -0.091977306
-0.02286299 0.0075929477 0.10056666 -0.121653 -0.16303153 -0.12494545 0.09080334 -0.15089709
-0.026364919 -0.11426642 -0.00557949 0.06642999 -0.006293109 0.027998839 0.021967126 -0.058684967
-0.17586999 -0.2057858 0.025348332 -0.030580029 0.034189224 -0.111507975 -0.114721894 -0.07796481
0.027434705 -0.006591943 -0.16928296 -0.1953343 -0.20183635 -0.1461638 -0.058766358 0.17475176
0.12729968 0.13322206 0.055156913 -0.036137138 0.019567119 0.1155382 0.0050417543 0.0805778
-0.1185315 -0.08505266 -0.014355447 -0.081666626 -0.11923718 -0.122225374 -0.14858384 -0.14851938
-0.16153125 0.028359607 0.14015706 -0.01220713 -0.07181845 -0.09075122 0.1264779 -0.030252052
0.041237254 0.04775724 0.08068103 -0.09756414 -0.0779905 0.098301694 -0.050573785 0.004072444
0.07078515 0.047216732 -0.062059805 0.0238654 0.10312973 0.10065233 -0.042469926 -0.13682435
0.047203947 -0.11051139 0.12300827 -0.040996566 -0.024597425 0.19966994 0.19465558 0.16898513
0.22374484 0.12122144 0.07026807 -0.056360476 -0.13986321 -0.21655418 0.022590583 0.032618016
-0.10265076 0.005075198 -0.12490004 -0.087504335 -0.066662535 -0.13993022 0.13713098 -0.043356042
0.035404075 -0.14051159 -0.054622497 -0.1180613 -0.034911867 -0.09566861 -0.030169887 -0.06071958
0.08149402 0.051456686 0.04075035 -0.075104155 -0.0031441632 -0.033763863 -0.039899766 0.108959995
-0.094868936 0.086196944 0.013857582 -0.027312443 0.045298196 0.010521574 -0.067306064 0.062395062
0.01664226 0.023457581 0.0635878 -0.089303985 -0.08406931 0.00051712414 -0.07139409 0.027106343
-0.042097066 0.030022353 -0.100374945 -0.05413556 0.13957146 -0.017370308 -0.038863223 0.051110394
-0.15893224 -0.22275534 -0.0038851986 -0.020077467 0.0430499 0.020034937 0.043447703 0.064617895
-0.08021946 0.07994429 -0.069134146 -0.17604738 -0.1293965 -0.18278664 -0.04113239 -0.14882031
-0.05555582 -0.20328908 -0.014369773 0.044732 -0.02467258 0.12897663 -0.034361515 -0.116288215
0.11301106 0.02870644 0.09954394 0.10097974 -0.14296469 0.011837476 -0.088387504 -0.041020088
0.06570035 -0.12631959 -0.044284515 -0.14785092 -0.03607221 -0.013236925 0.035825893 -0.10466524
-0.15801936 -0.16590363 0.07370787 0.0775321 -0.14837429 -0.002943652 0.035457402 -0.023122294
0.10070158 -0.041296948 0.11987906 0.006686054 -0.08160368 0.053788066 0.04863538 0.05492304
-0.21453005 -0.20355113 -0.0016134637 -0.12575291 0.003718334 0.16610317 -0.07769145 0.027237836
-0.18314628 -0.13520525 0.111837946 0.043507308 -0.06814529 0.07581916 0.1413235 0.08388805
-0.02589844 -0.06966477 -0.0016386282 -0.12496798 -0.049113393 -0.09502853 0.08791279 0.041993737
0.07568213 0.052783422 -0.041817192 -0.03795128 -0.12844291 0.045970142 -0.111018725 -0.09123496

weight f4 [6, 6, 9]
00000000: 4b5d e93d 183a 6e3d 35fc 4abd c794 a4bd
00000010: d391 953c 9fc0 bfbd ae66 06bd b964 003d
00000020: 17cb 2d3d 95ce 1dbe dbd7 24be 013c 00be
00000030: 270f c0bd 312a 94bd 6bc8 213e e004 113e
00000040: 8d94 0f3d 3298 ad3d 0f85 b73d 79c4 d33d
00000050: b3bd b63d 3051 88bd aa10 ea3d 7c22 b13d
00000060: 3c3e 193d 9e52 c03d 54c4 1e3e b5ff b0bd
00000070: f558 b53c 2d10 13be 311d 96bc ee9e 08be
00000080: fa5a c23c 2241 ed3b 5c88 92bd bea8 2d3e
00000090: b7f7 243d 14a5 fa3d 4764 0c3e 03f4 a5bc
000000a0: f32a 513d e9ce d03d d3ba 903d 5240 9f3c
000000b0: 1ba0 cabd aee1 16be 836b 5bbd f2aa a6ba
000000c0: 17a7 d23d 1d74 4b3d b93a a1bd 48bd ec3d
000000d0: 94a2 dfbd bed7 f9bc 4665 ac3b 6bc1 193e
000000e0: 62ee 863d 5ed8 10bd 8ec2 12be ed8b 4b3d
000000f0: 2340 4abe b5be 09bc 6dbf 0cbe 236f 303d
00000100: 7397 b0bd 1b91 e7bb 1cff 76bd fcc0 753d
00000110: ab5b cebc 2f4a 69bd ad08 ce3c 1bf5 8e3d
00000120: 9884 ca3d 219c 8bbd ab9a 0dbe 3bcb 453d
00000130: 5630 9ebd 50ca fd3d 74e1 a3bd 6869 e9bd
00000140: d6cc e3bc 566a d03c c253 0bbd 565e debd
00000150: e48a 9abd 6735 08be c416 88bd a024 8f3c
00000160: 39a5 6b3e 4040 c6bd 1262 f4bd eabd 8a3d
00000170: b2d0 86bd 39b9 173c 8620 dbbd 02cf 00be
00000180: 2c3f 42bc d2b1 a7bc 4073 a6bd af8f 473d
00000190: 398d 97bd 83a0 543d 91a2 e5bd e403 9d3d
000001a0: fd87 66bc 984a 6bbd 84ee 7b3d 2088 d2bd
000001b0: 7b8f 5fbe 5c60 1b3d 1636 673d 35e8 df3d
000001c0: a983 163e 2772 073d 234d fd3d 57c7 973c
000001d0: bd71 bb3d e356 85bc f8f8 f3bd 6bcf dcbd
000001e0: d3d9 ba3d 9729 573d 0742 0dbe 598b b1bc
000001f0: c011 5f3d 0fa3 073d 0418 103e be05 343e
00000200: 4a3d fe3c f914 b43d 8176 cd3c b0e4 a1bd
00000210: 9a19 d2bd c4d8 e3bc f928 9f3d c6be d63d
00000220: 95db 9b3d 2c1b cb3c a48e d7bd 9a64 02be
00000230: 9a60 da3d b5e5 11bd 9a41 c8bb 9a07 9ebd
00000240: b54a 9bbd de1e b5bd b73a 5ebb 9cf7 58bd
00000250: 3244 693c d614 433d ec40 eabc e7ed f73d
00000260: 6f22 56bd 244b c63c 2f4d da3c 32fb a73d
00000270: 3b1b 1a3d 6e1e 64bd cf0b 133e d51b 0d3e
00000280: edb9 8fbd c593 7dbd fc66 f0bc 4958 88bd
00000290: 6b30 28be a4ab 13be 7048 febb caa1 41bd
000002a0: 2181 b2bd 3694 f9bd fbb6 8bbd d102 1e3e
000002b0: 7869 33bc bc29 c93d bec7 f73d 9496 d13d
000002c0: f2a4 483d 0bb1 4c3e 7b57 cd3d 7ae4 6f3d
000002d0: 1bc1 a1bd 622f c8bd 840a e93c 1e5c b4ba
000002e0: 5383 b43c 1b36 27be 2df3 afbd 61e1 303d
000002f0: 95d6 9b3d 5928 d13c 27aa 723c 3a9e 993c
00000300: ef99 e3bd 5489 813d 1bf9 6c3d ab61 2c3d
00000310: 056b 10bd 7a22 273e 0666 503d a258 e8bc
00000320: fdc5 ff3d 2c05 233d dfaa 883d 105e 6f3d
00000330: 3f8c ffbd 1c7c 753d 7bd5 44bd 95f6 8a3c
00000340: 01e3 36bd d61c fbbb 75b6 0c3e 10ba 02bd
00000350: 3065 f7bd 9805 b33d 8116 f1bd d24c 9abd
00000360: 6658 3ebd febe 6a3d 6da0 30bc b461 60bd
00000370: 6807 64bc 896f 88bd 779e a23d 0a75 99bc
00000380: 7e13 ee3c 51a7 1abd 7c11 dcbd 184e 983d
00000390: a01c 453d c39a 003e b11d 09bd 934f 093e
000003a0: 70e5 37be 2fbc 83bd fdb7 53bd 419a 01be
000003b0: 9a67 36bd 2904 0d3e 3aa6 633d a3d3 4d3d
000003c0: 34c3 ecbd 4cf3 9abd bf96 32bd faf4 eaba
000003d0: ac06 e43d c9d2 24bd e3dc bcbd 131b 9cbd
000003e0: e2c0 e83d 8221 ee3d 5d45 c93d 8faf 383d
000003f0: 8891 73bd 7c34 31bd 7fb3 c43d c04b 183d
0.11394747 0.05816087 -0.04955693 -0.080361895 0.018258011 -0.093629114 -0.032812767 0.031346057
0.04243001 -0.15410836 -0.16097967 -0.1252289 -0.0937789 -0.0723461 0.1579911 0.14162016
0.03505378 0.084762946 0.08960926 0.103402086 0.08922901 -0.0665611 0.1142896 0.086491555
0.037412867 0.09390758 0.1550458 -0.08642522 0.022137145 -0.1436164 -0.018324466 -0.13341877
0.023725022 0.0072404305 -0.07154915 0.16958901 0.0402753 0.122385174 0.13710128 -0.020257955
0.05106635 0.10195715 0.07066884 0.01943985 -0.09893819 -0.14734527 -0.053569328 -0.0012715741
0.10285776 0.04967128 -0.078725286 0.1155954 -0.10919681 -0.030498382 0.005261096 0.1501519
0.06588437 -0.035362594 -0.14332029 0.04969399 -0.19751029 -0.0084072845 -0.13744898 0.04307474
-0.08622637 -0.0070668585 -0.060301885 0.059998497 -0.025190195 -0.056955513 0.025150621 0.06980344
0.098885715 -0.068168886 -0.13828532 0.04828952 -0.07724063 0.12392104 -0.08001986 -0.11397058
-0.027807634 0.02544133 -0.034015425 -0.10857837 -0.075460225 -0.13301621 -0.06644967 0.017473519
0.23012246 -0.096802235 -0.11932768 0.067745045 -0.06582774 0.009260469 -0.10699563 -0.12578967
-0.011855882 -0.020470534 -0.08127451 0.04872101 -0.07399983 0.05191089 -0.11212648 0.07666758
-0.014070508 -0.057444185 0.061506763 -0.1027987 -0.21832077 0.037933692 0.056448065 0.10932962
0.14698662 0.03306785 0.12368228 0.01852767 0.09152553 -0.016276782 -0.119127214 -0.10781749
0.09123578 0.052529898 -0.13794719 -0.021672891 0.054460287 0.03311449 0.14071661 0.17580315
0.031035084 0.08793063 0.025080921 -0.07904947 -0.10258789 -0.027813323 0.07771487 0.10485606
0.07610241 0.02479323 -0.105252534 -0.12733689 0.106629565 -0.035619456 -0.006111336 -0.07716294
-0.075826086 -0.08843778 -0.0033909508 -0.052970514 0.01423745 0.047627293 -0.02859541 0.12105923
-0.052278932 0.024205752 0.026648132 0.082022086 0.037623625 -0.055693083 0.14359973 0.13780148
-0.070178844 -0.061908502 -0.029345982 -0.06657464 -0.1642472 -0.14420944 -0.0077601 -0.047273435
-0.08716036 -0.12186472 -0.0682201 0.15430762 -0.010950439 0.09822413 0.12098645 0.102337986
0.04898543 0.19989412 0.10026451 0.0585675 -0.0789816 -0.097746626 0.028447397 -0.0013760363
0.022035277 -0.16329233 -0.08591304 0.043183688 0.07609288 0.025531935 0.014811075 0.018752206
-0.11113345 0.063250214 0.057854753 0.04208533 -0.03525831 0.16321746 0.050878547 -0.028362576
0.12488935 0.039799854 0.06673216 0.058439314 -0.12477922 0.059932813 -0.048055153 0.016963283
-0.04465008 -0.0076633496 0.13741477 -0.031915724 -0.12079847 0.08741301 -0.117718704 -0.075341836
-0.046471022 0.05731105 -0.010780436 -0.054780677 -0.013917781 -0.06661899 0.07940381 -0.018732566
0.029062029 -0.03775722 -0.107455224 0.0743677 0.048123002 0.12559037 -0.03347558 0.13409261
-0.17958617 -0.064323775 -0.051689137 -0.126565 -0.044532396 0.13771118 0.055578448 0.05025066
-0.115606695 -0.075659364 -0.043600794 -0.0017925792 0.11134085 -0.040240083 -0.09221818 -0.076223515
0.113649145 0.11627485 0.09827683 0.0450893 -0.05946496 -0.043262944 0.09604549 0.037181616

weights f4 [6, 1, 3, 1]
00000000: 769d 813f 8303 773f 1442 77bc f92b 6c3f
00000010: 53d1 883f 86f2 293b 5f43 7d3f 3ad8 8b3f
00000020: 6884 6f3d 0bc6 813f aed8 733f 4d3d c1bb
00000030: 4418 863f 424f 7a3f 4ef9 bbbc 689d 8e3f
00000040: 7ac9 7f3f 6308 803c
1.0126178 0.96489733 -0.015091438 0.92254597 1.0688881 0.0025931909 0.98930925 1.0925362
0.05847588 1.0138563 0.952525 -0.0058972 1.0476155 0.9777719 -0.022946026 1.1141787
0.99916804 0.015629

running_cov f4 [1, 6, 2, 2]
00000000: 26ad 703f a28a 00be a28a 00be 0ed5 753f
00000010: 962d 3e3f a93e c33c a93e c33c f12c 913f
00000020: ece2 853f e6ad f1bd e6ad f1bd cd0a cb3f
00000030: a68c 933f 4f67 5ebd 4f67 5ebd ae08 3a3f
00000040: a708 803f d3ba 9ebe d3ba 9ebe 0718 ab3f
00000050: 9a84 703f 9ecd d13d 9ecd d13d ef06 313f
0.94014204 -0.12552884 -0.12552884 0.9602822 0.7428831 0.02383359 0.02383359 1.134184
1.0459876 -0.118007466 -0.118007466 1.5862671 1.1527297 -0.05429774 -0.05429774 0.72669494
1.000264 -0.3100191 -0.3100191 1.3366708 0.93952334 0.102442965 0.102442965 0.69151205

weight f4 [6, 6, 5]
00000000: 4577 22be c296 1f3e 4247 b0bd cbb5 0fbe
00000010: 7fe4 8fbe 1781 84bd d5a7 a03d d66b ef3c
00000020: 4c49 cb3c 26fc 0a3e b04f aebd 2561 e9bd
00000030: 1ffc 933d 1a88 8dbc 0472 4e3d b64d 303e
00000040: 6af0 84bc 71a7 1a3d 991f d73d 7d0e b53c
00000050: ad5c 1dbe 1678 a8bd 3d3c 77bd 5922 173e
00000060: 32b6 d339 6e7c 0f3c f851 f93a b699 2f3e
00000070: 95a5 d93d 0f70 b13d 36e6 d1bd 45aa 87be
00000080: c6cb 7dbe e8c2 0b3d 0a4c 4e3d 9c60 f2bd
00000090: b32f 3fbe d0be 1a3d cda3 96bd f8c4 34be
000000a0: 671d 06be 79a0 7abd 2123 213d 69da 563d
000000b0: b349 a23d 6abc 00bd 273f 053e 4b3d be3c
000000c0: a8bc 40bd b627 a93d 2d42 74bd 5a93 273c
000000d0: e7b7 18bc c898 c83d f89c ce3d ed15 473d
000000e0: 6317 87bd 6506 e23d 81e4 a1bd 32f2 eb3c
000000f0: a87a 633e d727 bc3e 7f26 843c dafa 683e
00000100: 714a d73d 5879 553d a1db 613c b763 b83d
00000110: d6f0 ae3d f69d 19be 2897 23be 747e 013c
00000120: 4c8f 53bd 3e5b f9bd a284 1abe 5d97 9fbd
00000130: ee1c 1d3d 7cf0 dfbc b5a8 06bd 8c57 4e3d
00000140: 15a3 6fbe fbbf cfbd 9a89 8ebd 4573 033d
00000150: 24bf 8ebd 941e 163e 0ca3 31be bed0 f43d
00000160: 8995 86bd 0dde 1fbe 4ce9 253e 43df aa3d
00000170: e093 583e 387d 283d 3b96 c4bd da97 44be
00000180: 4963 573e 7249 bfbd 6c12 743e 9325 06bd
00000190: 7230 c3bd 0289 17be bc83 88bc a812 01be
000001a0: 3b53 963d 78ec 843b af15 adbd 2f41 f33c
000001b0: 6eb8 bd3d 524e e4bc d832 44be e90a 1c3e
000001c0: dd9f d5bd 53ee 953d e2a2 e43d 2ff0 7cbd
000001d0: 2ef6 f93d 4319 043e ea7b 03be be09 743d
000001e0: 63e0 84bd 5bea cf3d a487 0f3e 9e08 193e
000001f0: 484f 31be d0e2 d5bd d4ec 10bd aed5 7c3c
00000200: 5ca8 cb3d 944c 76be 1dea 8a3d 9ee3 df3d
00000210: 49d7 cd3d 1aa5 5b3e 53aa ca3d c9c9 043e
00000220: e856 a13d f1c4 dc3c 9dcf f9bd 6d07 21bc
00000230: aa21 c1bd 1680 953d f905 373e 712d ccbc
00000240: 68c6 a5bc 7e8c 05be f878 cabc 226e 103d
00000250: c274 e93d 6e55 1f3e 14bf 643d b55c edbc
00000260: bef5 54be d595 1abe 5e6d 90be fc48 5abc
00000270: b552 793c 8b4e 0bbe 23e9 6dbe 728a a6bd
00000280: d3f1 07be 1248 883d cc0c 273d 020a debd
00000290: 3f7f ef3d 9ecf 213d 6e1e cc3d 8958 a43c
000002a0: 3519 103e 3a93 17be dc48 35be 8093 35bd
000002b0: 18b0 f33c c947 8ebc e595 0fbe 0b25 283d
000002c0: 6b37 03bc b25b e5bd b6e6 4d3c f92e b23d
-0.1586581 0.15584853 -0.08607341 -0.14034192 -0.28104016 -0.064699344 0.078445114 0.029226225
0.024815224 0.1357275 -0.08511293 -0.11395482 0.07225823 -0.017276812 0.050401703 0.17217144
-0.01622792 0.03775734 0.10504074 0.022101635 -0.15367384 -0.082260296 -0.060360182 0.14759196
0.00040380802 0.008757694 0.0019021621 0.1714848 0.106272854 0.086639516 -0.102489874 -0.26497093
-0.24784765 0.034121424 0.050365485 -0.11834833 -0.1867054 0.03777963 -0.07355461 -0.17653263
-0.13097154 -0.061188195 0.039340142 0.052454386 0.07924213 -0.031429686 0.13012372 0.023222586
-0.047054917 0.082595274 -0.059633423 0.010228002 -0.0093211895 0.09794766 0.10088533 0.048604894
-0.065962575 0.11036376 -0.07904912 0.028802011 0.22214758 0.36749145 0.016131638 0.22751942
0.105122454 0.052117676 0.013785274 0.09003394 0.085420296 -0.15001664 -0.1597563 0.007903684
-0.05165033 -0.12175606 -0.15089658 -0.07792542 0.038357668 -0.027336352 -0.032875735 0.05037646
-0.23402055 -0.10144039 -0.06959839 0.03209235 -0.06970051 0.14660102 -0.17347354 0.11953877
-0.0657149 -0.1561205 0.16202277 0.08343365 0.2115016 0.041135043 -0.09598967 -0.19198552
0.21033968 -0.093401805 0.23835152 -0.032750677 -0.095307246 -0.14798358 -0.016664378 -0.12604773
0.07340094 0.0040565096 -0.084514014 0.029694168 0.09263693 -0.027869377 -0.1916002 0.15238537
-0.10430882 0.07320847 0.1116388 -0.061752494 0.12205158 0.12900262 -0.12840238 0.059579603
-0.06488111 0.10152122 0.14016587 0.14944693 -0.173154 -0.10443652 -0.035382107 0.015431805
0.099442214 -0.2405265 0.06782935 0.109320864 0.10050828 0.214497 0.09895768 0.129676
0.07877904 0.026949378 -0.12197802 -0.009828431 -0.09430249 0.07299821 0.17873372 -0.024924012
-0.020236209 -0.13041875 -0.024715886 0.03526128 0.11399223 0.15559933 0.05584629 -0.02897487
-0.20796868 -0.15096219 -0.2820844 -0.013323065 0.015217473 -0.1360418 -0.23233466 -0.08131875
-0.13275842 0.06654371 0.04078369 -0.108417526 0.11694192 0.03950464 0.099667415 0.020061748
0.14072116 -0.14802256 -0.17703575 -0.04433012 0.029747054 -0.017368214 -0.14022024 0.041050952
-0.008008818 -0.1119913 0.012567213 0.087003656

weight f4 [6, 6, 5]
00000000: 9e18 063e 8b21 18bd 123f 1d3e c18f 72bd
00000010: d714 333e 1a7c 3f3e a104 5e3e 34a8 68bd
00000020: 766e 363d 8dc9 123e e201 4bbe 0d3a 11be
00000030: f2ea eebd 97a3 bc3b f80c df3d 160f d93d
00000040: 326e 2a3e 588d b33c c5e9 72bd b3db c23d
00000050: d158 d13d d27e 453e d291 dcbc 1948 99bd
00000060: e8d7 953d 0e7a fc3c 60bb c9bd 6742 c8bc
00000070: 8e67 2c3e feaf 023e 78c8 1c3d fef0 33be
00000080: 7b2c 5ebe e43a 5abe d544 1dbe a79a f53d
00000090: 05c9 f03d 7003 80bd c7f6 49be 4532 e63b
000000a0: f4a5 30be b786 973d 2a05 983b 5aac 403e
000000b0: a250 053e e5ce fb3d 4fb2 78bd a263 86bd
000000c0: 9f15 2c3c 8c89 f2bd fcbe c6bd 2458 413e
000000d0: 057a eb3d e16b 9abd 9e04 433d 54c6 a0bc
000000e0: 73d1 e53c 0094 28be 9c25 debd 9f21 19be
000000f0: 7963 a7bd d379 79bd 96a4 7cbd 13d4 7abd
00000100: 90d4 773d ad5e b13d 2c06 1b3e 628a 7cbc
00000110: c710 233e 61ae b33c b89b 173e 5070 283e
00000120: af11 a7bd 06a8 8e3a 2eca 2a3b a508 8bbd
00000130: d040 4a3d 7733 d43d 1656 643e 28e9 16be
00000140: 93e9 053e f7a6 c53b 0564 61bc 3556 7dbd
00000150: c557 2dbd 5fb7 02be 2acd 653d 86ec a03c
00000160: 203c 1f3e 5bee 423e 680e 51bd f96f 0abe
00000170: 4dcd da3d 5b2b febd 40f6 89bc d637 a33d
00000180: ccc2 b2bd 5283 343d 6c28 18be 2328 20bd
00000190: c061 99bd 7936 50bd 3c9e 89bc 91e0 03be
000001a0: 030f 63be 6133 29be 87b4 dabd f48b 1dbe
000001b0: e74b fe3d 9856 33be 0bfe a0bc 48be 68bd
000001c0: f19b 2dbe e65f 583c a898 e1bc 63b7 193e
000001d0: 48cb 33be d64b fb3d c615 a7bd 83cd 06be
000001e0: 49b3 bcbc 6a5c 88bc 721a 97bd fa44 54be
000001f0: 47c4 23be 8563 49be 4c84 963d fa2a 473d
00000200: 43f9 9e3d b2bf 553e 54d9 31bd 2791 77bd
00000210: f3ac c1bd 236c 72be 409d 10be 641f ee3d
00000220: 4257 e9bd 725d 623e 0df4 0fbd 8820 25be
00000230: ddae 403d 5473 373d a886 7c3d d826 72bc
00000240: 6deb ccbd 7b96 febd a737 16be 990f bbbd
00000250: f120 433d b632 403e b16b 99bd 4c6a 133e
00000260: 64f4 9a3d 45f0 3bbd 851d b7bd ed6f 0cbe
00000270: 0e62 8e3d 1942 c5bd f57c f8bd 7a79 19be
00000280: 4c7e 683d d5a7 0fbd b030 7c3c 7279 b9bd
00000290: 8d12 dbbd 551d a43d 59e7 313e 86ad 913d
000002a0: 4eea fc3d 7770 4cbe c9a9 49be 40fe 663d
000002b0: d0e8 1d3e db5d 4bbe 977b 7e3d 0ca1 78bd
000002c0: 1e5b 113e 76ce 2d3e f66c c6bb cccd 02bd
0.13095328 -0.037141364 0.1535609 -0.059219126 0.17488419 0.18699685 0.21681453 -0.056801036
0.044538938 0.14334698 -0.19824937 -0.14182301 -0.11665906 0.005756806 0.108911455 0.105985805
0.16643599 0.021917984 -0.05930497 0.095145606 0.102220185 0.1928666 -0.026925001 -0.07484455
0.073165715 0.030819919 -0.09850192 -0.024445726 0.16836378 0.12762448 0.03827712 -0.175724
-0.21696655 -0.21311527 -0.15358289 0.11992388 0.117570914 -0.06250656 -0.19723044 0.0070250356
-0.17250806 0.07398742 0.0046392875 0.18815747 0.1301904 0.122953214 -0.060716923 -0.06561972
0.010503202 -0.11842641 -0.09704396 0.18881279 0.11497883 -0.075401075 0.047611825 -0.01962582
0.028053975 -0.16462708 -0.10847017 -0.14954232 -0.0817327 -0.060907196 -0.0616804 -0.061237406
0.06050545 0.08660636 0.15139073 -0.015413852 0.15924369 0.021933736 0.14805496 0.16449094
-0.0815767 0.0010883815 0.002606045 -0.06788758 0.049378216 0.10361379 0.22298464 -0.1473738
0.13077383 0.0060318667 -0.013756757 -0.06184979 -0.04232003 -0.12765263 0.056103863 0.019644033
0.1555028 0.19036238 -0.05103913 -0.13519277 0.10683689 -0.12410613 -0.016841054 0.07969634
-0.08728561 0.04407055 -0.1485917 -0.039100777 -0.074893475 -0.0508332 -0.016799085 -0.12878634
-0.22173695 -0.16523506 -0.10678964 -0.15385419 0.12416821 -0.17513502 -0.019652387 -0.05682209
-0.16954018 0.013206458 -0.027538612 0.15011363 -0.17558014 0.12270324 -0.0815845 -0.13164334
-0.023034709 -0.016645629 -0.07378091 -0.20729437 -0.15992843 -0.1966687 0.073494524 0.04862497
0.07762387 0.20873907 -0.04342015 -0.060441162 -0.094568156 -0.23674063 -0.14122486 0.11627081
-0.11393596 0.22105959 -0.035144854 -0.16125691 0.047041763 0.04478772 0.061651856 -0.014779769
-0.100058414 -0.124310456 -0.14669667 -0.091338344 0.047638837 0.18769345 -0.07491244 0.14396018
0.07566145 -0.045883436 -0.08941177 -0.13714571 0.06952296 -0.09631748 -0.12133209 -0.14987746
0.05676107 -0.035072166 0.015392467 -0.09056367 -0.10696898 0.08013407 0.17373408 0.07113175
0.123493776 -0.19964777 -0.19693674 0.056394815 0.15420842 -0.19860022 0.062129583 -0.06070046
0.14194915 0.1697329 -0.0060554696 -0.031934544

weights f4 [6, 1, 3, 1]
00000000: 99b5 843f a562 673f 0f87 a43c 3758 833f
00000010: 4d87 713f a505 acbd 8753 803f b8af 803f
00000020: 3e02 373c fb39 6e3f 0c7c 903f ddc0 95bd
00000030: 4fb5 723f 6644 7d3f 735c 34bd b21e 7b3f
00000040: cf5c 843f 0279 5a3d
1.0367919 0.90384895 0.020083932 1.0261296 0.9434708 -0.08399514 1.002549 1.0053625
0.011169968 0.9305722 1.1287856 -0.073121764 0.94807905 0.9893249 -0.04403348 0.9809371
1.0340823 0.05333806

running_cov f4 [1, 6, 2, 2]
00000000: 8479 b33f 8cee 593e 8cee 593e b0ce ac3f
00000010: 2ee3 8b3f 3e6e e3bc 3e6e e3bc ff2f 9f3f
00000020: 766b 8c3f a77c 0a3d a77c 0a3d 0a3e 753f
00000030: a60f 9f3f 41ff 133d 41ff 133d 06e1 c03f
00000040: ee3d b13f 4903 a63d 4903 a63d 2320 aa3f
00000050: d6b6 9f3f 95cb f5bc 95cb f5bc 66c6 873f
1.4021459 0.21282405 0.21282405 1.3500576 1.0928705 -0.027762529 -0.027762529 1.2436522
1.0970294 0.033810284 0.033810284 0.9579779 1.242665 0.0361321 0.0361321 1.5068672
1.3847024 0.08106095 0.08106095 1.3291057 1.2477672 -0.030004302 -0.030004302 1.0607421

weight f4 [6, 6, 3]
00000000: 131d 833e f722 5f3e 10c7 8abd 182b 7c3e
00000010: 45c7 83bd dc77 133e ae2c 123e cec7 54be
00000020: 71cf d73d 3ab5 5b3e fbe1 4e3e ee28 e6bd
00000030: 1640 de3d 5069 b73d bf2a 3a3e db08 26be
00000040: c090 b6bd 153f f0bd f097 f33c 77db 06be
00000050: d996 abbd 0823 1a3e 760a 31bd a69f 523d
00000060: 936f 4ebe f90c 123e c3fd c73d 08f5 d8bc
00000070: 2009 00be 6750 3e3e a79c f33c e833 2abd
00000080: f386 0dbd 8c1b 0e3e ecfb 80be bd3a 55be
00000090: 2a98 1d3d 69f9 de3d 0522 a9bd f843 25be
000000a0: c5e8 1abe 9cbe 103e d85a 3f3d e733 813c
000000b0: ee6a 0fbd 79a0 3abe 2bd8 9b3d 6940 4b3d
000000c0: 269b fdbc ebae 1ebe fd89 15be 9779 efbc
000000d0: 2d82 28bb 4078 abbd ded0 b83d a561 723d
000000e0: 0d30 20bd ef5e 243e 68b2 05be 0dab 4e3e
000000f0: c088 c5bd 0a39 5b3d 86d7 11be b10b 113d
00000100: 8095 b63c 9da6 7ebd f05a e1bd 484b 6b3d
00000110: 6ccc 23be 772a 983d dd61 973d cf9d 50bd
00000120: 21bc 7a3e 9910 733e a180 573d f82f 49be
00000130: 2ae1 ac3d b3ab 35be 9766 e9bd a9fa 0bbd
00000140: 72bb 463e e122 6f3d 12f9 ccbb c0f3 7b3d
00000150: aaae 773c fb13 8a3d 1b5f f5bc ff7c 7ebe
00000160: e622 503e 99a2 433c ce67 98be 6aa0 5abe
00000170: ac0f 96be 43b3 cabd 2955 123d 15db 59be
00000180: 65c2 283d 9e26 c53d 0926 343e 2077 88bd
00000190: 40bd 46bd 58b3 a1bd 4ece d4bd a847 10be
000001a0: 054f de3d d113 34bd ff4b 17be 0ce2 803c
0.2560812 0.21790682 -0.067762494 0.24625814 -0.06434492 0.14401191 0.14274856 -0.20779344
0.10537613 0.21455851 0.20203392 -0.112382755 0.10852067 0.08955634 0.18180369 -0.16214316
-0.089143276 -0.11730782 0.029735535 -0.13169657 -0.08378381 0.15052426 -0.043222867 0.051421784
-0.2015975 0.14262761 0.09765198 -0.026484028 -0.12503481 0.18585359 0.029737784 -0.041553408
-0.034552526 0.13877696 -0.251922 -0.20823188 0.038475193 0.10887415 -0.08258442 -0.1613921
-0.15127857 0.14135212 0.046717495 0.01577182 -0.035014085 -0.18225278 0.0760959 0.049621973
-0.03095777 -0.15496413 -0.1460342 -0.029232783 -0.0025712356 -0.08372545 0.09024213 0.059175152
-0.039108325 0.1605184 -0.13056338 0.20182438 -0.096452236 0.053521194 -0.14242372 0.03541154
0.022288084 -0.062170614 -0.11003673 0.05744484 -0.1599595 0.074299745 0.07391713 -0.050931748
0.24485828 0.237368 0.052612904 -0.19647205 0.08441384 -0.1774128 -0.113965206 -0.034174595
0.19407442 0.058382872 -0.0062552774 0.061511755 0.015117327 0.06742092 -0.029952576 -0.2485237
0.20325813 0.011940622 -0.29766697 -0.21350256 -0.29308832 -0.09897473 0.035725746 -0.2127498
0.041201014 0.09626506 0.17592634 -0.06663346 -0.048520327 -0.07895535 -0.10390912 -0.14089835
0.108549155 -0.04396421 -0.14775084 0.015732788

weight f4 [6, 6, 3]
00000000: 7373 693c c22a 51be 96be 1abe ac15 61be
00000010: 7bd8 adbd b880 a13c 36f0 e8bd edb7 333e
00000020: e87f 853e ebd6 67be e7bb 7cbe a2b9 2d3e
00000030: 117d ba3d 97a3 113e 5b56 0d3e 561d 593e
00000040: 7a07 07be 73a7 1cbe 15d4 12be a2b8 683e
00000050: 328d 103e 2ccc 4bbe 588e 093e 7a9b 98be
00000060: 6982 0bbe d33d 88bd 0e81 cf3c aaf0 39be
00000070: e3ea 93bd f745 a73d 7181 bebd 1e5e d63d
00000080: e508 ea3c e7fb 393e e6d9 e8bb aaa5 ad3d
00000090: 854c 353d 49c8 283e aa5b a23e 3edd 31be
000000a0: c45d 5ebe 3d70 b2bd 0fa7 1e3e e3b1 2c3e
000000b0: 2df4 c03d ef09 6fbe b96d 043e 7d00 09be
000000c0: b5be 353e f654 d03d aa8f 2e3d 7724 e83d
000000d0: f8be 7c3e f71d 863e 1a0a a33c 81e9 5cbe
000000e0: 5e8f 5e3c b175 37be dcb5 363e 6c69 dcbd
000000f0: e8bd cc3d 7968 0ebe 1593 0ebd 3a30 53be
00000100: 34c8 c9bd 1785 0f3d 3ed1 5a3e 97c1 0fbe
00000110: 3fe5 b63c 4bdc 0f3b 80e2 f23d 8419 9b3d
00000120: cc77 6dbe 5b69 0a3e a62a 33be e0f0 62be
00000130: d0f0 8bbd 176d b2bd 713d 15be 5b2f 41be
00000140: 408b aabd de3e c7bd 4e89 d1bd f3f6 8a3c
00000150: c04f 39be b61a 253e aff7 23be c204 debc
00000160: e274 453d e85d 4fbe ad86 433e 3f13 403e
00000170: 0e15 23be 29c0 2c3e ec1f 77bc 3ce8 90be
00000180: 73a2 22be c836 b7bd 841f 5a3d aed1 e1bb
00000190: b050 163c 02d0 5b3c f896 43bd 24b6 063d
000001a0: 4f30 fe3d d030 53be a823 373e fa2e 66be
0.014248717 -0.20426467 -0.15111765 -0.21980923 -0.08488556 0.019714698 -0.113739416 0.17550631
0.26074147 -0.22640578 -0.24681054 0.16965345 0.09105886 0.14222561 0.13802473 0.21202597
-0.13186446 -0.15298252 -0.14338715 0.22726682 0.14116362 -0.19902104 0.13433206 -0.2980612
-0.13623966 -0.06652417 0.025330093 -0.18158212 -0.072225355 0.081676416 -0.09302033 0.1046717
0.028568694 0.181625 -0.0071060536 0.084788635 0.044262428 0.16482653 0.3171056 -0.17369553
-0.21715456 -0.08712814 0.15493415 0.16864733 0.09421573 -0.23343633 0.12932481 -0.13379093
0.1774853 0.10172455 0.042617477 0.1133508 0.24682224 0.26194736 0.019902278 -0.2157345
0.013583986 -0.1791599 0.17842811 -0.10762295 0.09997159 -0.1390704 -0.034808237 -0.20623866
-0.09852639 0.035039034 0.21368882 -0.14038692 0.02232611 0.0021951373 0.11859608 0.07573226
-0.2319023 0.13516752 -0.17496738 -0.22162199 -0.06833041 -0.087122135 -0.1457422 -0.18865721
-0.08327341 -0.09728788 -0.10231267 0.016963458 -0.18096828 0.1612347 -0.16012453 -0.027101878
0.04820717 -0.20250666 0.19094343 0.18757342 -0.15926 0.16870178 -0.015083294 -0.2830218
-0.15882282 -0.089459956 0.053252712 -0.006891451 0.009174511 0.013416292 -0.047751397 0.032888547
0.12411558 -0.20624089 0.17884696 -0.22478858

weights f4 [6, 1, 3, 1]
00000000: ca9e 713f 75cf 813f abab 3bbd 7c26 6a3f
00000010: 3602 783f 307b 6e3b 92c5 803f 69f0 863f
00000020: 119c f03d 1d85 6b3f 739d 963f 7607 e43c
00000030: 933c 693f 07f2 873f 7520 633d b73c 903f
00000040: 8609 853f b91d 4cbd
0.9438292 1.0141436 -0.045818012 0.9146497 0.96878374 0.0036389343 1.0060294 1.0542117
0.11748517 0.9199999 1.17668 0.027835589 0.91108054 1.0620736 0.055450875 1.1268529
1.0393531 -0.049833033

running_cov f4 [1, 6, 2, 2]
00000000: 0022 963f 3e26 34be 3e26 34be a4fb 983f
00000010: 2667 f23f d081 483e d081 483e c074 d93f
00000020: 815d 633f 2e13 b4bd 2e13 b4bd fae3 893f
00000030: aff6 0440 f27d 8fbe f27d 8fbe 9dec 2140
00000040: 52ab b23f af31 af3d af31 af3d da9d cf3f
00000050: b8b9 ac3f 56cf de3d 56cf de3d 79a8 8a3f
1.1729126 -0.17592713 -0.17592713 1.1951795 1.8937728 0.1958077 0.1958077 1.6988754
0.8881455 -0.08792721 -0.08792721 1.0772698 2.0775564 -0.28025776 -0.28025776 2.5300667
1.3958533 0.08554398 0.08554398 1.6220047 1.3494177 0.1087939 0.1087939 1.0832664

weight f4 [1, 6, 1]
00000000: 0e35 843d 714d abbe 0bfa 633e b164 923e
00000010: 0ca7 643e e83a 95be
0.06455432 -0.3345752 0.22263353 0.28592446 0.22329348 -0.29146504

weight f4 [1, 6, 1]
00000000: f915 8dbe 3b34 10bd fdcc 87bd 0294 b73e
00000010: d26b 82bd 5b0d 80be
-0.27555826 -0.03520606 -0.06630895 0.35855108 -0.06368221 -0.2501019

weights f4 [1, 1, 3, 1]
00000000: fc2a 943f 8668 883f 38b6 94be
1.1575618 1.0656898 -0.29045272

running_cov f4 [1, 1, 2, 2]
00000000: 3002 363f b78d ba3d b78d ba3d dd74 643f
0.7109709 0.09109061 0.09109061 0.8924082

weight f4 [6, 6, 7]
00000000: f6cd 8cbd fd4a 523d e1d2 493e 02ce a53d
00000010: a286 2c3d 7554 2abe 544c 11be 5f86 6e3d
00000020: 7ee7 8ebd 20d1 a33c b2a3 d5bd a8bb d8bd
00000030: 675b 853d 76db 593b b8c5 663d 6bcc 31be
00000040: e52b 0c3e db00 b6bd 673d 2b3e 818c 0cbd
00000050: 01cd 0f3e f4a3 1abe f452 45bd 04d6 893c
00000060: ddec bc3d 618a ebbd 4e6c d83d 435b 25bd
00000070: 8472 cabc e6ac 22be 7725 56be 397e 203e
00000080: 6f3b c1bd 77d7 e1bd 5fa8 ca3d 3aab 943c
00000090: 9284 b53d cf7d 1c3e 4b60 e2bd 4001 0dbe
000000a0: 4f69 b33b fef7 8ebd 1676 aa3d b935 c43d
000000b0: 9512 20bd 7066 463d 6480 8ebd c028 813d
000000c0: ce9b 243e 76dd b6bd 5bf0 e7ba 0716 13be
000000d0: 2fd9 edbd 9765 09bc 44a9 6ebd 9561 25be
000000e0: 5de3 3c3e b0cc 33bc 1a63 4a3e 92a3 1cbd
000000f0: 83ef 98bb 728b ad3c dae2 103d af9c 09be
00000100: 543b 1d3e f0bf 67bb 44d8 33bc cd63 d5bc
00000110: b514 d53d 4b20 2abe 83aa 2cbe 0ac2 733d
00000120: ef61 df3d eb42 bcbd a0f4 9abc 795e aa3d
00000130: 7393 ebbd 43df d93d a00e 82bc 3479 d3bc
00000140: b777 023e e649 ca3d 8894 3e3d ecac 963d
00000150: bcd4 603d 7064 8c3d 12d4 cebd 53d3 0bbd
00000160: 7abc beba 25d9 0dbe e205 5cbd 27c0 fabd
00000170: 9ba8 f1bd 82e4 853e 9d86 e8bd 68d0 cbbc
00000180: 2b69 dd3c 67c7 5039 3218 b2bd 3700 ef3d
00000190: 4b4b 963d 108f 7c3e 3db4 5bbe 5a9b 14be
000001a0: c309 053c dbe6 8bbd 9017 a63d 16ee d93d
000001b0: 15ab ca3d a285 a8bd e42e 97bd f33a cdbd
000001c0: 1aff 093e beae 253b 0092 5cbd 64f6 2d3e
000001d0: 2ec1 86bd 6bb4 33bd 3381 e33b f3c7 db3d
000001e0: b3f1 d83d bc76 d53c 6710 393d 1c94 6bbc
000001f0: 3596 ef3d 91f2 c03a 3582 e33c 0282 5a3d
00000200: dd08 1b3e a00e b83c 6717 1a3e 0fdd c83b
00000210: 5681 32be 6208 0b3e 9ee4 2fbe ee2e c83a
00000220: d4d0 86be f65a 17bd 015a 213e ed8a 9bbd
00000230: 7699 3abd 7889 37be 898b 303e c30f acbd
00000240: ca9c 49bd 53d5 c03c 7d4c 1a3e e7a5 44bd
00000250: 69eb 97bb b9e9 8e3d 0cd2 cdbc 2412 a9bd
00000260: 11a9 3d3d 21c7 fb3d 1175 21bd b2a3 30bd
00000270: 7d43 5e3c 58d1 a3bb a8d6 7bbd 6f05 213d
00000280: e7a5 893d b4ee d7bd 0a47 1a3c edc9 c73c
00000290: 8e5e cabd 7f4e 23bc 7b72 c2bd 3a53 1ebd
000002a0: ebfe e83c dc8a a7bc 3eff 943d c769 1f3e
000002b0: f136 e0bd f029 d43d b979 4fbe 626d fc3d
000002c0: 96e5 7abe 875a d2bd 2751 cfbc a413 da3d
000002d0: 8ef8 0bbe ebc5 733d 728c 29be 3972 14be
000002e0: 07cb 1fbd c6c2 9a3c 13fe fb3d b435 f33d
000002f0: 957d 473c 2fd5 a5bb 6a9e 683d db93 6cbd
00000300: 1339 663d 7113 0abe f934 a93d 5f40 3c3d
00000310: 0986 d8bd 1a67 7a3d b6b3 283d 189f 0f3e
00000320: 9d9b aa3d 7a19 b5bc 9e2c 27bc 7342 a5bd
00000330: 3749 bb3b e922 94bd 460a 4cbb 8226 003d
00000340: a8c2 42bd d576 02be e9aa 7c3d 0691 723d
00000350: 3a69 c23d 0eae 513d c859 ac3c 0cdf 253d
00000360: ade1 03be db21 efbc 74ba 173e 180d 2e3e
00000370: 0d91 33be c60e 163d 8788 6abd bf28 933b
00000380: 6d89 adbd 4504 843c 996c 36bd 40e7 71bd
00000390: f3a7 e03c 20fa 35bc cf2b a63d b2c3 80bb
000003a0: a8c1 d13d 3413 143e 1e2d 1b3d 1f41 363e
000003b0: d0bb 8f3d 0c1e 733d 653d bdbc 000a 96bc
000003c0: cc7a 9bbd a10d ddbd 747d b9bd 75ce 013e
000003d0: 1f47 7ebd bd11 9ebc 8e3b 11be be7e e03b
000003e0: 24ff 833d c1e1 09be 8934 a03d 7052 9ebc
-0.068752214 0.051341046 0.1970935 0.080959335 0.042120583 -0.1663378 -0.14189273 0.058233615
-0.069777474 0.01999718 -0.10431613 -0.105826676 0.06511574 0.0033242381 0.056340903 -0.17363136
0.1368862 -0.08886882 0.16722642 -0.034313682 0.14043047 -0.15101606 -0.048174813 0.016825683
0.092248656 -0.11501003 0.105675325 -0.040370237 -0.024712808 -0.15886268 -0.20912729 0.1567315
-0.09435164 -0.11027425 0.098953955 0.018148053 0.088631764 0.15282367 -0.11053523 -0.13770008
0.0054752002 -0.069808945 0.08323304 0.09580559 -0.03908022 0.048437536 -0.06958082 0.063066006
0.1607506 -0.08928959 -0.0017695533 -0.14363872 -0.1161369 -0.008386037 -0.058266893 -0.16150506
0.18446107 -0.010974094 0.19764367 -0.03824193 -0.004667224 0.021184657 0.035372593 -0.13438676
0.15354663 -0.0035362206 -0.010976855 -0.026048565 0.1040434 -0.16613881 -0.1686192 0.059511222
0.10907351 -0.09192451 -0.018915474 0.083188005 -0.11502733 0.10638287 -0.015876114 -0.02581463
0.1274098 0.09877376 0.04652837 0.07357201 0.05489038 0.068550944 -0.10099043 -0.03413708
-0.001455202 -0.13852365 -0.053716548 -0.122436814 -0.11799737 0.261509 -0.113538004 -0.02487965
0.027027687 0.00019910709 -0.08696021 0.11669963 0.0733858 0.24663949 -0.21455474 -0.14512387
0.008120003 -0.068311416 0.08109963 0.106411144 0.098959126 -0.082286134 -0.073819906 -0.10021009
0.1347622 0.0025281156 -0.053850174 0.16988522 -0.06579815 -0.04387323 0.006942892 0.10731497
0.105929755 0.026057594 0.045181658 -0.014378574 0.116985716 0.0014720728 0.027772048 0.05334664
0.151401 0.022467911 0.1504799 0.006129868 -0.1743215 0.13577417 -0.17177054 0.0015272775
-0.26331198 -0.03695198 0.1575699 -0.07594857 -0.045556508 -0.17923534 0.17240728 -0.08401444
-0.04922179 0.02353922 0.1506824 -0.04800978 -0.0046362174 0.06978173 -0.025124572 -0.08255413
0.046303812 0.1229384 -0.039418284 -0.043124862 0.013565895 -0.004999321 -0.06148401 0.039311823
0.067210965 -0.10543576 0.009416351 0.024388278 -0.09881316 -0.009967445 -0.09494492 -0.03865359
0.028441867 -0.020451955 0.07275246 0.15567695 -0.10947979 0.103595614 -0.20261277 0.123255506
-0.24501643 -0.10271173 -0.025307251 0.106482774 -0.13669035 0.05951492 -0.16557482 -0.14496697
-0.03901198 0.018891703 0.1230432 0.118754774 0.012175937 -0.005060814 0.0567917 -0.057758193
0.056206774 -0.13483979 0.08262057 0.045959827 -0.1057244 0.06113348 0.04118701 0.14025533
0.08330462 -0.022106875 -0.010203509 -0.08069315 0.005715515 -0.07233221 -0.0031134053 0.031286724
-0.04754892 -0.12740643 0.06168643 0.059220336 0.094927266 0.051191382 0.021038905 0.040495917
-0.12879057 -0.029190948 0.1481722 0.16997182 -0.17535801 0.036635183 -0.05725911 0.0044909413
-0.084734775 0.016115317 -0.04453716 -0.059058428 0.027423834 -0.011106998 0.081138246 -0.0039295787
0.10242015 0.1446045 0.037884824 0.17798279 0.07018244 0.059354827 -0.023100564 -0.018315315
-0.07591781 -0.10793615 -0.090571314 0.12676413 -0.062079545 -0.019295568 -0.14182875 0.0068510463
0.064451486 -0.13465025 0.0782252 -0.019326419

weight f4 [6, 6, 7]
00000000: 43b8 35bd 5fe8 093e 501e 88bd b8c1 1a3e
00000010: 0714 093e 67df 5d3d 93de b3bd fa5c 7bbd
00000020: 9fe8 083e 30f8 dcbd 00a4 963d 85da 4cbe
00000030: 2abb b1bd 4782 0e3d 20a1 ce3d 271f f03b
00000040: d4b6 9fbd 6613 b63d ff7c b63d f738 61bd
00000050: bf85 f43d 976c e83d 9e4c 073d e39e 99bd
00000060: afe7 2f3d 6ba8 0dbe d593 203b a54c 11be
00000070: d6d1 f7bd 0395 d23d 9384 253d e5d3 a03c
00000080: 27f1 0bbe 2fae 173d 7c5a 803d ebfc 14bd
00000090: ad72 8e3d 66ad b23c ea3f f8bd af6b c0bc
000000a0: b6e4 45bd f51f a93c 29b2 36be 85b7 153e
000000b0: c7c4 293e a4fe 09be f42e 31bd 359d b53d
000000c0: 191e d3bd 1f3f 2b3d 426f b53b 106c 67bd
000000d0: 140a 383e a565 37be 2c13 013e d0e4 75bd
000000e0: c735 dc3d 68c6 ddbd 914e e2bc cd60 0abd
000000f0: ba70 aa3d 889c 933c 9021 273e 7cbc 90bd
00000100: aaf9 c5bc e07a 5c3d 61d5 c33d b5d4 98bc
00000110: a326 12be c1d5 f23d 5934 9a3d 6c90 733d
00000120: 137c 21be c7c2 093e 3270 443d 78b3 043d
00000130: 1732 f93d 19f8 92bc e5b1 de3d 90f4 083e
00000140: 0932 2dbd a9d4 4a3d 3a45 143c 436e 8abd
00000150: 1e8f dfbc 107a 36bd 18d6 553d bae2 ab3d
00000160: 270b 8dbd 1405 083b 05cf ddbd 1dab 5bbd
00000170: 3708 373d 5dae a83d 2cf4 93bd 6270 1cbe
00000180: c8fc c63d b622 2dba d352 26be 134f 71be
00000190: b5e4 2b3c 055d 863e 9500 173e 9311 043e
000001a0: df73 f7bd 4fa1 cf3d 8dbf 863d f068 703b
000001b0: c3e6 29be b040 17be d5b0 26be 9234 2d3d
000001c0: 41c3 b6bd b2c3 e03d 467e c43c bbb5 cabd
000001d0: 4087 6e3c 2593 31bd b004 a63d acdc a73c
000001e0: 5a53 96bd 6729 d2bd 2d4d be3d aa60 4c3d
000001f0: 12a4 96ba 9b46 ad3d 44a0 dd3d 8931 c53d
00000200: 0ad1 ca3d 2cff acbd d8af 37bd b888 cd3d
00000210: 2e41 87bc 1d9b 17be 926b 123e b8e3 71bd
00000220: b5ed 1a3e 7191 b13d 004d e33d c756 b53d
00000230: 4458 9abb af09 eb3d 5f55 b6bc e4f9 203c
00000240: 13d5 8fbd e851 fb3d bdbf c6bd e1c0 20bc
00000250: 66a8 c43d 451d 88bd 6176 123e 5f55 1dbe
00000260: f6ed 17bd d63d c73d 3d41 c1bd 709c afbb
00000270: cacb 9c3d 030b 1bbe e2e7 22be 8378 15bd
00000280: 2d86 613d 9d2c 953d 0b43 d1bd c7cd 863d
00000290: ba3c f6bc f3ea 353d ed93 973d 57a6 b2bd
000002a0: 70ba 83bd 9448 653d a7e1 163e f44d b9bd
000002b0: 5a62 aa3c 10c3 3fbe 78df 91bd 7cb7 26be
000002c0: ba15 dabd d960 613e 66ae 8c3d 51a8 023e
000002d0: 8bf8 1fbe b566 22bd 7852 8abd dbd8 49bd
000002e0: 3499 6d3d b093 afbd 0d73 113e 3f21 d1bd
000002f0: aeba 823d 4682 ccbc ffac 083e 325d cfbc
00000300: a4a2 9cbc ed8c 85bd 54e4 193e 2b08 a4bc
00000310: d8d3 0dbd 2757 cbbd 666e 8a3d 340a a43d
00000320: 3fce 0d3e cacf 083e cbf4 b4bb 226b 21bd
00000330: 03e6 483c a0cd a43d 0b38 0abe 54b0 513a
00000340: 4fa9 d73c 69e3 383e 4cec 61bd d9cd 11bc
00000350: f11d 1cbe 64dc c3bd 3cf2 15bd cb80 033d
00000360: 0acb fa3d cfc6 2fbe 97f4 97bb 8dae 003e
00000370: 6a03 e4bd c5f7 0b3e 84ed d43d dd94 47be
00000380: b49c 90bb cdce 4ebd 0b19 23ba c883 053e
00000390: 35dc 65bd 1c4a e7bd 3609 d13c d122 e93d
000003a0: f50d 9c3c f2c2 103e cc41 fabb eeb7 b9bd
000003b0: 0652 17be 53e2 773d 35df d43d 5956 823d
000003c0: 1b85 393e ab1a 4a3d f895 103d a6ad 94bd
000003d0: 97cd 2a3e cea1 e6bd 6b3f 373e 16b4 f53d
000003e0: e0d2 bb3d 04c4 0ebe 53ab ce3c 8284 1b3e
-0.04436518 0.13467549 -0.06646407 0.1511296 0.13386546 0.05416813 -0.08782687 -0.061367966
0.13369988 -0.107895255 0.07355499 -0.20005234 -0.08678277 0.03479221 0.10089326 0.0073279324
-0.077985436 0.08890419 0.0891056 -0.054985967 0.119395725 0.11348837 0.033032052 -0.07501008
0.04294556 -0.13833778 0.0024502177 -0.14189394 -0.1210057 0.10282328 0.040409636 0.01963229
-0.13666211 0.03703135 0.062672585 -0.036374014 0.069554664 0.021811198 -0.12121566 -0.023488848
-0.04831382 0.020645121 -0.178414 0.14620788 0.16578971 -0.13476044 -0.04325767 0.088678755
-0.10308475 0.041808244 0.0055369446 -0.05649954 0.17972594 -0.17909868 0.1260497 -0.060032666
0.10752445 -0.108288586 -0.027625354 -0.033783723 0.08322282 0.018018976 0.16321397 -0.070672005
-0.0241669 0.05382812 0.09562183 -0.018656114 -0.14272551 0.118571766 0.07529516 0.059463903
-0.15769987 0.13453208 0.04795856 0.032397717 0.12167757 -0.017940568 0.108737744 0.13374543
-0.042284045 0.049519215 0.009049708 -0.06759312 -0.027289923 -0.04455 0.05220613 0.08392854
-0.06886893 0.002075498 -0.108305015 -0.053629983 0.04468557 0.08236382 -0.072243065 -0.15277246
0.09716183 -0.00066045986 -0.16242532 -0.2356532 0.01049154 0.26242843 0.14746316 0.12897329
-0.120826475 0.10138189 0.06579504 0.0036683641 -0.16591935 -0.1477077 -0.16278394 0.042286463
-0.089239605 0.10974826 0.023985993 -0.098979436 0.014558613 -0.04335322 0.08106363 0.020490967
-0.07340117 -0.10261803 0.09292064 0.049896874 -0.0011492989 0.084607325 0.10821584 0.09628589
0.09903152 -0.08447108 -0.044845432 0.10035843 -0.016510572 -0.14805265 0.14298847 -0.05905506
0.1512974 0.08670319 0.11098671 0.08854442 -0.004710229 0.114764564 -0.022257505 0.009825204
-0.070230626 0.12271482 -0.0970454 -0.009811611 0.09602432 -0.06646208 0.1430297 -0.15364598
-0.03709217 0.09728591 -0.09436271 -0.005359225 0.07656057 -0.1514092 -0.15908769 -0.036491882
0.0550596 0.072839 -0.102178656 0.06582218 -0.030058254 0.04441352 0.074012615 -0.08723133
-0.064320445 0.05597742 0.14734517 -0.090480715 0.02079885 -0.18726754 -0.071227014 -0.16280931
-0.10648675 0.220096 0.06869201 0.1275952 -0.15622155 -0.03964873 -0.06754011 -0.049279075
0.058007434 -0.08573091 0.14204045 -0.10211419 0.063832626 -0.024964463 0.13347243 -0.025312994
-0.019120522 -0.0652102 0.15028507 -0.020023426 -0.034625858 -0.09928732 0.06759338 0.080097586
0.13848208 0.13360515 -0.0055223457 -0.03940881 0.01226187 0.08047032 -0.13497941 0.0007998992
0.02632585 0.180555 -0.05515699 -0.008899176 -0.15245797 -0.095635206 -0.036607966 0.03210525
0.12245758 -0.17165683 -0.0046373117 0.12566586 -0.11133464 0.13668735 0.10396865 -0.1949038
-0.0044132117 -0.05049019 -0.0006221688 0.13038552 -0.05611821 -0.11293432 0.025517087 0.11383594
0.019049624 0.14136866 -0.007637238 -0.09068285 -0.14777383 0.060518574 0.10394136 0.06364126
0.18117182 0.04934184 0.03529927 -0.07259683 0.16679989 -0.112613305 0.17895286 0.11997239
0.091710806 -0.13941962 0.025228178 0.15187266

weights f4 [6, 1, 3, 1]
00000000: f472 873f 309b 733f 458a 7fbd 3839 7f3f
00000010: a973 883f aa4d 893c e6c8 8a3f 22de 863f
00000020: 78c4 15be 9ee9 783f 8b28 843f 7768 35bd
00000030: d5a7 7e3f 4d9c 893f 4e7a 79bd 0007 7f3f
00000040: c4a1 803f dfc7 cd3c
1.0581956 0.9515867 -0.062387723 0.99696684 1.0660297 0.016760666 1.0842559 1.053654
-0.14625728 0.9723147 1.0324873 -0.04428908 0.9947484 1.0750824 -0.060907654 0.99620056
1.0049367 0.02511972

running_cov f4 [1, 6, 2, 2]
00000000: ec8b c03f ac99 8bbc ac99 8bbc c269 a13f
00000010: d96c a63f d36f d1bd d36f d1bd 3872 9b3f
00000020: e48e b93f ce3d 1cbd ce3d 1cbd 7dd7 bd3f
00000030: 5641 cb3f 049f 00be 049f 00be 0229 ce3f
00000040: 744f aa3f a671 bd3c a671 bd3c 1a61 ba3f
00000050: 1446 c63f 5e66 c13d 5e66 c13d 9c57 bc3f
1.5042701 -0.01704105 -0.01704105 1.26104 1.3001968 -0.10226407 -0.10226407 1.2144232
1.4496732 -0.03814488 -0.03814488 1.4831387 1.5879314 -0.1256066 -0.1256066 1.6106265
1.3305497 0.02312548 0.02312548 1.4560883 1.5490136 0.09443353 0.09443353 1.4714236
