Homography_Trained_Model/E2EMP_UL2_30.pth (torch, 885388 bytes, 291 tensors)

weight f4 [1, 1, 1, 7]
000000 86 a6 fd 3d ac 5a 64 3e 11 84 46 ba d1 64 92 3d
       0.123852775 0.22300214 -0.000757278 0.071481355
000010 5c a7 71 3e 5a 92 c4 3e 80 39 75 bd
       0.23598999 0.38392907 -0.05986929

weight f4 [1, 1, 1, 7]
000000 30 dd 9d 3e b3 fa 80 bd f8 8c 6f 3e 6f 5f 5e be
       0.30832815 -0.06297817 0.23393619 -0.21716093
000010 7a 7e c1 3e 36 ff 68 3e 5e 56 95 3c
       0.37791806 0.22753605 0.01822966

weight f4 [1, 3]
000000 95 be a1 3f 4f 74 c5 3f 13 f0 82 bc
       1.2636286 1.542612 -0.015983617

bias f4 [1, 2]
000000 1e fd 2c 3e 11 b8 fc 3b
       0.16893432 0.007712372

running_covar f4 [1, 3]
000000 29 01 3c 3c 51 84 b3 3c bb 0c 11 ba
       0.011474886 0.02191368 -0.0005533208

weight f4 [1, 1, 5, 1]
000000 51 4e 88 bd dc 23 ad 3e b0 8d ab 3c 76 0e 45 be
       -0.06655563 0.3381642 0.020941585 -0.19243798
000010 fe 08 ad bd
       -0.08448981

weight f4 [1, 1, 5, 1]
000000 3e 93 39 be 75 04 a5 3e 1a 43 93 be 97 d8 40 be
       -0.18122575 0.32229963 -0.28762132 -0.18832622
000010 58 8d 16 3e
       0.14702356

weight f4 [1, 3]
000000 03 5d b7 3f ec 68 c5 3f 20 de a6 bc
       1.432526 1.5422645 -0.02036959

bias f4 [1, 2]
000000 21 99 90 3d e2 6d c6 3c
       0.07060457 0.024222318

running_covar f4 [1, 3]
000000 3a 6b 32 3e 60 1e 42 3e 92 a5 83 3b
       0.17423716 0.189569 0.0040175403

weight f4 [1, 1, 5, 1]
000000 3d 9d 2b be f3 a2 90 be bb 9b e9 3e fd 5c 0c 3e
       -0.167592 -0.2824932 0.45626625 0.13707347
000010 b7 88 ac bd
       -0.08424514

weight f4 [1, 1, 5, 1]
000000 c7 a0 a7 be da 4c e3 bd a2 53 c1 be c5 cd 18 be
       -0.3273985 -0.11098643 -0.3775912 -0.14922245
000010 9a e0 59 3e
       0.21277085

weight f4 [1, 3]
000000 4f f1 b6 3f ee b1 b3 3f a0 76 7b bc
       1.4292392 1.4038675 -0.015348107

bias f4 [1, 2]
000000 44 a7 85 3d 1a a2 ca 3c
       0.06526044 0.0247355

running_covar f4 [1, 3]
000000 47 08 08 3b c7 98 16 3c 15 fc 69 ba
       0.0020756887 0.009191698 -0.0008925808

weight f4 [1, 1, 1, 7]
000000 b3 4b 74 3e aa 7a 56 3e 73 3c ca be e2 0a 27 3e
       0.23857002 0.2094523 -0.39499244 0.16312745
000010 ce 7b a0 3e a9 db b2 3e f3 2e 4a 3d
       0.31344455 0.34933212 0.04936118

weight f4 [1, 1, 1, 7]
000000 13 7e 89 be 92 12 be 3d 9d 4d b4 be 20 28 68 3c
       -0.26854 0.09280886 -0.35215464 0.014169723
000010 ce d4 0b 3e d6 28 f8 bb bf eb 97 3e
       0.13655397 -0.0075732274 0.29672047

weight f4 [1, 3]
000000 c4 70 ab 3f d9 4e ae 3f b5 21 26 bd
       1.3393788 1.3617812 -0.04055949

bias f4 [1, 2]
000000 5c b3 1d bb 48 08 82 bb
       -0.0024063205 -0.0039682724

running_covar f4 [1, 3]
000000 da 3f 58 3f 91 18 b0 3f f0 ba e6 3d
       0.8447243 1.3757497 0.11266124

weight f4 [1, 1, 3, 3]
000000 22 23 61 be 0f 0e 4a be a9 a4 04 be a2 e7 dd bc
       -0.21986058 -0.19731925 -0.12953438 -0.02708799
000010 31 7d 60 3e b7 87 aa 3e 7d cc 0c 3e cd 88 9b be
       0.21922757 0.33306667 0.13749881 -0.30377808
000020 ab fc 38 be
       -0.18065135

weight f4 [1, 1, 3, 3]
000000 52 47 55 bc 76 14 80 be 97 e9 34 3e ae 01 48 3e
       -0.013017492 -0.2501561 0.17667232 0.19531891
000010 13 bf 5c 3e af b3 88 3d 31 37 12 3d c6 df 69 3b
       0.21557264 0.06674897 0.035697166 0.0035686358
000020 34 80 c5 be
       -0.38574374

weight f4 [1, 3]
000000 9e a2 b4 3f d8 1c ab 3f 32 6e 02 be
       1.4112127 1.3368177 -0.12737349

bias f4 [1, 2]
000000 27 23 4f 3e 7d 0f 5d 3e
       0.20228253 0.2158794

running_covar f4 [1, 3]
000000 81 69 af 3c 03 88 d3 3c a0 ec f9 3a
       0.021412613 0.025821691 0.0019067712

weight f4 [1, 1, 3, 3]
000000 63 9b 21 be 9e c6 62 3e b6 20 81 3e 4a 7c 37 3e
       -0.15781932 0.22146079 0.2522027 0.17918506
000010 5c d7 68 be e8 d9 94 bd 63 83 9f bd af 5d 75 39
       -0.22738403 -0.07268125 -0.07788732 0.0002339992
000020 42 92 a0 3e
       0.31361586

weight f4 [1, 1, 3, 3]
000000 47 61 0b 3d f2 bf 85 3c b9 35 3d 3e 8c 5b bd 3e
       0.034028318 0.016326878 0.18477525 0.36983907
000010 9b 09 56 3d a1 e1 61 3e ae 58 b0 be 7f 43 5f be
       0.052255254 0.22058727 -0.34442657 -0.21803091
000020 7b bf 81 3e
       0.253414

weight f4 [1, 3]
000000 33 7c c5 3f 31 53 b7 3f d1 60 c3 bd
       1.5428528 1.4322263 -0.09539951

bias f4 [1, 2]
000000 3b cc f6 3c 9d db 30 3d
       0.030126682 0.04317819

running_covar f4 [1, 3]
000000 45 8b 73 3f fb 23 86 3f d8 44 b9 3a
       0.95134383 1.047973 0.0014134897

weight f4 [1, 1, 1, 7]
000000 cf 3b d7 bd 7f 2f 99 3d aa 03 b6 3e 2e 59 0c 3e
       -0.105094545 0.07479762 0.3554967 0.13705894
000010 4d b2 a8 bc 8c d1 94 3e 2c 8b 2b be
       -0.020592833 0.29066122 -0.16752309

weight f4 [1, 1, 1, 7]
000000 54 5d 9f 3d 22 f7 5e 3b d1 83 5f 3d 3e 46 ab be
       0.07781473 0.0034021814 0.05456907 -0.33452028
000010 17 60 cc 3e 53 32 90 3d ca 82 8a bc
       0.3991706 0.070408486 -0.016908068

weight f4 [1, 3]
000000 f8 ed b5 3f 25 61 b4 3f a4 b3 08 bd
       1.4213247 1.4092146 -0.033374444

bias f4 [1, 2]
000000 fc 10 a8 bc 35 2a 1b 3d
       -0.020515911 0.03788205

running_covar f4 [1, 3]
000000 4a be 6a 3a c4 ee 13 3b ff 34 6a b9
       0.0008954747 0.0022572735 -0.00022335722

weight f4 [1, 1, 5, 1]
000000 35 28 07 3e 5a dc cd 3e 52 67 27 3e 5a 4c 99 be
       0.13198932 0.40207177 0.16348007 -0.29941064
000010 c4 de bf be
       -0.37474644

weight f4 [1, 1, 5, 1]
000000 98 26 54 3d a2 fb c7 3e 69 51 3e be 83 7a 80 be
       0.05179462 0.39059168 -0.18585743 -0.2509347
000010 d6 b4 cf 3e
       0.40567654

weight f4 [1, 3]
000000 98 4b b5 3f c9 43 aa 3f 84 c5 c0 3c
       1.4163694 1.3301936 0.023531683

bias f4 [1, 2]
000000 04 0b 37 bc e3 f2 77 bd
       -0.01117206 -0.06053437

running_covar f4 [1, 3]
000000 e6 1e 84 3d 70 a5 64 3e b7 44 17 3a
       0.06451206 0.22328734 0.0005770432

weight f4 [1, 1, 5, 1]
000000 3c 6e 9a bd a8 09 2a be c2 7e ca 3e 7e 42 95 be
       -0.07540557 -0.16605246 0.39549834 -0.29152292
000010 b1 45 88 bd
       -0.066539176

weight f4 [1, 1, 5, 1]
000000 89 93 5b 3e a8 9d c7 3e 8f 3b cf 3c 6b d6 a1 3e
       0.21442999 0.3898747 0.025296954 0.316089
000010 e1 cd 09 3e
       0.13457443

weight f4 [1, 3]
000000 82 1a b9 3f d4 e6 b1 3f 71 c6 04 bd
       1.4461215 1.3898568 -0.03241581

bias f4 [1, 2]
000000 6b 6c 68 3c 8e 5a 42 3b
       0.014186005 0.0029656026

running_covar f4 [1, 3]
000000 15 13 2d 3c 88 3a 9d 3a 9c 83 48 bb
       0.010563632 0.0011995593 -0.0030596023

weight f4 [1, 1, 1, 7]
000000 25 09 aa be 78 73 95 be 4e ca 03 be b6 0f f3 bc
       -0.33210102 -0.29189658 -0.12870142 -0.029670577
000010 0c 2d 11 bd e3 0f 76 be 68 86 64 be
       -0.03544335 -0.24029498 -0.22316897

weight f4 [1, 1, 1, 7]
000000 e9 86 d8 3d c4 d1 d9 3c ec d6 d0 bd f6 86 35 bc
       0.10572607 0.026589282 -0.10197243 -0.0110795405
000010 5b 87 80 3d a8 7c 52 3e d1 af a5 be
       0.06275817 0.20555365 -0.323607

weight f4 [1, 3]
000000 4b a2 b0 3f 74 10 b5 3f 91 36 f8 bc
       1.3799528 1.4145646 -0.030299457

bias f4 [1, 2]
000000 c8 84 09 bd 52 60 6d bc
       -0.033573896 -0.014488297

running_covar f4 [1, 3]
000000 4d 0c 2c 40 06 00 50 3f d2 ae 93 3f
       2.6882508 0.81250036 1.1537726

weight f4 [1, 1, 3, 3]
000000 03 f9 7c 3d 68 19 78 3e 93 d2 aa 3d 14 03 83 3e
       0.061760914 0.24228442 0.08340945 0.25588286
000010 d5 6f 89 39 ad ed 18 3e af aa 91 3e 8e ce c4 3d
       0.00026213998 0.14934416 0.28450534 0.0960971
000020 07 54 8b 3e
       0.27212545

weight f4 [1, 1, 3, 3]
000000 78 95 8e 3e 6d c1 b6 3c 6e 63 f7 3d 16 16 78 be
       0.2784841 0.02230903 0.120795116 -0.24227175
000010 76 02 b3 bb 61 60 03 3e d7 09 33 bc 79 39 8c 3d
       -0.00546294 0.12829734 -0.010927639 0.068468995
000020 6a 7b 43 be
       -0.19090047

weight f4 [1, 3]
000000 f8 5d b9 3f 6c 66 b1 3f 77 04 5d bc
       1.4481802 1.3859382 -0.013489834

bias f4 [1, 2]
000000 50 5d 14 3c fe 45 a8 bc
       0.009055451 -0.020541187

running_covar f4 [1, 3]
000000 25 88 d7 3b 9a 9e 17 3c 72 0c a1 3b
       0.006577509 0.009254122 0.0049148137

weight f4 [1, 1, 3, 3]
000000 30 e2 de bd af f8 04 3d 1c d2 21 3e 10 5d a7 be
       -0.108829856 0.032463726 0.15802807 -0.3268819
000010 da f5 b4 be b7 07 30 be d6 99 3a be 8c fe 13 3e
       -0.3534382 -0.17190443 -0.18222746 0.1445257
000020 4d ce 25 be
       -0.16191979

weight f4 [1, 1, 3, 3]
000000 b8 70 13 3e 51 66 b2 be 36 19 44 be 40 cb 4b 3e
       0.14398468 -0.34843686 -0.19150242 0.19901752
000010 fb e2 8f 3e d4 ee e1 3d 5c 26 65 be 9a 8f 16 3e
       0.2810286 0.11031881 -0.22377914 0.14703217
000020 32 d0 ad bd
       -0.08486976

weight f4 [1, 3]
000000 60 21 b3 3f ba e1 b1 3f f4 44 02 bc
       1.399456 1.3897011 -0.00795101

bias f4 [1, 2]
000000 20 e9 e3 bc 35 18 91 bd
       -0.027821124 -0.07084695

running_covar f4 [1, 3]
000000 7a d0 6b 3e 40 6b 5f 3e ec a0 40 be
       0.23028746 0.21818256 -0.18811387

weight f4 [6, 6, 9]
000000 bf 45 6d 3d 17 ac 14 bd 68 cd 45 bd c9 fb 4e be
       0.057927843 -0.03629693 -0.048291594 -0.20213236
000010 dc 94 9a 3b aa 6c 07 be ab 67 2a 3c ec e4 e6 bd
       0.0047174525 -0.13225046 0.010400693 -0.11274132
000020 7b 76 2b be 5f 58 02 be 7d 70 06 be 8b 25 6d 3d
       -0.16744415 -0.12729023 -0.13128848 0.057897132
000030 9a 88 c8 bc a8 a4 02 3e e9 15 08 bd ac a9 6f bc
       -0.0244792 0.12758124 -0.03322402 -0.014627855
000040 b1 7d 4a 3c a3 57 f0 bd e0 f8 36 bd 4a 71 90 3d
       0.012359069 -0.117354654 -0.04467094 0.07052858
000050 19 03 0e 3d 8d a3 87 3c 84 ed 3b 3d d2 c8 f1 3b
       0.034670923 0.01655748 0.04588081 0.007378676
000060 94 d8 10 bd ff 57 cc bb 7f f3 9c 3c 1b 3b 82 bd
       -0.035362795 -0.006236076 0.019159077 -0.0635893
000070 fd 8c f1 bd da 4a 20 3e 4f d7 9c bd 97 74 38 bd
       -0.117944695 0.15653554 -0.07658254 -0.045033064
000080 d0 44 ea bd eb 14 23 bc 00 49 4b 3d 72 54 fb 3d
       -0.11438906 -0.009953718 0.049630165 0.12271966
000090 9a 51 30 3d a9 88 bc bb 0b 4e e1 3d 7c be 8c bd
       0.04304657 -0.005753596 0.11001214 -0.068722695
0000a0 a3 b4 c8 bd 89 76 61 bc 4f 93 77 3d 48 57 d4 3d
       -0.09800079 -0.013761171 0.06044322 0.1036821
0000b0 4d 26 22 bc d8 a0 b9 3c d2 ef b7 bd e2 df 9c 3d
       -0.009896827 0.022659704 -0.08981289 0.0765989
0000c0 c2 97 7c 3d ec f5 ad 3d a2 97 be bd 94 e6 8f bc
       0.061668165 0.084941715 -0.093062654 -0.017566003
0000d0 48 b2 08 bd 63 15 3c 3d 1b 64 01 3e ce 22 a5 bc
       -0.033373147 0.045918833 0.12635843 -0.020158198
0000e0 83 50 50 bd 93 02 dc 3c 39 f2 55 bd 7a 21 f5 3a
       -0.050858032 0.026856696 -0.052232955 0.0018701993
0000f0 f8 22 a6 3d ec b4 a2 bd 82 2d 49 bd eb a3 bd bc
       0.081121385 -0.07944664 -0.049115665 -0.023149451
000100 c1 51 21 3d f0 31 81 bb 30 1a b3 3d e4 b3 b3 bd
       0.039384607 -0.0039427206 0.08745229 -0.08774546
000110 d8 fc 13 bd de 41 0c be b0 50 aa 3d 17 65 f5 bd
       -0.036129802 -0.13697001 0.08316171 -0.11982172
000120 98 b0 21 be 96 ad 9a bd 08 48 fe 3a a6 da 50 be
       -0.15790021 -0.0755264 0.0019400129 -0.20395908
000130 b1 a5 04 be f2 37 56 be e6 07 f4 bd 54 d7 13 be
       -0.12953831 -0.20919779 -0.11915569 -0.1443761
000140 54 64 83 3b 86 46 c2 bd a1 7a af bd 80 87 ca bd
       0.004009763 -0.094861075 -0.085683115 -0.09889126
000150 2b ea ec bd ff 5f 2c 3c 76 fb b7 bd 42 69 cd bc
       -0.115681015 0.010520934 -0.08983509 -0.025074605
000160 0b 5d cf 3d 76 43 a3 3d e0 68 db bd 17 68 cb bd
       0.101251684 0.079718515 -0.10713363 -0.09931963
000170 a3 a5 b7 3d 45 e8 73 bd 98 22 9e 3d 9b 39 08 3d
       0.089671396 -0.05954768 0.07721442 0.03325806
000180 37 1d cb 3d 25 16 6a 3c f9 4e f4 bd 0b c6 f8 bd
       0.09917682 0.014287506 -0.11929125 -0.12147149
000190 65 49 1e 3d ed 49 07 be 13 48 27 be b7 a4 3d bd
       0.038644213 -0.13211794 -0.16336088 -0.046299662
0001a0 d1 16 58 bd 13 da 7e ba 7d c9 f0 bc 71 a2 65 bd
       -0.052756134 -0.00097218266 -0.029392952 -0.05606312
0001b0 08 29 f3 3d 58 15 84 3d 70 e8 73 bc 14 d8 cf bd
       0.118730605 0.064493835 -0.01488696 -0.101486355
0001c0 9c 73 b2 3d 37 20 47 bd ef 44 cd bd 73 0b 5d bd
       0.08713457 -0.048614707 -0.10022914 -0.053965997
0001d0 80 fc f0 bc c4 31 40 bc 48 5a 3b ba 79 ef 46 bb
       -0.029417276 -0.011730615 -0.0007146937 -0.003035514
0001e0 3b 2f b6 bd 58 4f 98 bd 41 51 0d 3e 97 00 82 bd
       -0.08895727 -0.074370086 0.13800527 -0.06347769
0001f0 73 d4 df bd 1b 10 00 be 65 f8 9c bc 38 97 08 3e
       -0.10929193 -0.12506144 -0.019161412 0.13338935
000200 dd 86 5d 3d 56 cf 19 3e 1a f0 b8 39 9f 38 d2 bd
       0.054083694 0.15020499 0.00035274104 -0.10264706
000210 40 c9 bc bd ed 85 a3 bd 20 65 29 be 8a ec 67 3d
       -0.09218073 -0.07984529 -0.16542482 0.056622066
000220 91 be fd 3d 3b a3 eb 3d f9 4f 14 bd 38 8e 0e be
       0.12389863 0.11505743 -0.03620908 -0.1392144
000230 5e 75 0a 3e 92 3d bc bc 57 84 cc 3d f9 76 65 bd
       0.13521335 -0.022978578 0.09986179 -0.056021664
000240 74 80 c7 3c 93 f8 07 3e 35 b0 8b bd 14 28 06 3d
       0.024353243 0.13278417 -0.06820718 0.032753065
000250 c2 5b f1 bc 3b 6f 12 bc d1 38 8b 3d c8 1a 93 3d
       -0.029462699 -0.008937652 0.06797946 0.071828425
000260 a5 c3 04 be ff 4a bf bd 0a ee 65 3d 88 d1 a5 3d
       -0.12965257 -0.09340476 0.056135215 0.080966055
000270 24 e1 a7 3d 8e 21 82 bd 9e 95 cb 3d ce 0d 14 3e
       0.08197239 -0.06354056 0.099406466 0.14458391
000280 7d af 19 3e 8c 9b a9 3d 22 72 8d bb bd b7 a1 3d
       0.1500835 0.08281621 -0.004316584 0.078963734
000290 90 3b b0 bd 1a 2b 1e 3d ed cc 78 3d d3 5f eb bd
       -0.08605111 0.038615324 0.060742307 -0.114928864
0002a0 5b ab 5e 3d 11 00 01 bc 1f 2d 31 bd 42 f0 ae bd
       0.054362636 -0.007873551 -0.04325592 -0.08541919
0002b0 fb 59 bc bd c9 69 ca 3d 2c 92 d1 3c f0 12 64 3d
       -0.0919685 0.09883458 0.025582395 0.055682123
0002c0 b7 5e d6 bd 2c d6 88 3d 62 e4 fd bd 62 5e ba bd
       -0.10467284 0.06681475 -0.12397076 -0.09100033
0002d0 c9 ac b2 3d 9a 29 47 3e dd be 60 3e 73 38 24 bb
       0.087243624 0.19449463 0.21947809 -0.002505806
0002e0 27 46 98 3c 7e 6f 29 3e c6 cf e4 bd 0e 95 bc 3d
       0.018588139 0.16546437 -0.11172442 0.092081174
0002f0 13 1b 01 be ae fa a8 3d de fa 7a 3d a8 7b 51 bc
       -0.12607984 0.08250938 0.0612744 -0.01278583
000300 47 dc 35 bc 7f 5d 7f 3c bd c0 75 bd 15 b2 c5 3d
       -0.0110998815 0.015586256 -0.059998263 0.09653107
000310 ec a1 6a 3d 1c 3c 4e 3d cd f6 33 ba ab e6 92 bd
       0.057283327 0.050350294 -0.0006865084 -0.07172903
000320 27 7c 06 bd d5 d7 d3 3d 7f 33 d9 bd d0 16 e3 bd
       -0.032833245 0.10343901 -0.10605525 -0.110883355
000330 ae 83 80 bd 27 69 b8 3d ad 62 04 be 9c 1e f1 3d
       -0.06275116 0.09004431 -0.12928267 0.117734164
000340 4d cb 87 3d 18 75 0b 3c 67 5b 1e 3e d9 ab ee 3d
       0.066305734 0.008511804 0.15464555 0.11653871
000350 a3 cc d1 3d 58 d5 5b 3d fc 1d 82 bc 3e 99 56 3c
       0.102441095 0.053670257 -0.015883438 0.013098059
000360 50 18 6e bc e9 01 12 be b5 f1 af 3d 10 e1 06 bd
       -0.014532164 -0.14258541 0.08591024 -0.03292948
000370 f8 46 11 be 66 41 89 bd e5 0d 86 bd 87 36 99 3d
       -0.14187229 -0.06701927 -0.06545619 0.074811034
000380 39 40 ae bd ea b3 4f 3d 8f 2b 01 3d 00 d5 48 3d
       -0.08508343 0.05070869 0.03153568 0.049031258
000390 73 ca b6 3d e8 b6 09 3e 45 46 ab bd 8a 31 06 bc
       0.08925333 0.1344868 -0.08363012 -0.008190522
0003a0 29 e2 0d 3d 42 8b 21 3e bc e0 82 3d d8 d2 a3 3d
       0.03463951 0.15775779 0.06390521 0.079992
0003b0 d0 ba fb 3d 17 4b 81 3d 8a fc 57 3c dd b5 12 bd
       0.12291491 0.063131504 0.013182769 -0.03581797
0003c0 22 ee 13 3e fa 77 f1 3d 47 c6 91 bd 1b 64 be bd
       0.14446309 0.11790462 -0.071178965 -0.09296437
0003d0 0e 2a c3 bc 30 49 28 3e ea 7c 8f 3d e6 ef 14 3e
       -0.023823764 0.16434169 0.07006247 0.14544639
0003e0 2f 59 b6 3d 29 22 83 3d 2e 33 f9 bb f5 d4 fc 3c
       0.08903729 0.06403 -0.007604978 0.030863265
0003f0 6e d8 64 bd 4a c5 50 3d f6 3f 62 bd 31 86 19 3d
       -0.055870466 0.0509694 -0.05523678 0.03748149

weight f4 [6, 6, 9]
000000 4f 22 c0 bd 60 75 66 bd b3 f6 54 3c e9 56 30 be
       -0.09381544 -0.05626428 0.012998271 -0.17220654
000010 0c 25 f2 bc 40 76 09 3e ea fc 4d 3c 82 16 62 3d
       -0.029558681 0.13424015 0.012572506 0.055197246
000020 72 c0 3d bd 3c a4 af 3d 9c b5 7a bd 4d a2 d1 bd
       -0.04632611 0.08576247 -0.061208352 -0.102360345
000030 bb 2f 02 be e2 cd 61 3d 77 30 d3 bc a2 53 ad bc
       -0.1271352 0.055127986 -0.025779946 -0.021158043
000040 78 c8 44 3d 7d 1f f4 3d 88 82 81 bd d7 4c 88 bd
       0.048042744 0.119200684 -0.06323725 -0.06655281
000050 92 51 42 bd 67 e5 08 be 92 0b fa bd 0a 20 ef bd
       -0.047441073 -0.1336876 -0.12209238 -0.11676033
000060 35 e7 c3 bc ec 2f 7b 3d d2 8d d6 3d eb 6c 0a be
       -0.023913959 0.061325 0.10476269 -0.13518111
000070 c2 18 91 3c 51 30 e9 bd 9c 90 ce bd 44 c2 a2 3d
       0.017712 -0.11386169 -0.10086176 0.079472095
000080 e6 08 fb bd f5 4c b3 3d 56 b9 46 3c db 81 f9 bd
       -0.122575566 0.08754913 0.0121291485 -0.12182971
000090 1e 32 fd 3d be 57 12 bd 61 65 80 3d a3 31 cd bd
       0.12363075 -0.03572821 0.062693365 -0.10019233
0000a0 15 a3 24 3d ae 37 23 3c cc 85 59 bc f7 39 b1 bc
       0.04019459 0.009962006 -0.013276529 -0.021634085
0000b0 b5 05 d7 bd f1 87 a7 bd 0a f6 03 3e ea 43 ba bd
       -0.104991354 -0.08180226 0.12886825 -0.09094985
0000c0 a1 89 c9 3d 6d f0 02 be 79 f4 c4 3d 8a 9a 87 3d
       0.09840704 -0.12787028 0.09616942 0.06621273
0000d0 b6 da 44 bd 54 78 b7 ba 5d 6b e9 bc c8 d6 ca 3d
       -0.04806014 -0.0013997653 -0.028493578 0.099042475
0000e0 9b 7c fb bc a0 78 13 bb 56 60 31 bd cc 5b 50 bd
       -0.030699065 -0.0022502318 -0.043304764 -0.050868794
0000f0 c8 04 07 3e 50 88 22 3d 50 36 33 3d 00 81 ce 3d
       0.13185418 0.03968078 0.04375297 0.100831985
000100 70 b4 73 bd 83 2f b0 bd 84 00 f6 bc 8f 4c 5b 3d
       -0.05949825 -0.08602812 -0.030029543 0.05353981
000110 45 4c 6e bd af 7b 92 bd f2 d7 cf bd 08 cc cc bc
       -0.058178205 -0.07152497 -0.1014861 -0.024999633
000120 39 f5 45 bd e7 a8 1c 3e e1 2f 63 bd 65 d0 fb 3d
       -0.048329566 0.15298806 -0.055465583 0.122956075
000130 74 33 83 3c 22 1f a6 3d 4f a4 da bd fe c2 b9 bd
       0.016015746 0.08111407 -0.106758706 -0.09070395
000140 8f 07 00 3a de 4e d8 bb ee 0e f2 3d 61 65 a0 bd
       0.0004883939 -0.0066011986 0.11819254 -0.078318365
000150 8b 3b 55 bc 56 bf 6d bd dc ab b5 bd 5e b7 a7 bd
       -0.013014684 -0.0580438 -0.0887067 -0.081892714
000160 dd c4 41 bc 50 52 8f bd a3 e5 12 3e b0 28 9b 3d
       -0.011826721 -0.06998122 0.14345412 0.0757612
000170 c4 4f 58 3d e4 3c aa bd 52 65 6e 3c c5 bc 09 be
       0.052810445 -0.08312395 0.014550524 -0.13450916
000180 68 db 78 3d 30 a0 f4 3d 8f ab 51 bd 59 a7 39 3d
       0.060756117 0.11944616 -0.051189 0.04532561
000190 c2 96 b5 bc fe 21 9a bc 0e 75 09 3e e6 9a 2e bd
       -0.022166613 -0.018815037 0.13423559 -0.04262819
0001a0 7b a0 a6 bd 29 de fa bd da 12 8f 3d dc e1 26 bd
       -0.08136078 -0.12249405 0.069860175 -0.04074274
0001b0 d9 91 15 3e 0e 23 43 3e da ba fa 3d 5b 6c 0d 3e
       0.14606418 0.19056341 0.1224267 0.13810866
0001c0 a5 a8 d8 bc e1 a5 e8 bd 52 00 88 3d 74 c7 a5 3d
       -0.026447603 -0.11359764 0.06640686 0.08094683
0001d0 e3 44 a4 bd 58 c2 00 be de c4 e8 3d fc c6 99 bc
       -0.080209516 -0.12574136 0.113656744 -0.018771641
0001e0 7a a8 ed 3d 70 20 f2 3d 77 35 00 3e be 63 d1 3b
       0.116044 0.11822593 0.12520395 0.006390064
0001f0 53 7e b4 3c 3d 28 5d bd 8d 91 92 3d 8f 40 ae 3d
       0.022032892 -0.053993452 0.07156668 0.08508407
000200 00 7f a8 ba b7 64 71 bc 31 b5 fc bc aa 94 2e 3d
       -0.0012855232 -0.014733485 -0.030848118 0.042622246
000210 d8 6c 93 3c a0 8f e8 3d 9e 04 36 bc 4e 01 bc 3d
       0.017996237 0.11355519 -0.011109499 0.09179936
000220 7b 2b dd bd 11 a4 0f be be 30 70 3d 14 32 2d 3d
       -0.10799309 -0.1402743 0.058640234 0.042284086
000230 5d 31 85 bd 12 29 6c bd f6 1a a8 bd 7e 07 55 bd
       -0.06503556 -0.057656355 -0.082082674 -0.0520091
000240 6b 75 55 3d 34 e3 3d 3d 8f 0f fa 3d ae 40 77 bd
       0.05211393 0.046359256 0.12209999 -0.060364418
000250 91 ac ba bb 5e 28 19 be c0 6a ef bd a3 e7 01 be
       -0.005696841 -0.14956805 -0.11690283 -0.12686019
000260 7c 43 92 bc 0f 27 ac bd 9a 96 75 3b b8 db 36 bd
       -0.017854445 -0.08405887 0.0037473799 -0.044643134
000270 b7 6d 81 3d 6f 08 9c bb 3b a2 e0 3d e9 3f 45 3d
       0.063197546 -0.0047617476 0.10968443 0.048156653
000280 5a 9c 43 bd bb 0c 19 be 6a c9 e7 3d a1 85 03 3e
       -0.04775653 -0.14946263 0.113177136 0.12843944
000290 cd e2 03 3d 6c 41 cc 3d 36 8c 23 3e b2 71 c0 bc
       0.032198716 0.09973416 0.15971455 -0.023491714
0002a0 6c 3d 10 bd b1 1e 44 3d 53 23 b2 3d 75 4f ab 3d
       -0.035214826 0.047880832 0.08698144 0.083647646
0002b0 fc 75 8a bd a9 4a af bd e3 1b 52 3d 05 0b 03 3e
       -0.06760785 -0.08559162 0.051296126 0.12797172
0002c0 c2 23 50 3d c2 6e bf bd 84 6e ab 3d b4 79 d4 bc
       0.05081535 -0.09347297 0.083706886 -0.025936939
0002d0 61 6b c5 3d 66 2b cd 3c c8 cf 52 bd b7 9a e8 bc
       0.096396215 0.025045108 -0.051467687 -0.028394086
0002e0 e2 20 47 bd a2 73 ca 3d 8d 53 13 3c d3 59 06 be
       -0.048615344 0.098853365 0.008992088 -0.13120203
0002f0 2d 02 e3 3c 1a 47 95 3c 0c b2 cc 3d cc 75 e5 3c
       0.027710998 0.01822238 0.09994897 0.028010271
000300 c6 eb 8e bb 65 9c 96 3d 85 9b 05 3e 7a 5d 36 bc
       -0.0043616025 0.07354049 0.13047607 -0.011130685
000310 cc 70 69 bd 86 cc a7 bd eb 72 4f bd 69 cb 7b ba
       -0.056992337 -0.081933066 -0.050646704 -0.00096052006
000320 03 1f 6f 3d 00 14 d1 bc dd 39 b3 bc 84 55 ae bc
       0.058379184 -0.025522232 -0.021878177 -0.021281011
000330 db e0 af bc 73 57 20 bd 00 2b a8 3d 6b 6a 7e bd
       -0.021469524 -0.039145898 0.082113266 -0.062113207
000340 22 90 e4 bd dd f1 b4 3d bd c8 9e 3d 99 51 07 be
       -0.11160304 0.08835194 0.077531315 -0.13214721
000350 21 82 2e bd 0d a6 f4 3c c1 a7 1e bd 70 81 f5 bd
       -0.04260457 0.029864335 -0.0387342 -0.11987579
000360 8d e2 4f 3d a7 85 e0 3d 50 db c5 3d 07 85 d5 3d
       0.050753165 0.10962992 0.09660971 0.104257636
000370 32 ed a6 3d 66 ab 1a be 53 a6 61 3d 0e a2 0f be
       0.0815071 -0.15104446 0.05509026 -0.14026663
000380 39 3f 8b bd 49 0d 6b bd 59 7f 0b bd f0 e7 e9 bc
       -0.06799168 -0.057385717 -0.034056995 -0.02855298
000390 b2 1c 15 3a cd 83 f1 bc 2b 54 e0 3c d0 fc 16 3e
       0.0005688175 -0.029481793 0.027383884 0.14744878
0003a0 7d c1 2a bd 2a 9b 8f 3d 8f 71 b7 bd ea 4d 26 3c
       -0.04168843 0.07012017 -0.089572065 0.010150412
0003b0 9c 02 d7 3d fb b4 a0 3d 2b 89 1b 3d 58 bc b2 3c
       0.104985446 0.07847019 0.03797261 0.021818325
0003c0 cf 17 02 be 40 31 da 3d f6 08 c0 bd 0c 26 39 bd
       -0.12704395 0.10653925 -0.09376709 -0.0452023
0003d0 47 b0 a8 3d 40 fa eb 3d 59 40 c1 bb be ec 09 bd
       0.08236747 0.11522341 -0.0058975634 -0.03367304
0003e0 9a 3b cc bc 57 27 b3 3c f9 9f b2 bd 0f 70 06 3e
       -0.024930764 0.021869345 -0.087219186 0.13128684
0003f0 0d eb 65 bd c6 af cd 3c e1 a0 14 3d 46 de 10 be
       -0.056132365 0.02510823 0.03628624 -0.1414729

weights f4 [6, 1, 3, 1]
000000 20 89 82 3f 22 a2 7d 3f 62 71 48 bc 56 8c 83 3f
       1.0198097 0.9907552 -0.012234064 1.0277202
000010 c2 ce 7e 3f 45 db ad bb 64 67 80 3f 86 5d 7a 3f
       0.9953424 -0.00530568 1.0031552 0.97798955
000020 ed b9 76 3d 59 6e 79 3f 94 06 7e 3f ec d4 79 bc
       0.060235906 0.97434 0.9922879 -0.015248518
000030 99 48 81 3f a3 98 75 3f 22 4a e3 bb 13 9c 80 3f
       1.010028 0.9593603 -0.0069363276 1.004763
000040 fe 9b 7d 3f aa 60 90 bc
       0.9906615 -0.017624218

running_cov f4 [1, 6, 2, 2]
000000 0b 1a 9d 3f 12 2e e4 bd 12 2e e4 bd ba f5 a9 3f
       1.2273573 -0.111416 -0.111416 1.3278115
000010 dc 81 5d 3f d1 67 c0 3c d1 67 c0 3c 54 e5 35 3f
       0.86526275 0.023487004 0.023487004 0.7105305
000020 55 4f 8d 3f 62 ef a2 3d 62 ef a2 3d 06 fb 8c 3f
       1.1039835 0.07955815 0.07955815 1.1014106
000030 05 2f df 3f 16 42 37 bb 16 42 37 bb 73 ea ae 3f
       1.7436224 -0.0027962974 -0.0027962974 1.3665298
000040 1c 62 a9 3f 8a b1 40 be 8a b1 40 be b8 0d 6f 3f
       1.3233066 -0.18817726 -0.18817726 0.9338031
000050 16 6c 82 3f 5c 53 e5 bd 5c 53 e5 bd f4 f7 81 3f
       1.0189235 -0.1119754 -0.1119754 1.0153794

weight f4 [6, 6, 5]
000000 17 b4 2d be 0d 6c 64 be b7 b8 2c be 4e 1b 37 be
       -0.1696323 -0.22306843 -0.16867338 -0.1788151
000010 99 31 4f be 8c f4 df bd 2e be ae 3d ac 4d f8 ba
       -0.20233764 -0.109353155 0.08532368 -0.0018944046
000020 a4 82 e4 3d 7c 24 0e 3e 21 9c 07 be aa 7d 4d bd
       0.1115773 0.13881105 -0.13243152 -0.05016867
000030 f7 a0 aa bd 18 5b cc bd 9e 6b ae bd b1 64 f0 bd
       -0.08331483 -0.09978312 -0.0851662 -0.11737955
000040 0d 21 c2 3c 29 d0 b3 3d 2a 91 1a be d1 7f b3 3c
       0.0236974 0.08779938 -0.15094438 0.021911534
000050 1a 7e 89 bd be bb cd bc 4b cb e3 bd 35 24 3b 3e
       -0.06713505 -0.025113937 -0.111227594 0.1827553
000060 c1 47 80 3c df a5 a4 3c 61 93 50 3d 74 42 7a 3d
       0.015659215 0.020098625 0.0509218 0.06109853
000070 58 cf 13 3e 3b c9 24 3e 7f 61 ed 3d 0c 0a f5 3d
       0.14434564 0.16092388 0.115908615 0.11964807
000080 92 34 60 3d c3 e3 31 3e 83 64 96 3d 27 4b 3c be
       0.054737635 0.1737204 0.0734339 -0.18388043
000090 ef b4 7a bd d0 6d 86 3d 07 57 eb 3d 92 7d b2 3d
       -0.061207708 0.06563914 0.114912085 0.08715357
0000a0 b2 97 48 bd eb 5b 6d be 55 5e 93 bd 51 17 85 bd
       -0.048972793 -0.23179595 -0.07195727 -0.06498588
0000b0 39 79 23 ba d9 23 56 bd 7f 0e e8 3d 21 12 ae 3b
       -0.000623602 -0.05228028 0.1133089 0.0053122197
0000c0 ad 62 39 be d6 85 9e bd 7e 29 5c bd 0e cc a4 bd
       -0.18104048 -0.07740371 -0.053750508 -0.08046733
0000d0 d4 c3 ca 3d 5f 0e 29 3b 2d 23 6a bd 0e b4 e2 3d
       0.099006325 0.002579592 -0.057162452 0.11069499
0000e0 34 68 d2 bc 33 e5 ff bc 9d 92 67 bd 1b d2 74 3d
       -0.025684454 -0.03123722 -0.056536306 0.059770685
0000f0 3f ef 09 be f2 c5 40 3c 82 d9 a0 bd 00 25 16 3e
       -0.13470171 0.011765944 -0.07853986 0.14662552
000100 1d 5b 4e 3d b1 47 18 3d c5 ab f8 bd 0f aa a2 bb
       0.05037986 0.037177745 -0.121421374 -0.00496412
000110 4a d6 71 bd 9d f7 eb 3c 06 66 da bc a0 f2 70 bd
       -0.059042253 0.028804595 -0.026659977 -0.058825135
000120 01 e2 ee bc 3e 40 67 be 93 0f 68 3d aa 03 e9 3b
       -0.029160501 -0.225831 0.056655478 0.0071110325
000130 df 52 0b 3e 2d cd 7d bd 50 9b 65 3e 66 55 46 bc
       0.13605832 -0.06196325 0.22422528 -0.0121053215
000140 b4 65 00 bd bf 2c dd 3d 87 48 c1 bd b9 47 c1 3d
       -0.03134699 0.1079955 -0.094376616 0.09437508
000150 e3 04 2c 3e 04 95 6a bd b3 85 fe bc c5 89 1e 3e
       0.16798739 -0.05727102 -0.031069612 0.15482242
000160 47 a9 3d 3e e2 a2 f4 3d c5 6c 89 3d 70 4b 0f be
       0.18521605 0.1194513 0.06710199 -0.13993621
000170 21 ce dc 3d f1 c9 30 bc ad ec 35 3e 16 a5 f3 bd
       0.107815035 -0.010790334 0.17766066 -0.11896722
000180 a4 99 61 bd bf 50 11 3e bc 16 29 be c9 c2 e9 bc
       -0.055078164 0.14190958 -0.16512579 -0.028535264
000190 19 91 0a bc c1 cf 77 3e 40 15 8f 3e eb e8 14 3e
       -0.008457446 0.24200346 0.279459 0.14541976
0001a0 a7 b6 c7 3d df 7d 28 3e f9 13 b8 bd 73 6e a7 3d
       0.09751635 0.16454266 -0.089881845 0.081753634
0001b0 f5 ce ae 3d 81 12 e2 bc 36 dc cc bd 02 a6 0f be
       0.08535568 -0.027596714 -0.100029394 -0.1402817
0001c0 be a3 76 3d 9b 7c 4f 3d 31 ea cc 3d 57 ad 2c 3e
       0.06021475 0.050655942 0.10005606 0.16862999
0001d0 76 c7 03 3d cc 28 d8 bd 78 86 6c bd 0a 03 4e 3d
       0.032172643 -0.105546564 -0.057745427 0.050295867
0001e0 7f f6 e9 3d ca 29 1f be 42 63 05 be eb 43 2f be
       0.114239685 -0.15543285 -0.13026145 -0.17115752
0001f0 47 34 9b bd 1a c4 8f bd f9 65 20 3d 17 b5 1c 3e
       -0.075783305 -0.07019825 0.03915975 0.15303455
000200 e3 0e b1 bc 22 a4 90 bd 88 b1 52 3d 5a 4d a3 3c
       -0.021613544 -0.07062556 0.05143884 0.019934345
000210 53 d2 a8 3c b3 a8 37 3e 78 ab 24 bd 91 96 15 3e
       0.020608103 0.17935447 -0.040202588 0.14608218
000220 f2 0b 1b 3e 19 42 39 3d 7a c3 e5 3d 03 f4 40 be
       0.15141276 0.04522905 0.11218925 -0.18843083
000230 31 e3 54 3d ee 11 0f be 1d 12 06 3e e1 a4 0c be
       0.05197448 -0.13971683 0.13092847 -0.13734771
000240 a3 8a 01 be 16 c2 2d be fa 6b 58 bc 18 4d f0 3d
       -0.12650542 -0.16968569 -0.013209337 0.117334545
000250 3f 89 e9 bd 5e ef 1d bc 04 fc ef bd 8f 44 80 bc
       -0.11403131 -0.009639589 -0.1171799 -0.015657691
000260 c5 3c 5d bd 38 5b bc bd b4 b7 13 be 44 55 19 be
       -0.054013032 -0.09197086 -0.14425546 -0.14973933
000270 72 e4 29 3d e5 1f f4 3d 57 38 be 3c 7f e3 3c 3d
       0.041477628 0.11920146 0.023220224 0.046115395
000280 ad 38 3a be b0 71 a7 3d 65 82 c6 3d df bc 86 3d
       -0.18185683 0.08175981 0.096928395 0.06578993
000290 4c ee af bb cf 0b 2b 3e e9 61 5c 3d 8c 1d 04 3e
       -0.0053689834 0.16703723 0.053804312 0.12901896
0002a0 b9 f6 ed bd 53 6f 6f 3c 86 92 96 3d 81 48 32 3e
       -0.11619324 0.014613944 0.07352166 0.1741047
0002b0 3f 7c 1b bc 2b f6 91 3d 28 56 00 3e a0 03 04 be
       -0.009490072 0.07127031 0.12532866 -0.12892008
0002c0 df b7 46 be db 93 a2 3d 79 50 a9 bd a5 6e 7d bc
       -0.19406079 0.079383574 -0.08267302 -0.015468274

weight f4 [6, 6, 5]
000000 8d b3 66 3d 0a 78 eb bd f6 4b 03 be b7 04 36 3c
       0.056323577 -0.11497505 -0.12821946 0.011109523
000010 ff 3f 45 bd d4 92 41 3e 65 09 f2 bc 26 bc 41 be
       -0.048156735 0.18903667 -0.029545495 -0.18919429
000020 cf 58 b3 bc e6 4a f5 bc 4e 97 f7 bd 80 14 0c be
       -0.021892933 -0.02994294 -0.12089406 -0.13679695
000030 71 71 d6 bc 35 71 ed bd cd 91 58 bd d2 20 6b 3d
       -0.02617714 -0.11593858 -0.05287342 0.057404347
000040 48 5d 59 be 00 38 29 bd 83 9d 56 bd 18 9a b8 bd
       -0.2122699 -0.04131317 -0.05239631 -0.09013766
000050 0b 4a ce 3d f5 70 e0 3d b0 30 19 3e 0b ce 4b 3c
       0.10072716 0.10959045 0.14959979 0.012439261
000060 6d 48 48 be 20 7a a2 bd 04 f0 de bd 9f be 3c 3d
       -0.19558878 -0.0793345 -0.10885623 0.046080228
000070 18 6b ea bd 94 a5 33 be e5 78 3b 3b 1b 12 db 3c
       -0.11446208 -0.17543632 0.0028605994 0.026742032
000080 fa 71 06 3e 6e 96 ec 3d 94 ae d1 bc 63 f9 1e bd
       0.13129416 0.1155213 -0.02559594 -0.038812052
000090 d5 51 2a 3e 07 a1 86 3d 72 b3 44 be 66 70 13 be
       0.16632779 0.06573682 -0.19209078 -0.14398345
0000a0 bc 0e 56 3e 54 13 07 bd 3d 56 93 3d bd cb eb 3d
       0.20904058 -0.032977417 0.07194183 0.11513469
0000b0 bc b5 a4 bd ea 7b 22 be 43 b1 83 bd 10 c3 2d bd
       -0.080424756 -0.15867582 -0.06430294 -0.042422354
0000c0 81 cd a9 3b 31 e1 8d bd 3a a1 88 3d 75 0f 0c 3e
       0.0051819687 -0.069277175 0.066713765 0.13677771
0000d0 da 1e c7 bc 79 5f 1a 3e 10 ed 66 bd 35 41 56 bd
       -0.024306703 0.15075482 -0.056378424 -0.05230828
0000e0 d2 7b 88 3d aa d4 e9 3b 40 ca 9e 3d 07 0a 7c bd
       0.06664242 0.0071359472 0.0775342 -0.061533
0000f0 39 bf 86 bd 8d 66 18 3e b5 89 03 3d 0d 20 0a bd
       -0.065794416 0.1488287 0.03211375 -0.033721972
000100 4e 0e f5 3d 19 df 2d 3c 6b fd 23 be f5 29 06 3e
       0.11965619 0.010612273 -0.1601464 0.13101943
000110 02 ab 4f 3a 05 18 e0 3d b4 51 8a bd 22 2b 14 be
       0.00079219055 0.10942081 -0.06753865 -0.14469579
000120 b7 a7 08 3c af 30 d8 3c 8d 79 24 be 16 e0 01 be
       0.008340768 0.026390402 -0.16061993 -0.12683138
000130 3d af e2 39 34 ab 1c bd 15 c3 4d bd e4 75 73 3d
       0.00043236642 -0.03824921 -0.050234873 0.0594386
000140 1f 34 d1 3d fe 95 07 be e0 16 12 bb 35 c4 d4 bc
       0.102150194 -0.13240811 -0.0022291467 -0.025972465
000150 fc 72 f4 3c 96 44 95 3d 7c d1 fa 3c 25 95 de bd
       0.029839985 0.07288472 0.030617468 -0.10868291
000160 fd 24 74 3d 3c 0d 84 bc 34 30 0b 3d db 8b 8b bd
       0.059605587 -0.016119592 0.033981517 -0.06813785
000170 1e 99 c7 bc 37 fa e1 bd 38 5d 81 3d 26 65 24 3d
       -0.024365004 -0.11034053 0.06316608 0.040135525
000180 b3 0b 90 bc 11 b4 07 be dc 57 90 bc b7 3d e4 bd
       -0.017583704 -0.13252284 -0.01762002 -0.11144584
000190 59 48 05 3e 11 17 e9 3c 15 31 08 3e a0 f1 00 3e
       0.1301588 0.028453382 0.13299973 0.12592173
0001a0 71 c9 cd bc 33 dd 46 bd 90 ad bb bd 95 cd 98 3d
       -0.025120469 -0.048550796 -0.09163964 0.07461087
0001b0 bb 6e 17 3d c8 2f 12 3b 3d 51 71 3e e2 3f 35 3e
       0.036970835 0.0022306312 0.23566146 0.1770015
0001c0 42 a2 94 3d bb 62 c3 bd 0a 8b c4 bd 3d 31 19 3e
       0.07257511 -0.09540316 -0.09596832 0.14960189
0001d0 3a ea 78 3d 1d 27 c4 bc 8a e5 20 be bd 96 cf 3d
       0.06077025 -0.023944432 -0.15712562 0.10136173
0001e0 27 4b 16 be cc 44 56 bd c2 8f dd 3a 5f ac ba bc
       -0.14677106 -0.052311704 0.0016903805 -0.022787271
0001f0 9a a2 37 bd 42 8b 33 3d 85 fb 90 3c e6 16 33 3d
       -0.044832803 0.04383398 0.017698059 0.04372301
000200 2c 49 3e 3e e2 b4 44 3e 23 58 e7 3d a2 ed e1 bd
       0.185826 0.19209626 0.112961076 -0.11031653
000210 d3 91 0d 3d 3f 01 8b bc 97 dc 71 bd 53 35 ad bd
       0.034562897 -0.016968368 -0.05904826 -0.084574364
000220 50 ca 18 be 5d b2 e0 3d 5c e5 51 3d 1e a1 e0 bd
       -0.14920926 0.1097152 0.051244125 -0.10968231
000230 ea e6 30 be 93 bd eb bd ca b9 bc 3d 1e b7 a9 3d
       -0.17275587 -0.11510768 0.09215124 0.0828688
000240 c8 57 ea bd 33 49 27 be c2 c4 0a be b9 14 a2 3b
       -0.11442524 -0.16336517 -0.1355162 0.004946318
000250 0b 52 ce bd f5 a4 36 3c bf c8 21 3e 29 05 05 be
       -0.10074242 0.011147727 0.15799235 -0.1299025
000260 d7 04 7e 3d 3a 56 8b bd f7 54 cb bd 08 7c 1d bd
       0.062016334 -0.06803556 -0.09928315 -0.038448364
000270 e7 1a 33 be 23 a8 e8 3d 5a 9d 9c bd 36 3c 00 bb
       -0.17490731 0.113601945 -0.076472 -0.0019567139
000280 d0 86 2d 3d d6 05 f0 3d d6 12 69 be 40 e6 37 be
       0.042364895 0.11719863 -0.22761092 -0.17958927
000290 8b 78 59 be 0c 53 35 3e 70 c0 4d bd fe 4c d7 bd
       -0.2123739 0.17707461 -0.05023235 -0.10512732
0002a0 4c 12 34 3d 9c ac dd bd 71 9e 7a bd 15 c4 23 bd
       0.04396276 -0.10823938 -0.061186258 -0.03998192
0002b0 ed 4f 7c 3d 5a 7b 55 3e 57 b6 61 3e 12 c9 67 3d
       0.06159966 0.20847836 0.22042213 0.05658824
0002c0 c6 24 04 3e fe 9d a6 3c 8f ab 1a be a8 c1 23 3e
       0.12904653 0.020339008 -0.15104507 0.15991843

weights f4 [6, 1, 3, 1]
000000 a6 7f 81 3f 4c d4 7f 3f e3 af 62 bd 24 81 82 3f
       1.011708 0.99933314 -0.05534352 1.019566
000010 12 12 86 3f 09 ab c9 bd 02 e9 75 3f 0b d3 7e 3f
       1.0474265 -0.098470755 0.96058667 0.99540776
000020 d0 ad 25 3c 9b 30 7d 3f fc 25 84 3f bd 34 3e bd
       0.010112241 0.9890229 1.0324092 -0.046437014
000030 5f 44 83 3f 46 20 72 3f df 4f 80 bd 90 72 82 3f
       1.025524 0.94580495 -0.06265234 1.0191212
000040 44 22 7e 3f 83 3e 7b 3d
       0.99271035 0.061338913

running_cov f4 [1, 6, 2, 2]
000000 59 a1 5c 3f 2e bb a8 bd 2e bb a8 bd cd f1 45 3f
       0.86183697 -0.08238827 -0.08238827 0.77322084
000010 32 3c 98 3f 2c de 2e bc 2c de 2e bc 80 09 8c 3f
       1.189337 -0.010673087 -0.010673087 1.0940399
000020 c2 b9 d5 3f 6a 09 a7 bd 6a 09 a7 bd 56 79 bf 3f
       1.6697314 -0.081560925 -0.081560925 1.4958904
000030 78 ae 73 3f a2 2e 36 bc a2 2e 36 bc ac 85 81 3f
       0.95188093 -0.011119517 -0.011119517 1.0118918
000040 8a 50 ce 3f 32 b8 2f 3d 32 b8 2f 3d d2 f4 a3 3f
       1.6118329 0.04290027 0.04290027 1.2809088
000050 0e b9 a1 3f 8f 06 e2 bc 8f 06 e2 bc 3a 13 8b 3f
       1.2634599 -0.027591018 -0.027591018 1.0865242

weight f4 [6, 6, 3]
000000 ed 19 35 be 1b 8e 59 be 19 6b 05 3e 5a 9c 59 be
       -0.17685671 -0.21245615 0.13029136 -0.2125105
000010 ef 2a ef bd 11 5d 61 3e 29 dd d9 bc 7c 40 72 bd
       -0.11678111 0.22008158 -0.026594715 -0.05914353
000020 80 f8 68 3e 4c be 25 be 1e 85 a3 bd ce e6 e7 3d
       0.22751045 -0.16185874 -0.079843745 0.113233194
000030 9d 1e 21 3e a5 19 72 3d 01 67 f4 3d bf e5 d6 bd
       0.15734334 0.059106488 0.11933709 -0.10493039
000040 07 24 6d be b3 b8 44 3e ac a8 02 3e 04 ef fd 3d
       -0.23158275 0.19211082 0.12759656 0.12399104
000050 ab 9d 40 be bf e7 35 3e 05 a1 5e be 34 ef 57 be
       -0.18810146 0.17764185 -0.21741112 -0.21087343
000060 83 62 6e 3c 39 78 80 bc 8e 9e dc bd 73 d3 92 3d
       0.014549854 -0.015682327 -0.107724294 0.07169237
000070 51 9a c3 3b 63 7e de bd 7e dd bf 3b 98 47 81 bd
       0.0059693237 -0.1086395 0.0058552613 -0.063124835
000080 18 43 64 bd 2c 27 a4 bd 0b be a3 3d 4d ed 62 be
       -0.055728048 -0.08015284 0.07995232 -0.22160836
000090 76 1d 6f bd 06 e4 ce 3d 18 46 d1 3d 1c 06 0d be
       -0.058377706 0.10102086 0.102184474 -0.13771862
0000a0 43 41 82 bd b2 9c 87 3e eb 1e aa bd 3f c1 6b 3e
       -0.06360104 0.26486737 -0.083066784 0.23022936
0000b0 96 8c d4 3d 63 24 6b bd 76 44 d2 3d e1 ec 38 be
       0.10378377 -0.057407748 0.10266964 -0.18059112
0000c0 2d ab 16 3d 3b 6c a7 3d d4 a6 f8 bd a6 c1 41 3e
       0.03678434 0.0817494 -0.12141195 0.18921527
0000d0 41 af 5e 3e 69 37 a1 3c 52 ba 23 bd 1a 99 58 3e
       0.21746542 0.019679742 -0.03997261 0.21152154
0000e0 1f d7 53 be c4 38 ac 3c c7 b5 18 3d f4 c2 7f be
       -0.20687531 0.021023162 0.03728273 -0.24976712
0000f0 f1 f0 95 3e e3 08 1d 3e f9 22 ce 3d 39 b5 3c be
       0.29285386 0.15335421 0.10065264 -0.18428506
000100 74 67 24 be f6 f2 84 be 5e 7d 1c 39 28 ca 5d 3e
       -0.16055089 -0.25966614 0.00014924022 0.21659148
000110 87 9f 5c 3d 20 a0 a0 bd da 54 15 3d ed e3 05 3e
       0.053863075 -0.078430414 0.036457874 0.13075228
000120 32 27 70 3e 44 26 c5 3c ff 74 96 bd 1f b1 98 bd
       0.23452452 0.024066098 -0.07346534 -0.07455658
000130 cd 21 17 3e 46 d2 4f 3d 5a b6 44 3e 1e 77 54 be
       0.14758988 0.05073764 0.19210187 -0.20748565
000140 86 70 87 3d 76 ea 23 be 3d 78 a1 3d 5a 91 86 3d
       0.06613259 -0.16007408 0.07884262 0.06570692
000150 e4 80 1d 3e 96 9b 40 bd d4 2c 0f 3e da ec 57 3e
       0.15381199 -0.04702338 0.13981944 0.21086445
000160 bb 98 b2 bd 63 2f 3c 3e 15 88 16 be bd 14 4b 3c
       -0.08720537 0.18377452 -0.14700349 0.012395081
000170 19 51 8b be e4 9f 93 3b 15 56 be 3c b7 37 9f 3c
       -0.2721031 0.0045051444 0.023234406 0.019435747
000180 82 1c 0d be 87 d0 dd bc c5 07 9d bd e7 14 55 be
       -0.13780406 -0.027076973 -0.076674975 -0.20808755
000190 1f 0f ae 3c 10 14 b8 bd be 9c 8c 3c cb 3b 21 3e
       0.021247445 -0.089882016 0.017164584 0.15745465
0001a0 84 dc 17 3e e3 3e 0a be 4e 0f 39 be 33 fa 36 3e
       0.14830214 -0.13500552 -0.18072245 0.17868881

weight f4 [6, 6, 3]
000000 c2 d6 6b be 5f 36 47 3e a6 20 11 3e a5 90 04 be
       -0.23031142 0.19454335 0.1417261 -0.12945803
000010 bc 41 04 be d9 24 22 3d c8 83 79 be a1 0e 25 be
       -0.129157 0.039585922 -0.24366677 -0.16118862
000020 d0 32 f6 3d 2c 1a a5 bc 04 fd 3c 3c 66 be c0 bd
       0.120214105 -0.020154081 0.011534933 -0.094113156
000030 67 59 b3 bd f0 38 25 3e d9 0d 54 3e d1 da f3 3d
       -0.087572865 0.16135001 0.20708407 0.1190697
000040 83 14 fc 3d 73 37 b3 bd ad 97 69 3e a6 93 67 3e
       0.123086 -0.087508105 0.22811766 0.22614917
000050 06 60 be bd 0d 4b 5a 3e 7f d1 28 be 96 e3 a0 3d
       -0.09295659 0.21317692 -0.16486166 0.078559086
000060 9e ff 72 3e 3d 3b 32 3e 78 d0 9f bd 7d 85 3f bb
       0.23730323 0.1740541 -0.07803434 -0.0029223852
000070 34 16 ad 3d 8f bf b4 3c 9a 78 4e be 3c 19 85 3d
       0.084515005 0.022063999 -0.20163193 0.06498954
000080 e5 81 41 3c e5 45 c7 3c 1a 9c 0d 3e 44 77 b4 3d
       0.011810754 0.02432532 0.1382908 0.088118106
000090 de 3e 12 3e 64 59 98 bd 06 18 d1 bd d2 8f 73 be
       0.14281794 -0.07438925 -0.1020966 -0.23785332
0000a0 f5 46 2c be f0 20 4b be 39 76 16 3e b2 f6 de 3d
       -0.16823943 -0.19836783 0.14693536 0.10886897
0000b0 fc 28 69 3e ac 0c c6 bd 12 81 fb bd 9a 4d 2d 3e
       0.2276954 -0.09670386 -0.122804776 0.16924134
0000c0 69 52 a2 bc 3e da a3 bd 5d a5 c0 bd d6 8b 92 3d
       -0.019814687 -0.08000611 -0.094065405 0.07155578
0000d0 28 1a 83 bd 8d 76 fc 3d d5 00 3d 3c dd 81 b6 bd
       -0.06401473 0.12327299 0.011535843 -0.08911488
0000e0 4f f0 1a be 67 5e 34 3e f7 1e ac bc ce fd 3b 3e
       -0.15130733 0.17614137 -0.021010859 0.18358538
0000f0 0f 4f f4 3d af bc 6c be ae 4d 26 bc 82 94 64 bd
       0.11929142 -0.23118852 -0.010150356 -0.05580569
000100 eb 4a 45 3d 51 68 06 be ae 56 6a 3e 37 27 39 be
       0.04816715 -0.13125731 0.22884628 -0.18081366
000110 41 25 69 3e 0b 23 bf bc c1 53 20 be e6 94 1c 3c
       0.22768117 -0.02333214 -0.1565695 0.0095569845
000120 ae 60 4b be 6e d7 16 3e 04 dc 8c be 4b 4d a3 3d
       -0.19861099 0.14730617 -0.2751161 0.07973727
000130 57 dd 43 3e f4 44 a5 bd 7b cc 45 bd 88 65 28 3e
       0.19127403 -0.080697924 -0.04829071 0.16444981
000140 21 fb 45 be fa 69 42 3e c8 e1 24 3e 4e 96 31 be
       -0.1933408 0.1898574 0.16101754 -0.17342493
000150 14 20 44 be 1e eb cc 3d 01 08 ac 3d 09 0a 38 be
       -0.19152862 0.100057825 0.08399964 -0.17972578
000160 1c 7e 48 3b d8 9a 56 be 17 4d 0e 3e 3f a3 fd bd
       0.0030592745 -0.20957506 0.13896595 -0.12384652
000170 5a c8 f1 3d 2a 50 0f 3b 79 0a 08 3e ff 16 b4 3c
       0.11805792 0.002186785 0.13285245 0.021983622
000180 b6 ee 3b 3c b4 e0 12 bd 20 10 ef bd 45 10 c7 bd
       0.011470487 -0.035858825 -0.116729975 -0.097199
000190 9e f4 3b 3e 3a a4 78 bb dd 4f 21 be 10 e8 c7 bd
       0.18355033 -0.0037939684 -0.15753122 -0.09761059
0001a0 3f b1 28 3e 5c 07 9d 3c aa fb cd bd f5 d2 4c 3e
       0.16473864 0.019168548 -0.10057767 0.20002349

weights f4 [6, 1, 3, 1]
000000 72 67 83 3f 03 5f 85 3f 74 b4 4b 3c 3f 42 84 3f
       1.0265944 1.041962 0.01243316 1.0332717
000010 97 09 80 3f 8d f0 af bc 15 2d 79 3f 49 e4 77 3f
       1.0002927 -0.021477008 0.97334415 0.9683271
000020 66 b2 b1 3c 35 9e 84 3f 30 de 81 3f 94 f9 b4 3c
       0.021691512 1.0360781 1.0145931 0.022091664
000030 13 d7 78 3f 7d 0e 7f 3f 26 03 d4 3c d6 49 8b 3f
       0.9720318 0.9963148 0.025880408 1.0881908
000040 38 cf 7b 3f b0 31 16 3d
       0.98363066 0.03666848

running_cov f4 [1, 6, 2, 2]
000000 0a 36 d5 3f 88 2a 55 be 88 2a 55 be ae 9c eb 3f
       1.6657116 -0.20817006 -0.20817006 1.840719
000010 08 b5 ba 3f 04 a1 d2 bb 04 a1 d2 bb 06 2d 94 3f
       1.4586496 -0.006427886 -0.006427886 1.157624
000020 ff 95 78 3f 11 fd a7 bd 11 fd a7 bd ac 25 86 3f
       0.97103876 -0.082025655 -0.082025655 1.0480247
000030 17 43 82 3f 1c 43 0a 3e 1c 43 0a 3e 56 21 90 3f
       1.0176724 0.13502163 0.13502163 1.1260173
000040 30 ec d4 3f 68 77 93 3d 68 77 93 3d 80 ab ac 3f
       1.6634579 0.07200509 0.07200509 1.3489838
000050 9a 77 ba 3f 0e 08 84 3d 0e 08 84 3d a4 6c ae 3f
       1.456775 0.06446849 0.06446849 1.3626904

weight f4 [1, 6, 1]
000000 0b 8e 54 3e cf 91 d7 be 32 d7 c3 3d 8b 92 de 3d
       0.2075731 -0.4210343 0.095625296 0.108677946
000010 06 04 2c be 66 ed 04 be
       -0.1679841 -0.12981185

weight f4 [1, 6, 1]
000000 9d 8b 39 3e 63 c1 58 be 8f e9 67 be 5d 29 8a bd
       0.18119664 -0.21167521 -0.2264769 -0.06746171
000010 2e ad 99 bc 50 d0 0d 3e
       -0.018759336 0.13848996

weights f4 [1, 1, 3, 1]
000000 0c 31 88 3f 7d 5f 85 3f b4 18 81 bd
       1.0639968 1.0419766 -0.0630354

running_cov f4 [1, 1, 2, 2]
000000 ac 5b 81 3f 2e d1 47 3d 2e d1 47 3d 0b c2 6c 3f
       1.0106101 0.048783474 0.048783474 0.92483586

weight f4 [6, 6, 7]
000000 28 b4 9e 3d 39 5f 39 bd 92 5b 40 3d 75 75 d1 3d
       0.07749206 -0.045256827 0.04696233 0.10227481
000010 f7 79 73 3c c4 f2 24 3e 1b 1d 70 bd 39 82 82 be
       0.014860622 0.16108233 -0.058621507 -0.25489977
000020 26 ed 37 bd 66 fe 98 3d f6 88 b2 3d 21 aa ea bd
       -0.044903897 0.07470398 0.087175295 -0.11458231
000030 0a af 34 3e 06 8e 65 be eb 12 d0 3d ac e5 d0 3d
       0.17644897 -0.22417459 0.10159858 0.102000564
000040 64 19 4d 3e 60 b1 d6 bd 33 4c cf 3c 2c 7f 18 bd
       0.20029217 -0.1048305 0.02530489 -0.037230656
000050 74 eb 12 bc 0c 4a ae bd a3 18 34 be e6 6a a3 bd
       -0.008967269 -0.08510217 -0.17587523 -0.07979374
000060 13 73 d8 bd 9d 55 9e bd ad 17 e7 bc a8 97 16 be
       -0.10568824 -0.07731173 -0.028209532 -0.1470629
000070 d8 7f bc bd 30 2d 24 be 03 bd 1d be 59 65 6f 3d
       -0.09204072 -0.16032863 -0.15404133 0.058446262
000080 5b ce b2 3d 96 c4 1d bd 8b f7 5b bc 98 35 83 3d
       0.087307654 -0.038517557 -0.013425718 0.064067066
000090 c0 34 21 3e 00 b1 01 be 7f c4 e3 3b 7e d3 3f 3e
       0.15742779 -0.12665176 0.0069509144 0.18733022
0000a0 d7 ad 9b bd 24 ca a8 3d 71 67 01 3e 25 c9 9c bd
       -0.07601517 0.0824168 0.12637116 -0.07655553
0000b0 9e d4 94 3d 96 53 3b be 09 e1 2b be 11 db 95 3c
       0.07267116 -0.18293604 -0.16785063 0.018292936
0000c0 b1 e2 fe bd a6 27 93 bd 81 7e 3b be 60 77 97 bd
       -0.12445582 -0.07185297 -0.18309976 -0.07395816
0000d0 08 24 1b 3d 2a 8a 64 3d ad f0 42 3e 2a 36 e4 bc
       0.03787616 0.055795826 0.19037123 -0.027857859
0000e0 92 7d ac 3d 07 dd c4 3d a8 2d 1d be d4 f3 95 3c
       0.08422388 0.0961247 -0.15349448 0.018304743
0000f0 04 78 02 3e 16 f4 da bb 55 f2 3b be a9 39 5d 3d
       0.12741095 -0.0066819293 -0.18354161 0.054010067
000100 8a c4 a0 3d 40 8e 78 bd 45 61 ef bc a8 ec b4 bc
       0.07849987 -0.060682535 -0.029221186 -0.022085503
000110 27 ac 82 3d 1d e8 98 bd 48 88 2e 3e a6 18 df 3d
       0.06380492 -0.07466147 0.17044175 0.10893373
000120 89 00 c1 3b 19 a6 82 bc b1 e9 f2 3d 9e 07 05 be
       0.0058899564 -0.015948342 0.11860979 -0.12991187
000130 80 eb cf 3d dd a4 bc bc c0 f7 18 be 2c dc 3c bd
       0.1015234 -0.023027832 -0.14938259 -0.04610841
000140 5f d2 95 bd a8 28 84 3c fa 83 2e be 2a e9 c2 bd
       -0.07315516 0.016132668 -0.17042533 -0.09517129
000150 dc a4 9b 3c 74 69 09 3e 02 ab 82 bc 5e a9 2b 3c
       0.01899951 0.13419133 -0.015950684 0.010477392
000160 7d 6b c5 3d ad 94 2a be d1 be b9 bd c7 ff a9 3d
       0.096396424 -0.16658278 -0.090695985 0.08300739
000170 a9 49 f7 3d 6f 01 2d 3e 9b fc 07 bd be d9 87 3c
       0.120745964 0.16895078 -0.033199888 0.01658332
000180 59 6d 0e be d5 79 2a be 73 d0 65 3d 43 7e e2 bc
       -0.139089 -0.16648038 0.056106996 -0.027648097
000190 fc aa 95 3d cb 7d bb bc fb 04 bb bb 01 70 a8 3c
       0.07308003 -0.022887131 -0.005707381 0.02056122
0001a0 a4 b6 0a 3e 17 50 87 3d 33 9e 47 3d 25 f3 a1 bd
       0.13546234 0.06607073 0.048734855 -0.07907704
0001b0 fd 3e 2d be db 82 12 3e 17 6c 59 3d 9d 18 43 3d
       -0.1691856 0.1430773 0.053081598 0.047630895
0001c0 d2 a5 b2 3d 35 64 11 be a4 70 10 be a9 d9 15 be
       0.08723034 -0.14198382 -0.14105469 -0.14633812
0001d0 09 7e d4 bd d3 32 ac 3d 21 36 92 3d fb c4 dd 3d
       -0.10375602 0.084081315 0.071392305 0.10828587
0001e0 30 42 4e be e5 ed 14 3e 83 de 4c bc 51 94 24 3d
       -0.20142436 0.14543875 -0.012504223 0.040180508
0001f0 8b 3e 2a be fa 94 7e bd ee 4a 9c 3d d1 d0 25 bd
       -0.16625421 -0.062153794 0.07631479 -0.040482346
000200 77 1e c5 3d 21 b9 2f be 1b 61 99 3a 49 7b e4 bd
       0.09624951 -0.17160465 0.0011701913 -0.11156327
000210 79 19 69 3d bf 1c 64 3e 65 d2 82 bd d6 ec 0b be
       0.05690906 0.22276591 -0.06387786 -0.13664564
000220 ba 0c bf 3c 6c cf 62 3d ed 43 83 bd 5c 57 27 3e
       0.023321498 0.055373594 -0.0640944 0.16341919
000230 22 1a 7d be 74 39 86 bb 02 7e 59 3d 12 c5 2b 3e
       -0.24717 -0.0040962044 0.053098686 0.16774395
000240 37 06 cb 3d 88 cb cf 3d d4 8c 17 3e cf c2 6b bb
       0.09913295 0.101462424 0.14799815 -0.003597427
000250 69 ea 90 bd 8e ea 60 bd 2d 89 13 be 24 d3 3d 3c
       -0.0707596 -0.05491119 -0.14407797 0.011585984
000260 c9 54 d3 3d 01 5c 9e bc 3c 05 95 bd 09 bd 4a 3d
       0.10318906 -0.01933098 -0.07276389 0.049496684
000270 60 6f 0c 3e 73 5f 79 3d f0 76 23 bd 45 e9 3d 3d
       0.13714361 0.060882043 -0.03990835 0.04636504
000280 71 50 09 bc d5 05 b5 bd 46 7a ae bd 89 2b 05 3c
       -0.008380995 -0.08839003 -0.085194156 0.008128055
000290 c8 38 0f bd d8 77 43 bd 33 a7 3c 3c 7a db 44 be
       -0.03496626 -0.047721714 0.011514473 -0.19224349
0002a0 f5 67 2b bd 38 be 27 be 8c e3 f9 3c db c3 ad 3d
       -0.041847188 -0.16381156 0.03050401 0.08484622
0002b0 4b 5b 90 3d 7a 7b 98 be df 70 86 bd 12 03 76 bd
       0.07048663 -0.29781705 -0.06564497 -0.06006152
0002c0 bf 7b 05 3e c9 85 02 be 94 93 47 3e 5e 26 ba 3d
       0.13035487 -0.12746347 0.1948989 0.09089349
0002d0 19 01 80 bc b6 17 87 3d 78 87 5c 3e 3e cf 19 be
       -0.015625523 0.065963194 0.21536052 -0.15020463
0002e0 2c 4d ee bd df 67 e5 bd 1e 17 9b 3c a4 b5 e0 3d
       -0.11635813 -0.112014525 0.018931922 0.10972145
0002f0 c6 53 b9 3d 02 e6 82 bd 7c 27 0b be 40 02 0e be
       0.09049182 -0.06391527 -0.13589281 -0.13868046
000300 53 aa ec bd b0 bc 38 bd 9a a8 05 bb e8 1e ea 3c
       -0.11555924 -0.04510182 -0.0020394684 0.02857919
000310 0d 13 48 bd e1 95 a7 bd 75 74 26 bd 6c 91 b0 3d
       -0.048846293 -0.08182884 -0.040638406 0.08621487
000320 d2 44 27 3d 0a ad 1e 3d fa 61 b0 3c df a8 a9 3c
       0.040837117 0.03873924 0.021531094 0.020710407
000330 c4 01 07 be 48 a1 30 bd 99 22 a2 3c 9d 98 fa bd
       -0.13184267 -0.04312256 0.019791888 -0.1223614
000340 71 61 f0 bd 1e 9e b0 bd cc f6 24 bd c8 12 17 3e
       -0.117373355 -0.086239085 -0.040274426 0.14753258
000350 2b c4 27 be 2f 3a 28 3d 89 0e 05 be f6 f2 33 bd
       -0.16383426 0.041071113 -0.12993826 -0.043932877
000360 90 ed 0a bd 79 96 c3 3d b5 2c 15 be 7e 5a 49 bd
       -0.033917964 0.09550185 -0.14567836 -0.049158566
000370 d0 27 ce bd ba da 24 3d f6 f4 b3 bc f6 61 5b bd
       -0.100661874 0.040247656 -0.021967392 -0.05356022
000380 f6 86 90 3d 99 95 96 3d 15 b4 5b bd 99 78 4b be
       0.07056992 0.07352752 -0.053638536 -0.19870223
000390 d3 87 ff bd 0a a7 bf bd 81 bc 33 3e 90 2d 0e 3e
       -0.12477078 -0.09358032 0.17552377 0.13884568
0003a0 3d 51 65 be da 30 34 be bd 23 96 3d 2e c0 01 3b
       -0.22394271 -0.1759676 0.07331035 0.0019798386
0003b0 10 4b 12 be 92 1a fb b9 93 0a 37 3d ab e2 62 bc
       -0.14286447 -0.00047894247 0.04468782 -0.013847987
0003c0 f1 fa 97 3d 76 50 de bd 6f c7 f2 bb 99 c2 d5 bd
       0.0742091 -0.108551905 -0.0074090282 -0.10437507
0003d0 65 df fd 3c b1 23 c4 3c 0c cd f4 bc 99 af 8f 3b
       0.030990312 0.0239428 -0.02988293 0.0043849465
0003e0 6b df 15 be a3 d3 fe 3c 0f 50 32 be 9f e3 bc b9
       -0.14636008 0.031106776 -0.17413352 -0.00036027745
