Homography_Trained_Model/E2EMP_UL2_40.pth (torch, 885388 bytes, 291 tensors)

weight f4 [1, 1, 1, 7]
-0.158748 -0.29462564 -0.0319507 -0.21366747 -0.21613507 0.34585682 0.3243296
00000000: d68e 22be 2cd9 96be bdde 02bd a5cb 5abe
00000010: 8352 5dbe 2514 b13e 880e a63e

weight f4 [1, 1, 1, 7]
0.3710329 0.022145862 0.0054286397 0.2644869 0.3643112 0.13382669 0.45047992
00000000: 06f8 bd3e 3d6b b53c bbe2 b13b d46a 873e
00000010: ff86 ba3e dd09 093e 4ea5 e63e

weight f4 [1, 3]
1.2969677 1.5100174 0.097127676
00000000: 0a03 a63f 4048 c13f e0ea c63d

bias f4 [1, 2]
0.08853085 0.053399708
00000000: aa4f b53d a7b9 5a3d

running_covar f4 [1, 3]
0.014933007 0.023167219 -0.0020196533
00000000: 92a9 743c 2ec9 bd3c 295c 04bb

weight f4 [1, 1, 5, 1]
0.22487174 -0.5360122 0.42783055 0.12085103 0.10484499
00000000: c744 663e 1838 09bf 9b0c db3e bf80 f73d
00000010: f8b8 d63d

weight f4 [1, 1, 5, 1]
0.055774152 -0.18242708 -0.4193416 0.26489526 0.24147266
00000000: 7073 643d 2ace 3abe f1b3 d6be 5aa0 873e
00000010: 9c44 773e

weight f4 [1, 3]
1.4296664 1.4871659 0.02866416
00000000: 4fff b63f 745b be3f 1ad1 ea3c

bias f4 [1, 2]
0.061856993 0.11157913
00000000: c25d 7d3d 9983 e43d

running_covar f4 [1, 3]
0.46901104 0.3975383 0.08403525
00000000: 3722 f03e 248a cb3e ac1a ac3d

weight f4 [1, 1, 5, 1]
-0.037070435 0.3310503 0.007618376 -0.3490615 0.42875662
00000000: 2bd7 17bd 6d7f a93e 92a3 f93b 30b8 b2be
00000010: fd85 db3e

weight f4 [1, 1, 5, 1]
-0.38269973 -0.11597285 -0.41711518 0.10566471 -0.031882793
00000000: 38f1 c3be 2c83 edbd 1f90 d5be bd66 d83d
00000010: 8897 02bd

weight f4 [1, 3]
1.3616848 1.4687592 0.032366518
00000000: b04b ae3f 4d00 bc3f c192 043d

bias f4 [1, 2]
-0.026725495 0.042066596
00000000: 6def dabc 064e 2c3d

running_covar f4 [1, 3]
0.00994174 0.0061735017 -0.00095408264
00000000: aee2 223c 164b ca3b 671b 7aba

weight f4 [1, 1, 1, 7]
-0.1609802 -0.32807907 0.13980472 0.02547427 0.028608501 0.31506982 -0.27097547
00000000: fed7 24be fbf9 a7be f828 0f3e 6baf d03c
00000010: 605c ea3c d550 a13e 4cbd 8abe

weight f4 [1, 1, 1, 7]
-0.045173578 0.29351008 0.12362578 -0.022812158 -0.24334568 -0.15624957 0.039153382
00000000: ee07 39bd f446 963e 832f fd3d 90e0 babc
00000010: 9c2f 79be e3ff 1fbe 4c5f 203d

weight f4 [1, 3]
1.4334798 1.4273875 -0.045746114
00000000: 447c b73f a2b4 b63f 4760 3bbd

bias f4 [1, 2]
-0.022368444 -0.022237064
00000000: 073e b7bc 812a b6bc

running_covar f4 [1, 3]
0.067914404 0.09453531 0.010137168
00000000: b516 8b3d bb9b c13d 5d16 263c

weight f4 [1, 1, 3, 3]
0.3265632 -0.267962 0.20916218 0.01741415 0.3398362 0.19017905 0.15703692 -0.14852908
0.22621587
00000000: 4b33 a73e 5132 89be 9c2e 563e 1fa8 8e3c
00000010: 03ff ad3e 4cbe 423e 49ce 203e 0218 18be
00000020: 22a5 673e

weight f4 [1, 1, 3, 3]
0.07995679 -0.016487205 0.15341172 -0.14484864 -0.11809063 -0.034602284 -0.26079804 -0.33891863
0.03122778
00000000: 63c0 a33d 2d10 87bc f617 1d3e 3453 14be
00000010: 80d9 f1bd 20bb 0dbd 5287 85be be86 adbe
00000020: 67d1 ff3c

weight f4 [1, 3]
1.3880562 1.4390935 0.034821004
00000000: d3ab b13f 3734 b83f 78a0 0e3d

bias f4 [1, 2]
0.019066414 -0.055826034
00000000: 2b31 9c3c d7a9 64bd

running_covar f4 [1, 3]
0.008425304 0.0053514885 -8.9428555e-05
00000000: 490a 0a3c 8a5b af3b 978b bbb8

weight f4 [1, 1, 3, 3]
-0.2969668 -0.095542654 0.03626745 0.14377037 -0.2679958 -0.03104197 -0.29530945 0.3168273
0.22174224
00000000: 080c 98be deab c3bd 2d8d 143d 8a38 133e
00000010: bf36 89be bb4b febc cd32 97be 3037 a23e
00000020: 6610 633e

weight f4 [1, 1, 3, 3]
0.23556203 -0.019400807 -0.1049877 0.2532048 0.27259395 -0.06252251 -0.14800772 -0.12241732
-0.035688
00000000: 2c37 713e 71ee 9ebc cb03 d7bd 0fa4 813e
00000010: 6f91 8b3e cd0b 80bd 568f 17be efb5 fabd
00000020: 952d 12bd

weight f4 [1, 3]
1.336824 1.3629324 -0.026454363
00000000: 0d1d ab3f 9274 ae3f d2b6 d8bc

bias f4 [1, 2]
-0.083716564 0.08307402
00000000: 9773 abbd b622 aa3d

running_covar f4 [1, 3]
0.12079266 0.056507315 0.050248135
00000000: 2462 f73d 3774 673d fdd0 4d3d

weight f4 [1, 1, 1, 7]
-0.071564026 0.36849344 0.31896344 0.3583355 -0.24693653 -0.31210074 0.3508367
00000000: 2990 92bd 2cab bc3e 2d4f a33e c077 b73e
00000010: eedc 7cbe abcb 9fbe dea0 b33e

weight f4 [1, 1, 1, 7]
-0.15362322 -0.24101727 0.20225744 0.2367166 0.14271697 -0.02031522 -0.1039764
00000000: 684f 1dbe 3bcd 76be 931c 4f3e d665 723e
00000010: 6624 123e 1b6c a6bc 94f1 d4bd

weight f4 [1, 3]
1.3644363 1.4636531 -0.0022614147
00000000: d9a5 ae3f fc58 bb3f 3e34 14bb

bias f4 [1, 2]
-0.043013226 0.100716546
00000000: a32e 30bd 7a44 ce3d

running_covar f4 [1, 3]
0.0053269793 0.001358473 0.0015377819
00000000: f18d ae3b ca0e b23a 668f c93a

weight f4 [1, 1, 5, 1]
-0.1408803 -0.2961126 0.14868824 -0.36935157 0.1336359
00000000: ed42 10be 129c 97be bb41 183e a61b bdbe
00000010: d9d7 083e

weight f4 [1, 1, 5, 1]
-0.38537437 0.30128795 0.06844472 0.33147886 -0.036029253
00000000: ca4f c5be 6a42 9a3e bf2c 8c3d 99b7 a93e
00000010: 6993 13bd

weight f4 [1, 3]
1.3835157 1.3704821 0.0767798
00000000: 0b17 b13f f56b af3f ba3e 9d3d

bias f4 [1, 2]
-0.013250224 -0.044676993
00000000: 7817 59bc 39ff 36bd

running_covar f4 [1, 3]
0.13025494 0.33047336 0.17550834
00000000: 8d61 053e ce33 a93e 75b8 333e

weight f4 [1, 1, 5, 1]
0.14327946 -0.38161877 0.13972414 -0.29510075 0.38137406
00000000: dab7 123e 8963 c3be d813 0f3e 7217 97be
00000010: 7643 c33e

weight f4 [1, 1, 5, 1]
-0.40698102 -0.2182563 0.20795457 0.20987567 -0.044812668
00000000: d15f d0be 947e 5fbe 0bf2 543e a6e9 563e
00000010: 7d8d 37bd

weight f4 [1, 3]
1.4051405 1.423625 -0.017855097
00000000: a5db b33f 5839 b63f da44 92bc

bias f4 [1, 2]
-0.042095892 0.02459726
00000000: be6c 2cbd 3180 c93c

running_covar f4 [1, 3]
0.004618233 0.0076915515 -0.0026100017
00000000: 8c54 973b 6909 fc3b 900c 2bbb

weight f4 [1, 1, 1, 7]
-0.1853777 0.0039224043 -0.20994411 0.13872528 0.32836735 -0.0371695 0.03610935
00000000: a7d3 3dbe 8387 803b 97fb 56be 000e 0e3e
00000010: c41f a83e 0c3f 18bd 66e7 133d

weight f4 [1, 1, 1, 7]
0.3087537 0.15406595 -0.32791167 -0.01113066 0.10560769 0.262246 -0.20864484
00000000: f714 9e3e 77c3 1d3e 0ae4 a7be 5f5d 36bc
00000010: d848 d83d 1c45 863e fea6 55be

weight f4 [1, 3]
1.3834983 1.3911818 -0.017182708
00000000: 7916 b13f 3f12 b23f c0c2 8cbc

bias f4 [1, 2]
-0.01074753 -0.010364788
00000000: 6816 30bc 12d1 29bc

running_covar f4 [1, 3]
0.112023994 0.015944215 -0.021856716
00000000: d66c e53d 719d 823c db0c b3bc

weight f4 [1, 1, 3, 3]
0.050335933 -0.309085 -0.17579626 -0.049121812 -0.19104403 -0.2296285 -0.0935912 0.10179779
-0.013503504
00000000: 0d2d 4e3d 6440 9ebe ef03 34be f433 49bd
00000010: 0ca1 43be bc23 6bbe beac bfbd 5c7b d03d
00000020: cd3d 5dbc

weight f4 [1, 1, 3, 3]
-0.30697393 0.24740769 0.1869574 0.2232642 -0.016156098 -0.014426058 0.078804776 0.09923027
-0.09288561
00000000: b02b 9dbe 7158 7d3e c371 3f3e 5f9f 643e
00000010: cb59 84bc 465b 6cbc 6664 a13d 3d39 cb3d
00000020: d03a bebd

weight f4 [1, 3]
1.44342 1.3842593 -0.067149825
00000000: fdc1 b83f 692f b13f d985 89bd

bias f4 [1, 2]
0.041616082 0.0070921034
00000000: a075 2a3d e064 e83b

running_covar f4 [1, 3]
0.0034319758 0.0012209675 0.0018701161
00000000: 00eb 603b df08 a03a af1e f53a

weight f4 [1, 1, 3, 3]
0.259047 0.090381026 -0.10181091 -0.059706494 0.024146605 0.29502586 -0.14516433 -0.30193096
0.11299155
00000000: cfa1 843e b019 b93d 3d82 d0bd cc8e 74bd
00000010: 1acf c53c a10d 973e f5a5 14be b296 9abe
00000020: 1d68 e73d

weight f4 [1, 1, 3, 3]
0.080736324 -0.26494932 0.055192832 -0.06126844 -0.010486524 -0.05574142 -0.11468418 0.008738961
-0.07492269
00000000: 1659 a53d 70a7 87be e111 623d 9ef4 7abd
00000010: abcf 2bbc 1d51 64bd 8adf eabd dc2d 0f3c
00000020: 1171 99bd

weight f4 [1, 3]
1.328232 1.3620746 0.007260829
00000000: 8203 aa3f 7658 ae3f 40ec ed3b

bias f4 [1, 2]
-0.047541045 0.007933827
00000000: 66ba 42bd e2fc 013c

running_covar f4 [1, 3]
0.3311271 0.13356966 -0.00077292824
00000000: 7e89 a93e 7cc6 083e 569e 4aba

weight f4 [6, 6, 9]
-0.00053349097 0.052115664 0.02808958 0.05322111 0.15145524 0.073623516 -0.059656918 -0.051751684
0.12072292 0.08500443 -0.10307286 0.028815472 0.069985986 -0.09030931 0.032560717 -0.08792916
0.14619327 0.13457137 -0.10038457 -0.15545216 -0.1048216 0.09130886 0.06507337 0.070197016
-0.104121976 -0.031164262 -0.0016407011 -0.06589709 0.10981555 0.022969866 0.048485827 0.12303763
-0.08190978 -0.12886415 -0.018930104 0.10088314 -0.0009928207 -0.04656304 -0.055479307 -0.037648797
-0.012130457 0.09004498 0.109692164 -0.17405334 -0.15467739 -0.045831796 0.12424745 -0.09522159
0.03267871 0.04839705 -0.025604358 -0.123061344 0.09862636 -0.03355692 -0.16354685 0.0518079
0.03570212 0.009585351 -0.035653643 0.0019124169 -0.08671065 0.03072843 0.07232552 0.18970814
0.074931495 0.058936145 -0.030137641 -0.15823828 -0.00443119 5.373234e-06 -0.017817842 -0.07524182
-0.10847059 0.023725228 0.015463188 -0.049114212 -0.061455116 0.055769973 -0.04085603 -0.11788825
-0.06517906 0.08757574 0.10905485 -0.036789633 0.105206065 -0.025802877 -0.048456945 0.0881278
-0.0064796903 0.08610156 0.043178376 -0.09175791 -0.08651376 0.037487358 -0.00945974 0.08115111
-0.07858401 0.09720115 -0.09021433 -0.11772279 -0.11348349 -0.09456958 -0.1348859 0.0030131547
0.015332401 -0.008879724 -0.14210504 0.08257612 -0.014592954 -0.013814034 0.11514307 -0.022779556
-0.03940453 0.043918464 0.16734138 -0.03381787 0.12883322 -0.036646802 -0.07785338 0.14990391
-0.076528594 0.050033245 0.017524296 -0.019678187 0.108516164 -0.025537634 0.07966878 -0.047200195
0.05426922 0.08823854 -0.13395077 -0.15023491 0.028292557 -0.009644711 0.051442627 -0.13703388
0.050497383 -0.056882497 -0.1318018 -0.04743119 -0.028231163 0.014403453 -0.16081725 0.061897613
0.06809599 0.05620542 0.06495533 -0.008863105 -0.07787703 0.04573686 -0.06852683 -0.0496439
0.033484887 -0.11159322 0.020267159 0.033939287 0.0751787 -0.06552977 -0.050800703 0.049047757
0.10359399 -0.025555799 0.060871534 -0.013777903 -0.07298972 -0.026791625 -0.06282579 0.117674924
0.037170563 0.17197621 0.120396875 0.04769892 0.0074320324 -0.05617757 0.14356443 0.09991585
0.059732113 0.017691273 0.03207996 0.03871332 0.07907191 -0.14193659 -0.093843855 0.00045260863
-0.084157094 -0.012894056 -0.02610874 0.011461581 -0.022646636 0.059632238 -0.10215864 -0.08252214
-0.06928841 -0.06185646 -0.014475306 -0.15288474 0.12329604 -0.09711832 -0.048058134 -0.024060836
0.020840194 0.11464551 0.041641522 -0.025678614 0.002239867 -0.057538807 -0.07229888 -0.09120112
-0.024179598 -0.034022503 0.056990463 0.05180926 -0.14318441 0.076073855 -0.07675939 -0.03653776
-0.13121414 -0.21852459 -0.19064768 -0.07051043 0.010158277 0.07899318 -0.055792492 -0.2084666
-0.072461635 -0.10305693 -0.112534285 -0.017035168 0.05732789 0.012024809 0.033404045 -0.11204276
0.072792634 -0.105238885 0.04212043 -0.02325469 0.004685501 0.041237034 -0.09811546 -0.11026355
0.013413439 -0.067242 0.106801316 -0.04260599 -0.059268713 0.020825842 0.040097963 -0.04158552
-0.05504689 0.09433279 -0.092974626 0.012732564 -0.12146014 0.04896889 0.11370798 0.0065441467
00000000: f9d9 0bba 3c77 553d 1e1c e63c 61fe 593d
00000010: 1517 1b3e edc7 963d d05a 74bd 93f9 53bd
00000020: 943d f73d cd16 ae3d dd17 d3bd 6d0e ec3c
00000030: d054 8f3d 16f4 b8bd 635e 053d 3414 b4bd
00000040: b0b3 153e 14cd 093e 6d96 cdbd da2e 1fbe
00000050: b5ac d6bd 2400 bb3d 3045 853d 74c3 8f3d
00000060: e73d d5bd 324c ffbc cb0c d7ba 0ef5 86bd
00000070: fae6 e03d 4d2b bc3c 1399 463d 27fb fb3d
00000080: 51c0 a7bd f7f4 03be 4e13 9bbc d29b ce3d
00000090: 8921 82ba e3b8 3ebd 453e 63bd a035 1abd
000000a0: d3be 46bc 8169 b83d 49a6 e03d 0a3b 32be
000000b0: c063 1ebe 1fba 3bbd 7275 fe3d 8903 c3bd
000000c0: 1cda 053d fc3b 463d 3bc0 d1bc 9607 fcbd
000000d0: 9efc c93d fb72 09bd d378 27be 8534 543d
000000e0: 633c 123d e00b 1d3c 8e09 12bd 10aa fa3a
000000f0: 5a95 b1bd 30ba fb3c 671f 943d da42 423e
00000100: af75 993d 0767 713d 37e3 f6bc 3709 22be
00000110: 8433 91bb bb4b b436 b9f6 91bc 6218 9abd
00000120: d425 debd 695b c23c 5059 7d3c fc2b 49bd
00000130: 5cb8 7bbd 0e6f 643d a758 27bd 656f f1bd
00000140: 997c 85bd e95a b33d 2658 df3d bab0 16bd
00000150: 4776 d73d 8e60 d3bc ca7a 46bd 597c b43d
00000160: 9553 d4bb 0456 b03d cfdb 303d 92eb bbbd
00000170: 202e b1bd 588c 193d 06fd 1abc 8e32 a63d
00000180: a7f0 a0bd 6611 c73d 4ac2 b8bd a518 f1bd
00000190: 086a e8bd b2ad c1bd 881f 0abe 5978 453b
000001a0: c034 7b3c 437c 11bc fc83 11be ab1d a93d
000001b0: 4917 6fbc 4254 62bc 21d0 eb3d 319c babc
000001c0: a566 21bd d9e3 333d 8a5b 2b3e 9b84 0abd
000001d0: dbec 033e f51a 16bd 9871 9fbd 6980 193e
000001e0: 06bb 9cbd a9ef 4c3d 1d8f 8f3c 2634 a1bc
000001f0: b93d de3d 4d34 d1bc 6329 a33d fe54 41bd
00000200: 6749 5e3d 68b6 b43d 642a 09be 2ed7 19be
00000210: cbc5 e73c da04 1ebc 81b5 523d 9c52 0cbe
00000220: 58d6 4e3d 9ffd 68bd 0df7 06be 3547 42bd
00000230: 0a45 e7bc 76fc 6b3c 47ad 24be 5a88 7d3d
00000240: e975 8b3d a837 663d 4d07 853d 8f36 11bc
00000250: fe7d 9fbd 9356 3b3d cb57 8cbd 6757 4bbd
00000260: 7327 093d fc8a e4bd 5007 a63c ec03 0b3d
00000270: 4af7 993d 7934 86bd 6614 50bd 4de6 483d
00000280: 1629 d43d 655a d1bc 6e54 793d b7bc 61bc
00000290: a27b 95bd 1c7a dbbc cfaa 80bd 8dff f03d
000002a0: 2940 183d 881a 303e a392 f63d f15f 433d
000002b0: 6888 f33b 741a 66bd 8e02 133e aea0 cc3d
000002c0: a9a9 743d 4aed 903c 4766 033d dc91 1e3d
000002d0: 74f0 a13d d357 11be 3531 c0bd 1a4c ed39
000002e0: 8e5a acbd 9741 53bc ffe1 d5bc 5bc9 3b3c
000002f0: 7085 b9bc ef40 743d 8d38 d1bd 5e01 a9bd
00000300: 15e7 8dbd 335d 7dbd d529 6dbc d18d 1cbe
00000310: a282 fc3d f8e5 c6bd 9bd8 44bd 3b1b c5bc
00000320: 0eb9 aa3c 44cb ea3d 4d90 2a3d f55b d2bc
00000330: bcca 123b d0ad 6bbd 6f11 94bd a7c7 babd
00000340: 4b14 c6bc 2e5b 0bbd d56e 693d f235 543d
00000350: ef9e 12be 9ccc 9b3d 0734 9dbd 9ea8 15bd
00000360: 005d 06be e9c4 5fbe 2539 43be c667 90bd
00000370: e76e 263c 2dc7 a13d ab86 64bd 4578 55be
00000380: c466 94bd 830f d3bd 6078 e6bd 568d 8bbc
00000390: a6d0 6a3d b403 453c aed2 083d ad76 e5bd
000003a0: 4e14 953d 7c87 d7bd 7986 2c3d 9f80 bebc
000003b0: d588 993b 2ae8 283d c2f0 c8bd dbd1 e1bd
000003c0: 0ac4 5b3c 2cb6 89bd a6ba da3d 9e83 2ebd
000003d0: c0c3 72bd f59a aa3c c33d 243d 9455 2abd
000003e0: d978 61bd 8d31 c13d 7b69 bebd 3e9c 503c
000003f0: 18c0 f8bd 9a93 483d bbdf e83d 4870 d63b

weight f4 [6, 6, 9]
-0.07205803 -0.002670893 0.09370891 -0.06156769 -0.1406447 -0.12181267 -0.10489886 -0.015382609
-0.09524363 0.11309166 -0.07550494 0.044056468 -0.05283574 -0.052302565 0.12250415 0.043394532
-0.031311117 -0.108457565 -0.09964535 -0.13716255 0.054936424 0.09083597 0.048024625 0.09492872
-0.016405022 -0.10617618 -0.10509889 -0.03114503 -0.059658013 -0.03219521 0.055942062 0.08473843
0.054458566 -0.07603473 -0.081429616 -0.0058131954 0.048292074 -0.08086734 0.09233823 -0.12955248
0.022597402 -0.08518253 -0.08091688 0.09531698 -0.04158652 0.017547717 -0.030078642 -0.03312269
-0.049828053 0.054591093 0.037610285 -0.087187774 -0.12291943 0.0747269 -0.064933866 0.026787946
-0.04458859 0.059449647 -0.020470574 -0.025184285 -0.06326242 -0.009675653 0.061437104 0.088946536
-0.02168801 0.08124646 -0.06796986 -0.047566887 -0.0030933316 0.062325552 0.03109445 -0.023506766
0.032701984 -0.16903502 0.01807138 -0.18250786 -0.117196545 -0.039155103 -0.09710076 -0.03917071
0.06873359 -0.07666591 -0.19783583 0.005934899 -0.14687759 -0.11592177 -0.119089685 0.09355227
-0.043890733 -0.11858794 0.05925047 0.08963162 0.03180131 -0.10953955 0.055224914 0.10612946
0.13141331 0.035404623 0.015639836 0.07900928 -0.022949977 0.0047768834 0.06340764 0.06944175
0.022896001 0.117577866 -0.03230132 0.024229154 -0.028676659 -0.16393355 -0.08482258 -0.077927135
0.06188052 0.044982474 0.08794164 0.14105311 -0.0045651975 0.055690933 -0.1274816 -0.112941384
-0.12037601 0.0788899 -0.068155095 -0.08425909 -0.008455828 -0.14729932 0.123251475 0.005607687
0.09746981 0.07208216 -0.015924618 -0.004386392 0.03806991 -0.08374912 -0.011617325 0.04472145
-0.10689581 0.0032549538 0.12720516 -0.11075777 -0.11517076 -0.0262626 0.01775387 0.0062098904
0.021389863 -0.04819455 0.09935476 -0.07513046 -0.009069749 0.0854816 -0.018535063 0.19270766
0.07156066 0.07622766 -0.06818412 -0.15253353 -0.001455691 -0.019179078 0.1003239 0.064236246
0.06630624 -0.047218304 0.04902115 -0.05937804 0.117982626 0.045328353 0.14470915 0.062672056
0.14988253 0.15907744 -0.061449897 -0.075826816 -0.048628274 0.09359454 0.056742325 -0.10374641
0.04043568 0.018324325 -0.07270353 0.020298576 0.07827855 0.12599619 -0.01122437 -0.06995554
-0.07760643 -0.07983825 0.03071041 -0.040421035 0.10412308 -0.15477657 0.04743271 0.0070654876
-0.16843219 0.042320535 -0.09861287 -0.10256764 -0.12673545 -0.024893686 0.14105438 0.09329504
0.025517313 0.03381845 -0.088745 -0.062411107 0.13913159 0.09243395 0.11153678 -0.12394437
-0.1521915 0.07292318 -0.09616159 -0.13097347 0.06671905 0.0126230065 -0.07266407 0.057228886
-0.08967722 0.061094385 0.129184 -0.10788853 -0.075207874 0.100404635 0.042736985 -0.13370173
-0.0827806 -0.01641248 -0.03110986 0.11309276 -0.08114924 0.06509491 0.062530205 -0.058764387
0.04047955 -0.13533142 0.093199976 0.14355105 -0.09949405 -0.03691557 0.034529664 0.06419843
-0.015175211 0.024677968 -0.061177276 0.11920052 -0.048843816 0.0033111917 -0.098505214 0.101931036
0.099551156 0.08104842 0.022960404 0.037488915 0.06381806 -0.027525445 0.13349141 0.10204991
00000000: 2993 93bd 260a 2fbb 75ea bf3d 672e 7cbd
00000010: 2a05 10be ec78 f9bd 37d5 d6bd 5707 7cbc
00000020: 180f c3bd 9a9c e73d 55a2 9abd 8e74 343d
00000030: 4a6a 58bd 373b 56bd 75e3 fa3d 77be 313d
00000040: 1640 00bd 001f debd dc12 ccbd 5774 0cbe
00000050: 0405 613d 3608 ba3d 78b5 443d fd69 c23d
00000060: d363 86bc e672 d9bd 163e d7bd dd23 ffbc
00000070: f65b 74bd 20df 03bd 8123 653d 588b ad3d
00000080: f20f 5f3d 19b8 9bbd 92c4 a6bd 9e7c bebb
00000090: e9cd 453d c79d a5bd d31b bd3d 68a9 04be
000000a0: 301e b93c 2e74 aebd c0b7 a5bd 8c35 c33d
000000b0: a056 2abd 3bc0 8f3c 7c67 f6bc a8ab 07bd
000000c0: 8018 4cbd e99a 5f3d 3e0d 1a3d 818f b2bd
000000d0: 2fbd fbbd 6b0a 993d 0cfc 84bd 6572 db3c
000000e0: 86a2 36bd 7981 733d e8b1 a7bc 464f cebc
000000f0: ba8f 81bd a186 1ebc 79a5 7b3d 9a29 b63d
00000100: 0eab b1bc 8b64 a63d c833 8bbd 7fd5 42bd
00000110: 7eb9 4abb 1449 7f3d cab9 fe3c 4391 c0bc
00000120: 84f2 053d 8417 2dbe 6e0a 943c 57e3 3abe
00000130: be04 f0bd 1a61 20bd c3dc c6bd 7771 20bd
00000140: 32c4 8c3d 0403 9dbd 7a95 4abe 8b79 c23b
00000150: 1467 16be 6568 edbd 4be5 f3bd 5598 bf3d
00000160: c5c6 33bd 3cde f2bd 9fb0 723d c890 b73d
00000170: 1742 023d 4656 e0bd 8533 623d 675a d93d
00000180: 3691 063e 7004 113d 1d1f 803c 9ecf a13d
00000190: 9701 bcbc 6787 9c3b dddb 813d 7a37 8e3d
000001a0: 6590 bb3c aacc f03d 644e 04bd 387c c63c
000001b0: 50eb eabc 32de 27be 76b7 adbd 4398 9fbd
000001c0: 6e76 7d3d 8b3f 383d bf1a b43d 3a70 103e
000001d0: a797 95bb 2d1c 643d 898a 02be d04d e7bd
000001e0: b387 f6bd 0791 a13d e694 8bbd 0890 acbd
000001f0: 508a 0abc a2d5 16be 456b fc3d b0c0 b73b
00000200: 409e c73d d09f 933d 5874 82bc b9bb 8fbb
00000210: 32ef 1b3d a984 abbd 9856 3ebc d72d 373d
00000220: 31ec dabd 1051 553b 1242 023e f8d4 e2bd
00000230: a6de ebbd aa24 d7bc 9070 913c 567c cb3b
00000240: cb39 af3c a667 45bd 827a cb3d 00de 99bd
00000250: 4999 14bc fa10 af3d d8d6 97bc 2855 453e
00000260: 658e 923d 3f1d 9c3d 1ea4 8bbd c031 1cbe
00000270: e2cc beba 711d 9dbc 9e76 cd3d 4b8e 833d
00000280: 91cb 873d fb67 41bd 67ca 483d 6336 73bd
00000290: e0a0 f13d 39aa 393d a32e 143e 355a 803d
000002a0: ce7a 193e 32e5 223e e3b2 7bbd 174b 9bbd
000002b0: 712e 47bd 7fae bf3d a46a 683d ff78 d4bd
000002c0: e29f 253d e51c 963c 97e5 94bd 3349 a63c
000002d0: 8150 a03d 2505 013e 6ce6 37bc da44 8fbd
000002e0: 1ff0 9ebd 3d82 a3bd 6694 fb3c 8790 25bd
000002f0: 7b3e d53d c07d 1ebe cd48 423d 9b85 e73b
00000300: 7d79 2cbe 4c58 2d3d 8bf5 c9bd fc0e d2bd
00000310: f0c6 01be d8ed cbbc 8f70 103e 7811 bf3d
00000320: af09 d13c 3785 0a3d f0bf b5bd caa2 7fbd
00000330: 8378 0e3e 034e bd3d 656d e43d 8cd6 fdbd
00000340: 17d8 1bbe c058 953d 5ef0 c4bd e91d 06be
00000350: ffa3 883d bad0 4e3c e6d0 94bd d668 6a3d
00000360: b1a8 b7bd 1b3e 7a3d cf48 043e a9f4 dcbd
00000370: 9606 9abd f2a0 cd3d fa0c 2f3d 1be9 08be
00000380: e088 a9bd 7773 86bc 1bda febc 2d9d e73d
00000390: 9331 a6bd 7b50 853d d60f 803d edb2 70bd
000003a0: e2cd 253d 5294 0abe a1df be3d 0cff 123e
000003b0: 89c3 cbbd c834 17bd fa6e 0d3d 777a 833d
000003c0: 73a1 78bc 7329 ca3c 0695 7abd 671f f43d
000003d0: 7410 48bd 9400 593b 1abd c9bd 38c1 d03d
000003e0: 7ae1 cb3d b7fc a53d 7517 bc3c fa8d 193d
000003f0: 0bb3 823d 0b7d e1bc f9b1 083e 8bff d03d

weights f4 [6, 1, 3, 1]
0.9715247 1.0448548 0.011351741 0.98052907 1.0148923 -0.009154367 1.05785 1.0313945
0.10286578 1.0196539 0.9752065 -0.016851973 0.99925566 0.99658173 -0.00038407024 0.9986085
0.9989114 -0.012134045
00000000: d8b5 783f cdbd 853f a7fc 393c f403 7b3f
00000010: fee7 813f 33fc 15bc a167 873f bc04 843f
00000020: 4bab d23d 0584 823f 22a7 793f 260d 8abc
00000030: 38cf 7f3f fb1f 7f3f 095d c9b9 cfa4 7f3f
00000040: a8b8 7f3f e0cd 46bc

running_cov f4 [1, 6, 2, 2]
1.4101782 0.058816135 0.058816135 1.5771288 1.1906871 0.20569777 0.20569777 1.6638354
1.4268897 -0.0066000163 -0.0066000163 1.3464426 1.1290474 0.008586116 0.008586116 1.1278244
1.1695428 -0.05983761 -0.05983761 1.0273273 1.3451661 -0.14507484 -0.14507484 1.2889075
00000000: b880 b43f 30e9 703d 30e9 703d 5bdf c93f
00000010: 6f68 983f 70a2 523e 70a2 523e 8ff8 d43f
00000020: 52a4 b63f f344 d8bb f344 d8bb 3b58 ac3f
00000030: a084 903f c8ac 0c3c c8ac 0c3c 8d5c 903f
00000040: 94b3 953f 4818 75bd 4818 75bd 767f 833f
00000050: 672e ac3f 808e 14be 808e 14be ecfa a43f

weight f4 [6, 6, 5]
0.02219697 -0.05690287 -0.0559646 -0.035966653 0.116944514 -0.14430764 0.020040011 0.055223797
-0.02770393 -0.008647134 0.1080217 0.020826954 -0.15802085 -0.16664453 -0.17572716 0.14168523
-0.10330801 0.055160373 -0.15649419 0.16804336 -0.088699214 0.0852848 0.13291803 0.061548356
-0.15937541 -0.088856675 -0.028157322 -0.02818349 -0.08352931 -0.20368332 -0.19800903 0.08966096
-0.063782476 0.088703275 -0.1492887 -0.10785953 0.011599791 -0.18337698 0.043810986 0.16380785
0.09343924 -0.0033170776 0.07724569 0.040252037 -0.108110294 -0.0393223 0.18343598 0.1446908
0.02613167 -0.15807942 0.119522646 0.074910566 -0.15853119 -0.10291858 0.07321203 -0.14983214
0.08797142 -0.026879553 -0.09519037 0.012295966 0.18535069 0.050902788 0.0055659083 0.1265099
0.06613856 -0.039928246 -0.097095735 0.07701414 0.142678 -0.081060745 0.08114522 0.11213
0.0768072 -0.18639854 -0.11917817 -0.19973318 0.07576592 -0.10854353 0.06406546 0.15066358
-0.015300749 0.011751046 0.036425743 0.036423713 -0.059341725 -0.022249032 -0.14800292 0.13785021
0.098955415 0.16284396 -0.06334287 -0.047774978 0.02197092 -0.012422286 -0.0523529 0.07845279
0.13147938 -0.13059056 -0.045962106 -0.043131094 -0.10528446 0.038229242 0.1088993 0.19053763
0.09098696 0.14007096 -0.18333079 -0.105660245 0.058354113 -0.012178467 0.16893713 0.12623073
-0.07678836 -0.11668927 0.13409102 -0.12274998 0.00603681 0.13047366 0.09176151 -0.05553604
0.08228854 -0.109140515 -0.0041881083 0.15474476 0.08076971 -0.20599152 0.14127922 -0.092747405
-0.10586454 -0.11047146 -0.01094279 0.02817857 0.059400395 0.15961121 -0.12228116 -0.1466858
-0.0407961 0.13873854 -0.15953341 0.08757161 0.13305484 0.20420624 -0.055276543 0.12361332
-0.0015443744 -0.1059745 0.023577213 0.13153712 -0.04999014 -0.047578048 0.019255169 -0.19979005
-0.13299192 -0.11115859 -0.15092854 0.052964654 -0.1843211 0.01359238 -0.13139614 0.11615988
0.18347637 -0.059880905 -0.07502947 -0.042313576 0.017977385 -0.0470169 -0.06295975 0.16016304
-0.026775159 0.11073962 0.15252241 -0.15438037 0.11362345 0.02639001 0.1479311 0.03751099
0.075260416 -0.07456365 -0.10518058 0.106865086
00000000: 6cd6 b53c fc12 69bd 233b 65bd c551 13bd
00000010: 9b80 ef3d 62c5 13be f32a a43c 5932 623d
00000020: 5af3 e2bc b5ac 0dbc 7b3a dd3d 4a9d aa3c
00000030: 38d0 21be dda4 2abe d2f1 33be ef15 113e
00000040: 2693 d3bd d8ef 613d 0340 20be 8f13 2c3e
00000050: efa7 b5bd cca9 ae3d aa1b 083e 211a 7c3d
00000060: 4f33 23be 7dfa b5bd 2faa e6bc 10e1 e6bc
00000070: 6a11 abbd 5c92 50be e1c2 4abe 2aa0 b73d
00000080: 63a0 82bd 10aa b53d 23df 18be 75e5 dcbd
00000090: 0d0d 3e3c 2dc7 3bbe 2673 333d 3fbd 273e
000000a0: 125d bf3d 5463 59bb fd32 9e3d 52df 243d
000000b0: ee68 ddbd 6c10 21bd a4d6 3b3e d329 143e
000000c0: 1612 d63c 92df 21be 4ac8 f43d b66a 993d
000000d0: 0056 22be fac6 d2bd 30f0 953d 996d 19be
000000e0: 5c2a b43d 8232 dcbc 2bf3 c2bd 0575 493c
000000f0: 92cc 3d3e 717f 503d 3962 b63b d08b 013e
00000100: a773 873d cd8b 23bd 21da c6bd 97b9 9d3d
00000110: 2e1a 123e 2d03 a6bd 772f a63d 6aa4 e53d
00000120: 184d 9d3d 42df 3ebe af13 f4bd db86 4cbe
00000130: 2a2b 9b3d 124c debd c034 833d 8e47 1a3e
00000140: feaf 7abc 7687 403c 2933 153d 0831 153d
00000150: 4f10 73bd 9a43 b6bc 148e 17be 9b28 0d3e
00000160: 23a9 ca3d 91c0 263e e8b9 81bd b2af 43bd
00000170: 5cfc b33c d886 4bbc ff6f 56bd dbab a03d
00000180: 88a2 063e 88b9 05be c342 3cbd 3baa 30bd
00000190: 619f d7bd 4496 1c3d 9906 df3d 4c1c 433e
000001a0: 5f57 ba3d c36e 0f3e 11bb 3bbe 6664 d8bd
000001b0: b904 6f3d 3188 47bc dbfd 2c3e a142 013e
000001c0: 3743 9dbd c9fa eebd 284f 093e 5764 fbbd
000001d0: 6fd0 c53b e39a 053e 75ed bb3d c279 63bd
000001e0: e586 a83d 1085 dfbd 663c 89bb 6975 1e3e
000001f0: 976a a53d 71ef 52be 80ab 103e 5af2 bdbd
00000200: 82cf d8bd dc3e e2bd 6349 33bc bfd6 e63c
00000210: d44d 733d 1f71 233e 8b6e fabd cd34 16be
00000220: d019 27bd 7a11 0e3e ba5c 23be bf58 b33d
00000230: 873f 083e 711b 513e a869 62bd fb28 fd3d
00000240: 9b6c caba 2909 d9bd 0025 c13c abb1 063e
00000250: 76c2 4cbd 33e1 42bd 04bd 9d3c c395 4cbe
00000260: 092f 08be 1da7 e3bd 038d 1abe 77f1 583d
00000270: acbe 3cbe 93b2 5e3c b68c 06be 3be5 ed3d
00000280: 3be1 3b3e ae45 75bd 0da9 99bd 0051 2dbd
00000290: 4f45 933c cb94 40bd 0bf1 80bd c801 243e
000002a0: 9457 dbbc 74cb e23d d62e 1c3e e315 1ebe
000002b0: 69b3 e83d dd2f d83c 407b 173e 20a5 193d
000002c0: 2222 9a3d d4b4 98bd ea68 d7bd 15dc da3d

weight f4 [6, 6, 5]
0.14518817 0.14798358 0.06303215 -0.17153537 0.10613383 0.103032574 -0.011165706 -0.11036259
-0.17826305 0.024762232 -0.096838154 0.06261161 -0.151041 -0.12222496 0.17413275 -0.12304599
-0.08187093 -0.090021014 -0.09788065 0.062827036 0.18846487 0.17690235 0.15642282 -0.1460974
-0.02634815 -0.09088208 0.08054386 0.13399391 0.10250814 -0.15351534 0.009026224 -0.0036160762
0.14732395 -0.052347977 0.09436859 -0.101023786 -0.107310526 -0.16964906 0.075893454 0.11248527
-0.063378334 -0.085837476 -0.07770625 -0.18962158 -0.17350902 0.0029723572 0.0015525528 0.0051497896
0.08574036 0.105178684 0.14224455 -0.07041773 0.07685755 0.1597045 0.0119125275 0.043669216
-0.07454603 -0.1179488 0.16855554 -0.026091 0.08752575 0.08518008 -0.029331617 -0.11099849
-0.17592512 -0.056170955 -0.18474121 -0.101844795 -0.0935405 -0.15418641 0.1419195 -0.039421983
0.09573348 -0.019315394 -0.1310817 0.1450647 0.1547191 -0.13058172 -0.040868428 -0.08419178
0.10573979 -0.099245094 -0.038295034 0.16458116 -0.13441244 -0.04357451 -0.080703154 0.07315649
-0.174255 0.114995845 0.08288952 0.17844625 0.07756724 0.0012422883 0.14303838 -0.13128121
0.01099971 0.0007248863 -0.025658086 -0.033591043 -0.103378646 0.018969923 0.07334628 -0.14719748
-0.12705272 -0.008887655 0.108407915 -0.11924175 -0.112373754 -0.11713105 0.10454729 -0.019766396
0.0688923 0.02855397 -0.15608105 -0.07515479 0.060380913 -0.13715564 0.058840472 -0.1222367
-0.18665504 0.1421454 -0.13956605 -0.18571836 -0.04729767 0.1779583 0.016967086 0.15387766
0.07341081 -0.2015589 -0.039796267 0.14892001 -0.03017123 0.112308964 -0.02022493 0.023173252
0.024697822 0.11272744 0.04041432 0.107089855 -0.12977402 -0.0811636 -0.048088115 -0.011883057
-0.10673035 0.16546032 -0.01628573 0.17189208 -0.12526992 0.043421537 -0.078215234 0.1585444
0.07701619 0.11990956 0.1009648 -0.012691102 0.06572859 -0.15937902 -0.12143952 -0.060255278
-0.19993828 0.13474567 -0.0010961988 0.1166901 -0.01784121 0.02676649 -0.054473337 0.004926368
0.06526871 -0.20199788 0.14375997 0.06484652 -0.08499998 -0.1643439 -0.1093279 -0.12264092
-0.04497471 -0.09392876 0.019684862 0.008523003
00000000: 35ac 143e 0289 173e 0017 813d f8a6 2fbe
00000010: b25c d93d be02 d33d 5ef0 36bc c805 e2bd
00000020: 978a 36be 2ada ca3c 1553 c6bd 843a 803d
00000030: 7eaa 1abe 1451 fabd db4f 323e 89ff fbbd
00000040: f2ab a7bd f05c b8bd a675 c8bd 76ab 803d
00000050: effc 403e e425 353e 4e2d 203e 8f9a 15be
00000060: 13d8 d7bc 6220 babd 2ef4 a43d b335 093e
00000070: caef d13d 2033 1dbe bae2 133c b1fb 6cbb
00000080: 17dc 163e d56a 56bd 5244 c13d 8fe5 cebd
00000090: 9fc5 dbbd 7cb8 2dbe 076e 9b3d ad5e e63d
000000a0: 80cc 81bd 8fcb afbd 7424 9fbd 292c 42be
000000b0: 59ac 31be e1cb 423b 077f cb3a 91bf a83b
000000c0: a498 af3d ec67 d73d 8ea8 113e 2c37 90bd
000000d0: 7e67 9d3d 9489 233e c32c 433c 7ede 323d
000000e0: 97ab 98bd 248f f1bd d399 2c3e cbbc d5bc
000000f0: b340 b33d e572 ae3d dc48 f0bc 2d53 e3bd
00000100: b725 34be 8413 66bd cd2c 3dbe 0194 d0bd
00000110: 2992 bfbd 0be3 1dbe 5853 113e f278 21bd
00000120: ea0f c43d 513b 9ebc 483a 06be d78b 143e
00000130: af6e 1e3e 37b7 05be a765 27bd bd6c acbd
00000140: 1a8e d83d 0341 cbbd 41db 1cbd f787 283e
00000150: 6aa3 09be 2f7b 32bd b247 a5bd 12d3 953d
00000160: e76f 32be f182 eb3d fbc1 a93d 9dba 363e
00000170: 93db 9e3d 47d4 a23a a778 123e 956e 06be
00000180: 2138 343c 4c06 3e3a e830 d2bc c396 09bd
00000190: 2fb8 d3bd d066 9b3c 9336 963d f0ba 16be
000001a0: 1c1a 02be 879d 11bc f804 de3d 0535 f4bd
000001b0: 3624 e6bd 67e2 efbd e41c d63d 23ed a1bc
000001c0: 6817 8d3d 04ea e93c b6d3 1fbe c1ea 99bd
000001d0: fa51 773d 8772 0cbe b502 713d 3c57 fabd
000001e0: 8022 3fbe 908e 113e 67ea 0ebe f42c 3ebe
000001f0: 34bb 41bd b33a 363e 8ffe 8a3c 1b92 1d3e
00000200: 6858 963d 7565 4ebe 6901 23bd 7d7e 183e
00000210: a829 f7bc 3e02 e63d c1ae a5bc d5d5 bd3c
00000220: 1653 ca3c a5dd e63d 7c89 253d ed51 db3d
00000230: 7be3 04be 1a39 a6bd 0bf8 44bd 27b1 42bc
00000240: 7195 dabd 6e6e 293e a769 85bc 7a04 303e
00000250: c246 00be c8da 313d 4f2f a0bd 7759 223e
00000260: aaba 9d3d 2593 f53d a2c6 ce3d 57ee 4fbc
00000270: b69c 863d 4134 23be 48b5 f8bd 3dce 76bd
00000280: 9fbc 4cbe c5fa 093e 54ae 8fba 38fb ee3d
00000290: bb27 92bc 6645 db3c 6f1f 5fbd 5f6d a13b
000002a0: 9aab 853d 88d8 4ebe d035 133e 41ce 843d
000002b0: 7814 aebd c449 28be 4ee7 dfbd 2a2b fbbd
000002c0: 6737 38bd b95d c0bd 2642 a13c 11a4 0b3c

weights f4 [6, 1, 3, 1]
0.98695093 1.017519 0.06023802 1.024722 0.96236473 0.015207139 1.0041606 1.0310168
0.037746537 1.0047408 0.9956655 -0.011738863 0.99322844 0.98606145 -0.036527008 1.0283214
1.029551 0.0013491452
00000000: d1a8 7c3f 103e 823f 24bc 763d 172a 833f
00000010: 895d 763f 5d27 793c 5688 803f 5cf8 833f
00000020: 1d9c 1a3d 599b 803f efe3 7e3f 5c54 40bc
00000030: 3844 7e3f 866e 7c3f 589d 15bd 09a0 833f
00000040: 54c8 833f cdd5 b03a

running_cov f4 [1, 6, 2, 2]
1.1828985 0.21949384 0.21949384 1.6950341 1.2394962 -0.113090664 -0.113090664 1.9713244
1.5678453 -0.12885351 -0.12885351 1.3945307 1.5770338 -0.04080638 -0.04080638 1.448039
1.2769203 -0.008645142 -0.008645142 1.227492 1.3189955 -0.062127355 -0.062127355 1.5463147
00000000: 3869 973f fec2 603e fec2 603e e1f6 d83f
00000010: d0a7 9e3f 149c e7bd 149c e7bd 5c54 fc3f
00000020: 28af c83f 2df2 03be 2df2 03be fb7f b23f
00000030: 3edc c93f 9724 27bd 9724 27bd 5859 b93f
00000040: 2072 a33f 5ba4 0dbc 5ba4 0dbc 751e 9d3f
00000050: d8d4 a83f 4179 7ebd 4179 7ebd a4ed c53f

weight f4 [6, 6, 3]
0.026405627 0.28050756 -0.04836419 -0.069312185 -0.053580772 0.06254648 0.086393274 0.029334256
0.13530621 -0.16641739 -0.17448057 0.044743728 -0.19666152 0.19849235 0.15210816 -0.111002035
0.15743323 0.2124094 -0.1432616 0.19379793 0.17317466 -0.05185521 -0.17028956 0.12701243
0.10431707 0.12511578 0.15457577 -0.1432489 -0.042601425 0.27731797 -0.21012205 0.083643116
0.024959018 0.11796937 -0.026543112 0.20408061 -0.030052155 0.030271126 -0.038513537 -0.20419952
0.15430993 -0.15054356 0.12415878 -0.32830447 -0.09089412 -0.11204174 0.162669 0.09508299
0.09122811 0.002905547 0.23083024 -0.21151641 -0.19616513 0.061087478 -0.17217556 0.23071651
-0.13357663 0.18693103 -0.09443533 -0.01427323 0.0033023548 -0.047363993 -0.20733207 0.12181616
0.10454777 -2.953344e-05 0.012120921 0.23542197 -0.058123857 -0.02670828 0.13725157 -0.022251535
-0.26002213 0.12625341 -0.15543652 -0.058870126 -0.011054727 0.021656157 0.0805104 0.10352755
0.2170903 0.20977052 0.030597748 0.002858643 0.09714892 -0.12055106 0.13444439 -0.07792001
-0.24027514 -0.20006165 0.011912577 -0.09177316 -0.23114927 -0.29873303 -0.1147468 0.025564684
0.062596604 -0.0502792 -0.20526119 -0.057440877 0.04879566 -0.06600315 -0.17069615 -0.1241333
0.13532715 -0.145674 0.03481779 0.08540512
00000000: 9d50 d83c b09e 8f3e 8719 46bd 8cf3 8dbd
00000010: 8377 5bbd 5e18 803d f5ee b03d 654e f03c
00000020: b68d 0a3e 5269 2abe 09ab 32be 3345 373d
00000030: a361 49be 9441 4b3e 3ec2 1b3e 0955 e3bd
00000040: 2d36 213e da81 593e 2bb3 12be f772 463e
00000050: b354 313e 2166 54bd 6360 2ebe 8c0f 023e
00000060: 30a4 d53d 5a1e 003e 1c49 1e3e d7af 12be
00000070: d57e 2ebd 9ffc 8d3e 3c2a 57be 154d ab3d
00000080: db76 cc3c ed99 f13d f170 d9bc 82fa 503e
00000090: f02f f6bc 27fb f73c 5fc0 1dbd ae19 51be
000000a0: 6c03 1e3e 1728 1abe f546 fe3d 8617 a8be
000000b0: b226 babd 2476 e5bd b492 263e dfba c23d
000000c0: ced5 ba3d fd6a 3e3b c35e 6c3e c297 58be
000000d0: 83df 48be dd36 7a3d ca4e 30be f340 6c3e
000000e0: 50c8 08be d96a 3f3e 4f67 c1bd 44da 69bc
000000f0: 526c 583b bf00 42bd dc4e 54be c07a f93d
00000100: 241d d63d 94be f7b7 d496 463c 7512 713e
00000110: 4813 6ebd 53cb dabc ad8b 0c3e da48 b6bc
00000120: 9f21 85be 9348 013e c02a 1fbe cd21 71bd
00000130: e31e 35bc 4168 b13c a3e2 a43d 4106 d43d
00000140: eb4c 5e3e 15ce 563e 21a8 fa3c 1258 3b3b
00000150: 03f6 c63d 79e3 f6bd caab 093e 8794 9fbd
00000160: b00a 76be f6dc 4cbe f82c 433c 91f3 bbbd
00000170: 65b2 6cbe 89f3 98be 5f00 ebbd 076d d13c
00000180: a632 803d 90f1 4dbd fd2f 52be 2047 6bbd
00000190: f5dd 473d a92c 87bd f9ca 2ebe 9939 febd
000001a0: 3393 0a3e 912b 15be 199d 0e3d e1e8 ae3d

weight f4 [6, 6, 3]
0.053659867 0.0002927537 -0.18188259 -0.04925997 -0.23836315 0.077646844 -0.06663814 0.05218989
0.19371608 0.10674284 -0.08448921 -0.2130607 0.044495907 -0.058775246 0.035276864 -0.00881214
0.069395214 -0.007059444 0.10364831 -0.17525883 0.13175738 0.16503392 0.15177138 -0.13822654
-0.10089323 -0.06411491 0.027343387 -0.055397388 -0.11707001 -0.04010684 0.1938593 -0.16213794
-0.18250093 -0.25093228 -0.06032357 -0.1687107 -0.30533072 0.040778253 -0.15643652 0.1677284
-0.22924855 -0.05041451 -0.13273636 0.066251814 -0.180198 0.13500816 0.029664453 -0.21862832
-0.101875864 0.24750954 -0.13119437 -0.0007410127 -0.031711623 0.12371022 0.18023828 0.17748603
0.25040445 0.16357915 0.11255097 0.1960061 -0.09620558 0.011576498 0.029505393 -0.007567609
-0.10625246 0.061911415 0.103835754 -0.15197387 0.08415483 0.20279874 -0.07305632 0.22194122
0.16614133 -0.11345707 0.0471971 -0.050621297 -0.007588988 0.012474892 0.11255544 -0.17745897
0.088905565 0.072151296 -0.061131943 -0.026285876 -0.18250597 -0.04360132 -0.14640275 0.0777816
-0.049244378 -0.0005114367 -0.10856869 0.011632043 0.0373962 -0.09124746 0.078306995 0.059954535
0.2389921 0.07384186 0.0153066395 -0.031172771 0.14478491 0.04727055 -0.13317151 0.13142316
0.15955544 0.006714667 -0.044959288 -0.14420494
00000000: 73ca 5b3d bd7c 9939 6e3f 3abe d3c4 49bd
00000010: 7815 74be 4f05 9f3d 9479 88bd 11c5 553d
00000020: 825d 463e fd9b da3d ae08 adbd 962c 5abe
00000030: 5741 363d 50be 70bd 797e 103d cb60 10bc
00000040: 141f 8e3d e952 e7bb 9145 d43d 0d77 33be
00000050: 68eb 063e a7fe 283e f569 1b3e 428b 0dbe
00000060: 1ca1 cebd ae4e 83bd 3dff df3c 5fe8 62bd
00000070: 67c2 efbd 1247 24bd 0d83 463e 7d07 26be
00000080: 86e1 3abe 327a 80be d915 77bd 7fc2 2cbe
00000090: 4f54 9cbe 1907 273d e530 20be fec0 2b3e
000000a0: 22c0 6abe 727f 4ebd 0aec 07be 08af 873d
000000b0: d385 38be 943f 0a3e de02 f33c 1ae0 5fbe
000000c0: 4ba4 d0bd 2473 7d3e d157 06be 8540 42ba
000000d0: 0ce4 01bd c95b fd3d 6290 383e e6be 353e
000000e0: 0335 803e 4b81 273e 1f81 e63d d3b5 483e
000000f0: 6e07 c5bd 5aab 3d3c 4bb5 f13c b5f9 f7bb
00000100: e49a d9bd d396 7d3d d7a7 d43d 0a9f 1bbe
00000110: 5e59 ac3d 79aa 4f3e 8d9e 95bd 8f44 633e
00000120: f420 2a3e 2e5c e8bd bf51 413d 4758 4fbd
00000130: 0cad f8bb 7d63 4c3c 7783 e63d ceb7 35be
00000140: 1f14 b63d 0fc4 933d 7d65 7abd 7a55 d7bc
00000150: d8e2 3abe 4c97 32bd 9aea 15be f64b 9f3d
00000160: 79b4 49bd f011 06ba 4359 debd 5394 3e3c
00000170: c22c 193d f3df babd 6b5f a03d e392 753d
00000180: 58ba 743e 673a 973d b3c8 7a3c 0a5e ffbc
00000190: 7f42 143e c49e 413d 1d5e 08be cb93 063e
000001a0: 8062 233e b606 dc3b 3b27 38bd 76aa 13be

weights f4 [6, 1, 3, 1]
0.9850421 0.9860881 0.009338507 0.96339697 0.9829421 0.02284813 1.0302756 0.9443777
0.07265362 1.0911696 0.9720798 -0.034535266 0.9749125 1.02744 -0.044578917 0.957017
1.0424001 -0.024840502
00000000: b82b 7c3f 4570 7c3f 8a00 193c 2fa1 763f
00000010: 18a2 7b3f 002c bb3c 12e0 833f bdc2 713f
00000020: 6ccb 943d 72ab 8b3f 39da 783f da74 0dbd
00000030: de93 793f 2783 833f 6298 36bd 11ff 743f
00000040: 5e6d 853f 4f7e cbbc

running_cov f4 [1, 6, 2, 2]
1.909236 -0.28140756 -0.28140756 1.971294 1.4477533 0.16196351 0.16196351 1.3542848
1.5267661 0.2289437 0.2289437 1.5271212 1.1966727 -0.05601562 -0.05601562 1.1024926
1.8389547 -0.03619372 -0.03619372 1.6575603 1.5206676 -0.1423268 -0.1423268 1.9134201
00000000: d861 f43f a714 90be a714 90be 5d53 fc3f
00000010: fb4f b93f c3d9 253e c3d9 253e 3459 ad3f
00000020: 126d c33f 3870 6a3e 3870 6a3e b578 c33f
00000030: 922c 993f a270 65bd a270 65bd 7a1e 8d3f
00000040: de62 eb3f de3f 14bd de3f 14bd f02a d43f
00000050: 3ca5 c23f 1ebe 11be 1ebe 11be f3ea f43f

weight f4 [1, 6, 1]
0.2894847 -0.34649825 0.12667981 0.35020795 -0.23028712 -0.25729257
00000000: 5737 943e 3868 b1be 5ab8 013e 754e b33e
00000010: 63d0 6bbe dabb 83be

weight f4 [1, 6, 1]
-0.23350152 -0.13242632 0.08106615 -0.25479522 0.098334506 -0.25114825
00000000: 061b 6fbe c49a 07be 0206 a63d 8574 82be
00000010: 9a63 c93d 8196 80be

weights f4 [1, 1, 3, 1]
1.0309982 1.0747204 -0.09289712
00000000: c0f7 833f 7090 893f d840 bebd

running_cov f4 [1, 1, 2, 2]
0.91331756 -0.1417227 -0.1417227 0.94819593
00000000: 2ecf 693f c11f 11be c11f 11be f8bc 723f

weight f4 [6, 6, 7]
0.23631357 -0.08155581 -0.12331971 0.045750126 0.04069365 -0.15945062 0.09817628 0.07596418
-0.08576485 -0.08534884 0.109889 -0.0544924 -0.14779624 -0.17499356 -0.038001124 0.036429543
-0.03528563 -0.02495547 -0.05036534 -0.02732031 -0.113415174 -0.01573713 0.057762448 0.044861656
0.028832719 0.039152496 -0.12293983 0.08487851 0.053455744 -0.0460522 -0.079790585 0.097507894
0.14942558 0.017486267 -0.13903841 -0.09334513 0.12633134 0.01825192 0.13510253 0.019712994
0.10558149 0.07379038 0.07928336 -0.032517266 -0.16465549 -0.17617393 0.014634523 -0.04211471
-0.07210718 -0.24893698 -0.1315138 -0.060270265 0.033519637 -0.13799834 0.10067204 -0.17812406
-0.07558956 0.11828747 0.009586372 0.08526056 -0.052075334 -0.090418495 -0.18484299 -0.09025734
-0.10899365 0.045423973 -0.085498355 0.08145603 0.089165434 0.005396678 -0.15577322 -0.040663827
-0.17574254 -0.04016633 0.12079837 -0.17049605 -0.024157232 0.08562998 -0.02002829 0.1381628
-0.056999613 0.07633623 -0.1261763 0.16969469 -0.12016366 0.15858048 -0.09290044 -0.12834577
-0.045830872 -0.07677055 0.13712215 -0.14353484 -0.08147194 0.11559602 0.113380395 -0.13983932
0.10503478 0.04863101 0.21840923 -0.0029257312 0.033408083 0.00027846472 -0.013941524 -0.048359066
-0.09663386 -0.15230255 0.12150838 -0.11612315 0.07054325 -0.11478165 0.047465824 0.10997933
-0.10606985 -0.011953017 0.0033067497 -0.03407802 -0.0066631893 -0.07925645 0.03935945 -0.05672436
-0.14475608 -0.0321553 0.05720906 0.15654023 -0.07808048 -0.0059566014 -0.056016948 -0.11854096
-0.028484043 0.047245353 -0.13626552 -0.08587703 -0.0868519 -0.07788492 -0.16679935 -0.16115724
0.097043104 -0.120166846 -0.098819725 -0.09559501 0.13767977 0.1723099 0.10305819 -0.07092787
-0.023551105 0.02567444 -0.16371572 0.13161778 0.03684205 0.019134732 -0.041815016 0.10626787
0.014506375 0.07866913 -0.1964064 -0.0422077 0.054490626 -0.16086479 0.0706749 0.00042622714
-0.028779838 -0.03660711 0.010896479 0.16675067 -0.120993845 -0.03298159 -0.06821489 0.15126948
0.03549374 -0.07176877 -0.10559229 0.10796573 -0.015717007 0.075523354 -0.01937128 -0.069225
0.08075629 0.14450885 -0.11834358 0.037838362 0.11100232 0.056510016 -0.07258423 -0.086683676
-0.07191989 -0.09822856 -0.14582328 -0.063761175 0.08676366 0.038104657 -0.04710108 -0.07834373
0.083927885 -0.041399427 0.031891823 0.08916614 -0.016458267 0.09327155 0.014121051 -0.15830858
0.015794633 -0.08234299 -0.06477007 -0.058759857 -0.031948466 -0.0009936597 0.13551918 -0.13026516
-0.073956884 0.105882116 0.029585464 -0.08633789 -0.09117442 -0.20714687 0.12378357 -0.15808237
0.2796128 -0.06968415 -0.051573504 -0.1188812 0.023549661 -0.02095514 -0.11456984 0.00040976822
0.12023243 0.052709356 0.017807055 -0.033781804 -0.029950837 -0.03501101 0.013677872 -0.06946309
0.09713363 0.12025766 -0.123763 -0.0912726 0.016784342 0.04168436 -0.03513826 0.097990945
0.034982797 0.06698797 -0.056212004 0.05489492 -0.10307366 0.18393186 0.10157139 0.08312318
0.01773905 0.08307075 0.020499492 0.068455204
00000000: 2ffc 713e bc06 a7bd 0b8f fcbd 7c64 3b3d
00000010: 62ae 263d 0647 23be a510 c93d 1c93 9b3d
00000020: 7ba5 afbd 5fcb aebd 7c0d e13d 6c33 5fbd
00000030: e657 17be 8331 33be 11a7 1bbd 2537 153d
00000040: aa87 10bd 6a6f ccbc e34b 4ebd d8ce dfbc
00000050: 3746 e8bd 27eb 80bc 5198 6c3d dbc0 373d
00000060: 9832 ec3c 5e5e 203d e1c7 fbbd c9d4 ad3d
00000070: 69f4 5a3d 3ba1 3cbd 3f69 a3bd 38b2 c73d
00000080: 0503 193e 5c3f 8f3c 1660 0ebe bb2b bfbd
00000090: 015d 013e 0d85 953c 5158 0a3e 257d a13c
000000a0: 1c3b d83d 691f 973d 505f a23d d330 05bd
000000b0: 739b 28be f066 34be a3c5 6f3c 7980 2cbd
000000c0: eeac 93bd 56e9 7ebe 8eab 06be f4dd 76bd
000000d0: e34b 093d 704f 0dbe 242d ce3d 2766 36be
000000e0: b3ce 9abd b340 f23d 2910 1d3c 179d ae3d
000000f0: f24c 55bd 552d b9bd 7b47 3dbe d7d8 b8bd
00000100: 1038 dfbd 7d0e 3a3d c319 afbd 6bd2 a63d
00000110: 5e9c b63d 9ed6 b03b 0483 1fbe 1d8f 26bd
00000120: daf5 33be 7385 24bd 2365 f73d 8496 2ebe
00000130: 63e5 c5bc c55e af3d 5e12 a4bc 8d7a 0d3e
00000140: 6d78 69bd 2b56 9c3d 5c34 01be 72c4 2d3e
00000150: 5d18 f6bd ec62 223e 9642 bebd 136d 03be
00000160: 27b9 3bbd e139 9dbd c069 0c3e ccfa 12be
00000170: c3da a6bd 9bbd ec3d fb33 e83d 0a32 0fbe
00000180: 7a1c d73d 4f31 473d aba6 5f3e a0bd 3fbb
00000190: ead6 083d e7fe 9139 fd6a 64bc 2814 46bd
000001a0: f9e7 c5bd 33f5 1bbe 63d9 f83d f9d1 edbd
000001b0: fb78 903d a412 ebbd 866b 423d d83c e13d
000001c0: 263b d9bd 96d6 43bc 0eb6 583b 6595 0bbd
000001d0: e256 dabb 3551 a2bd 6037 213d cd57 68bd
000001e0: f03a 14be 47b5 03bd 0c54 6a3d 154c 203e
000001f0: a9e8 9fbd 982f c3bb 0772 65bd 9ac5 f2bd
00000200: 5e57 e9bc 5884 413d 3089 0bbe 4ce0 afbd
00000210: 69df b1bd 2182 9fbd 73cd 2abe 6706 25be
00000220: 89be c63d 091a f6bd ff61 cabd 51c7 c3bd
00000230: edfb 0c3e 0272 303e 2c10 d33d a242 91bd
00000240: 3fee c0bc 3453 d23c 18a5 27be d0c6 063e
00000250: b0e7 163d 71c0 9c3c 3946 2bbd f8a2 d93d
00000260: 26ac 6d3c 481d a13d c21e 49be fbe1 2cbd
00000270: 9031 5f3d bdb9 24be 01be 903d 3d77 df39
00000280: b2c3 ebbc 56f1 15bd 2587 323c b0c0 2a3e
00000290: 9fcb f7bd b417 07bd 40b4 8bbd 63e6 1a3e
000002a0: e261 113d 81fb 92bd c540 d8bd 231d dd3d
000002b0: f4c0 80bc fdab 9a3d 85b0 9ebc d6c5 8dbd
000002c0: 8e63 a53d 21fa 133e 1e5e f2bd 66fc 1a3d
000002d0: 2f55 e33d 0c77 673d 0aa7 94bd 3687 b1bd
000002e0: bc4a 93bd 0e2c c9bd b352 15be 3895 82bd
000002f0: 25b1 b13d a113 1c3d 10ed 40bd ad72 a0bd
00000300: 62e2 ab3d 7292 29bd 00a1 023d bd9c b63d
00000310: 7dd3 86bc 2805 bf3d fb5b 673c a51b 22be
00000320: bf63 813c 71a3 a8bd 2ca6 84bd 2dae 70bd
00000330: 65dc 02bd b03d 82ba 8ac5 0a3e 3b64 05be
00000340: b576 97bd b9d8 d83d 375d f23c ebd1 b0bd
00000350: a8b9 babd 4f1e 54be 3e82 fd3d 58e0 21be
00000360: 6929 8f3e 90b6 8ebd bd3e 53bd fd77 f3bd
00000370: 38eb c03c 1daa abbc 98a3 eabd 29d6 d639
00000380: 6c3c f63d c4e5 573d 1ae0 913c ca5e 0abd
00000390: 755b f5bc b467 0fbd 2719 603c aa42 8ebd
000003a0: ffed c63d a649 f63d 7577 fdbd 21ed babd
000003b0: 517f 893c 38bd 2a3d 23ed 0fbd 7aaf c83d
000003c0: 1f4a 0f3d fd30 893d 8f3e 66bd 7fd9 603d
000003d0: 4818 d3bd a258 3c3e a904 d03d 7c3c aa3d
000003e0: 7c51 913c ff20 aa3d 8dee a73c 3e32 8c3d

weight f4 [6, 6, 7]
0.0891437 0.09985512 0.12311346 0.04430942 0.035744436 0.19038685 -0.11789272 0.1298479
0.09093522 -0.22105624 0.22153445 -0.07789814 0.114869274 0.16368033 0.08547954 -0.10979847
-0.06692174 0.06708463 0.12935993 -0.008783315 0.03911212 -0.091074824 -0.008051523 -0.10654461
-0.009973274 0.11391026 0.12504716 -0.04222098 -0.09701337 0.09131987 0.048434526 -0.005876608
-0.13984743 0.08639536 -0.13275425 0.06484169 -0.090212926 -0.015264797 -0.12504601 0.17309545
-0.10031999 -0.00050818204 -0.06237765 0.090506285 0.08258836 -0.068725444 0.1293122 -0.0031400954
-0.034597464 -0.032927934 0.10892129 0.04261111 -0.07789249 -0.116951264 -0.08029604 0.14494741
0.08218872 -0.12892412 0.022868779 -0.026482942 -0.06591419 0.10140243 -0.061604396 0.1743696
-0.14742106 -0.046541788 -0.07811371 -0.07524899 -0.051726654 -0.061438173 0.031087112 0.033111915
-0.077392295 -0.128079 -0.07684275 0.124201015 0.08522531 -0.021797974 -0.054360278 -0.08157411
0.035019998 -0.14681275 0.121346846 -0.02161865 -0.09203924 0.13002452 -0.05529391 -0.0233312
-0.16448136 0.012694148 -0.19933835 0.08188609 -0.008947936 0.091650814 0.024505353 0.049368586
0.022150991 0.036760803 -0.21449846 -0.04420809 0.030818924 -0.087898 -0.019748762 -0.054086376
-0.035831124 -0.046434216 -0.015978498 -0.016264398 0.041370828 0.13430743 -0.102197304 -0.024868228
-0.064445265 -0.020369396 -0.10944244 0.12337596 0.0098253125 0.13949795 0.1504679 0.11074972
-0.017878126 -0.099322245 0.08571746 -0.004093176 0.025798928 -0.10856902 0.002327396 -0.07653786
0.04275942 0.034028362 -0.06523493 0.21475755 0.03887241 0.16729511 -0.13637632 0.041187134
-0.14891599 -0.05729231 -0.06532632 0.11567787 -0.15662697 -0.13165008 -0.065157615 -0.029779127
-0.044889547 0.018515214 -0.15913129 -0.029454626 0.11254427 -0.074912235 -0.093193166 0.05493935
0.097499184 -0.026937738 -0.06548226 -0.0033344089 0.1730281 -0.0050529265 -0.08481869 0.0779414
-0.13159068 0.024799092 0.09335252 0.08150663 -0.08944504 -0.063181356 0.10041176 0.11125687
0.045981456 -0.07707854 -0.103147134 0.078438565 0.06158531 -0.019205272 -0.0034907053 -0.01947439
0.20009117 -0.15734968 -0.19016962 0.0028212424 0.0092589585 0.030542696 0.03306846 0.030240001
-0.1486323 0.0071396087 0.18620451 0.1733054 0.16858189 0.15286201 0.1782789 0.055205654
0.14556126 0.0026837464 -0.060437478 -0.037883967 0.05340595 0.0077181584 0.11590889 -0.053851105
0.08530221 -0.12518775 -0.1797747 -0.05025802 0.11311109 -0.042721797 0.053539094 0.005832419
-0.063936435 -0.10028037 -0.049011763 0.038623534 0.10262036 0.008705127 -0.026173785 0.15993696
0.2062205 -0.1414401 0.029203657 -0.010700498 0.031902228 -0.03908329 -0.17148069 0.03143825
-0.13516697 0.14643054 0.11439107 0.1182572 0.11613743 0.023981888 -0.030102873 0.021756915
0.055169318 -0.051126555 0.046443 0.08981599 -0.01594163 -0.18862739 0.20182279 0.10194342
0.007541434 -0.08721856 0.028444583 0.022706743 0.044545583 0.059456065 0.052523263 0.06332357
-0.019564284 -0.041868083 -0.08721818 -0.10726154
00000000: f990 b63d d780 cc3d e922 fc3d cb7d 353d
00000010: c268 123d c5f4 423e bd71 f1bd d9f6 043e
00000020: 3f3c ba3d 915c 62be edd9 623e 0f89 9fbd
00000030: 9540 eb3d d19b 273e e60f af3d 05de e0bd
00000040: 440e 89bd ab63 893d ee76 043e e5e7 0fbc
00000050: 0834 203d 7085 babd 89ea 03bc 0f34 dabd
00000060: f166 23bc c849 e93d 5d0c 003e e8ef 2cbd
00000070: f2ae c6bd e905 bb3d 4863 463d 9090 c0bb
00000080: 2a34 0fbe 0df0 b03d bbf0 07be b8cb 843d
00000090: 8ec1 b8bd 3319 7abc 100c 00be ef3f 313e
000000a0: 9174 cdbd 8537 05ba b57f 7fbd 5c5b b93d
000000b0: 1624 a93d edbf 8cbd 6b6a 043e 0fca 4dbb
000000c0: 12b6 0dbd 71df 06bd 2012 df3d fd88 2e3d
000000d0: 1986 9fbd 2584 efbd 4072 a4bd 186d 143e
000000e0: 8f52 a83d af04 04be 4e57 bb3c c1f2 d8bc
000000f0: 05fe 86bd 14ac cf3d e454 7cbd f28d 323e
00000100: 8cf5 16be 9aa2 3ebd 15fa 9fbd 241c 9abd
00000110: 54df 53bd 98a6 7bbd 66aa fe3c 5ca0 073d
00000120: da7f 9ebd 2427 03be bb5f 9dbd 1a5d fe3d
00000130: 9b8a ae3d aa91 b2bc e2a8 5ebd 5410 a7bd
00000140: 2171 0f3d 1556 16be b284 f83d 9819 b1bc
00000150: 127f bcbd 2625 053e de7b 62bd 1321 bfbc
00000160: cd6d 28be 1efb 4f3c 5a1f 4cbe e5b3 a73d
00000170: 5d9a 12bc 6cb3 bb3d 73bf c83c b736 4a3d
00000180: ff75 b53c 7f92 163d 7ca5 5bbe 8b13 35bd
00000190: f877 fc3c de03 b4bd 28c8 a1bc ad89 5dbd
000001a0: a8c3 12bd ce31 3ebd 57e5 82bc ea3c 85bc
000001b0: 7574 293d e387 093e d24c d1bd 74b8 cbbc
000001c0: e1fb 83bd b8dd a6bc 5c23 e0bd 89ac fc3d
000001d0: 59fa 203c 8dd8 0e3e 4214 1a3e c0d0 e23d
000001e0: 2675 92bc 7669 cbbd a38c af3d 0d20 86bb
000001f0: 4658 d33c 6f59 debd 3a87 183b e2bf 9cbd
00000200: 8024 2f3d 5361 0b3d e499 85bd 67e9 5b3e
00000210: ad38 1f3d 694f 2b3e 3ca6 0bbe d7b3 283d
00000220: 6f7d 18be 57ab 6abd cec9 85bd 85e8 ec3d
00000230: d262 20be 47cf 06be 5b71 85bd 5bf3 f3bc
00000240: 1ade 37bd 38ad 973c 50f3 22be d44a f1bc
00000250: 9c7d e63d 966b 99bd 0fdc bebd 1508 613d
00000260: a7ad c73d 88ac dcbc 901b 86bd 1986 5abb
00000270: 472e 313e 0593 a5bb 6cb5 adbd be9f 9f3d
00000280: b5bf 06be 7727 cb3c 9b2f bf3d f3ec a63d
00000290: f62e b7bd 3a65 81bd aea4 cd3d a4da e33d
000002a0: 0d57 3c3d 5bdb 9dbd ce3e d3bd 66a4 a03d
000002b0: e140 7c3d 6054 9dbc 51c4 64bb c288 9fbc
000002c0: b3e4 4c3e 4620 21be d3bb 42be 98e4 383b
000002d0: e3b2 173c ad34 fa3c cb72 073d e1b9 f73c
000002e0: 1133 18be 61f3 e93b 65ac 3e3e f976 313e
000002f0: bba0 2c3e dc87 1c3e be8e 363e 531f 623d
00000300: 030e 153e cbe1 2f3b 4a8d 77bd 382c 1bbd
00000310: 33c0 5a3d 9be8 fc3b a461 ed3d fa92 5cbd
00000320: edb2 ae3d 3831 00be dc16 38be 5bdb 4dbd
00000330: caa6 e73d 0dfd 2ebd cf4b 5b3d e01d bf3b
00000340: 1bf1 82bd cb5f cdbd 8fc0 48bd b633 1e3d
00000350: a02a d23d f39f 0e3c 686a d6bc 84c6 233e
00000360: 772b 533e acd5 10be 823c ef3c 2451 2fbc
00000370: e9ab 023d cd15 20bd a298 2fbe 65c5 003d
00000380: 3669 0abe e3f1 153e de45 ea3d d530 f23d
00000390: 76d9 ed3d aa75 c43c 4d9a f6bc 8f3b b23c
000003a0: 39f9 613d 146a 51bd 043b 3e3d 72f1 b73d
000003b0: 0598 82bc 8a27 41be a2aa 4e3e b6c7 d03d
000003c0: 221e f73b a59f b2bd 9d04 e93c 7e03 ba3c
000003d0: 6e75 363d 3488 733d a222 573d caaf 813d
000003e0: 4745 a0bc de7d 2bbd 729f b2bd f0ab dbbd

weights f4 [6, 1, 3, 1]
0.98325205 0.968751 -0.016628837 0.8341297 1.09652 -0.021815654 0.98362255 0.97733825
-0.0173147 1.0050306 0.965544 0.014688923 0.9933313 1.0351108 -0.03462957 0.99236774
0.99405026 -0.022496758
00000000: 68b6 7b3f 1100 783f 3339 88bc 8689 553f
00000010: c45a 8c3f beb6 b2bc b0ce 7b3f d732 7a3f
00000020: 8fd7 8dbc d8a4 803f e42d 773f cfa9 703c
00000030: f64a 7e3f 837e 843f bcd7 0dbd d00b 7e3f
00000040: 147a 7e3f 1f4b b8bc

running_cov f4 [1, 6, 2, 2]
1.3423028 0.04541692 0.04541692 1.481441 1.2219001 -0.13910994 -0.13910994 1.34854
1.666507 -0.11509392 -0.11509392 1.640336 1.5091245 -0.12314945 -0.12314945 1.2351103
1.3619015 0.044987306 0.044987306 1.4820828 1.5080893 0.042395335 0.042395335 1.6709538
00000000: 94d0 ab3f 1807 3a3d 1807 3a3d dc9f bd3f
00000010: 3967 9c3f d672 0ebe d672 0ebe f59c ac3f
00000020: 1a50 d53f 5cb6 ebbd 5cb6 ebbd 88f6 d13f
00000030: fe2a c13f c735 fcbd c735 fcbd 1818 9e3f
00000040: ca52 ae3f 9c44 383d 9c44 383d e4b4 bd3f
00000050: 1209 c13f bba6 2d3d bba6 2d3d d0e1 d53f
