Homography_Trained_Model/E2EMP_UL1_30.pth (torch, 885260 bytes, 291 tensors)

weight f4 [1, 1, 1, 7]
0	0x3e83b6a0	0.2572527
1	0xbdcd11ab	-0.100131355
2	0x3e403f6b	0.18774192
3	0xbdfd4770	-0.12367141
4	0xbe1f0402	-0.15528873
5	0xbe797fcf	-0.24365161
6	0x3ead163d	0.3380603

weight f4 [1, 1, 1, 7]
0	0x3e99de65	0.30052486
1	0x3ead8f9d	0.3389863
2	0x3eaf3c8e	0.34225887
3	0xbd654933	-0.05597801
4	0xbdfccfcc	-0.123443216
5	0xbb58b165	-0.003306472
6	0x3e5ae5df	0.21376751

weight f4 [1, 3]
0	0x3fa7bd82	1.3104708
1	0x3fbf2886	1.4934242
2	0x3de71e1b	0.11285039

bias f4 [1, 2]
0	0x3e3cb587	0.18428622
1	0x3d8ae33b	0.06781622

running_covar f4 [1, 3]
0	0x3bb3edd0	0.005490996
1	0x3c6930f3	0.014232862
2	0xbb93af64	-0.004506992

weight f4 [1, 1, 5, 1]
0	0x3eb70517	0.3574607
1	0xbe5dae08	-0.21648419
2	0xbdeef5ca	-0.11667974
3	0x3d9d7e64	0.07690123
4	0x3d5cb8e8	0.053887278

weight f4 [1, 1, 5, 1]
0	0xbdcd2e46	-0.100185916
1	0x3e777729	0.2416655
2	0x3ee8054b	0.45316538
3	0xbd9d06eb	-0.07667335
4	0xbd2dd9ff	-0.042444225

weight f4 [1, 3]
0	0x3fc5951b	1.5436128
1	0x3f9fdd3d	1.2489392
2	0xbe0b5973	-0.13608341

bias f4 [1, 2]
0	0x3e4829af	0.19547151
1	0x3c8cf0ea	0.01720472

running_covar f4 [1, 3]
0	0x3e666d5a	0.22502652
1	0x3e65a1d1	0.2242501
2	0xbbc3ffcc	-0.005981421

weight f4 [1, 1, 5, 1]
0	0x3e54da4e	0.20786402
1	0xbe7f4e25	-0.24932154
2	0x3d399026	0.045303486
3	0xbec6929f	-0.38783738
4	0x3e18d01f	0.14923142

weight f4 [1, 1, 5, 1]
0	0x3e258e16	0.16167483
1	0xbea07501	-0.31339267
2	0xbe87a9d9	-0.2649677
3	0xbe1dc394	-0.15406638
4	0xbaab7041	-0.0013079719

weight f4 [1, 3]
0	0x3fb7584d	1.4323822
1	0x3fa92d38	1.3216925
2	0xbd5020ef	-0.050812658

bias f4 [1, 2]
0	0x3e6f0a5b	0.23343794
1	0x3dd84394	0.105597645

running_covar f4 [1, 3]
0	0x3af3bded	0.0018596031
1	0x3b8b800d	0.004257208
2	0x39d01d50	0.0003969469

weight f4 [1, 1, 1, 7]
0	0x3e721249	0.23639788
1	0x3e8cfb55	0.275355
2	0xbcff3ae5	-0.031156013
3	0xbd883cea	-0.066522434
4	0x3e5ab6f3	0.21358852
5	0x3e30537f	0.17219351
6	0xbec3bb86	-0.38229007

weight f4 [1, 1, 1, 7]
0	0x3ebec74e	0.37261432
1	0x3daa0a82	0.083027855
2	0x3dd1a80f	0.10237133
3	0xbe17109b	-0.14752428
4	0xbc306a11	-0.010767476
5	0x3e26f5a9	0.1630465
6	0x3ed0dcd8	0.4079349

weight f4 [1, 3]
0	0x3fbef1f1	1.4917585
1	0x3faac244	1.3340535
2	0x3d0d2a82	0.034464367

bias f4 [1, 2]
0	0x3d8bfb55	0.06835047
1	0x3d1182a3	0.035524976

running_covar f4 [1, 3]
0	0x3f625482	0.884102
1	0x3f5de487	0.8667683
2	0xbd75f2ac	-0.060045883

weight f4 [1, 1, 3, 3]
0	0x3e91a8e3	0.28449163
1	0xbe1cb72a	-0.15304247
2	0x3eab5a24	0.3346721
3	0x3d30aa7d	0.04313134
4	0xbeb6606d	-0.35620442
5	0x3e62d435	0.22151263
6	0x3dcc21d7	0.09967392
7	0x3e725383	0.2366467
8	0xbd96e40b	-0.073677145

weight f4 [1, 1, 3, 3]
0	0x3e163c13	0.14671354
1	0x3e9a0623	0.30082807
2	0xbe6be507	-0.23036586
3	0x3c2470c8	0.010036655
4	0xbe3ae2fc	-0.1825065
5	0xbbeca56a	-0.0072218673
6	0xbdb8cd67	-0.090235524
7	0xbe0e7b56	-0.13914236
8	0x3ea86857	0.32892105

weight f4 [1, 3]
0	0x3fc8b884	1.568131
1	0x3fa3b0b0	1.2788296
2	0xbd0f8065	-0.035034556

bias f4 [1, 2]
0	0x3d4b74c9	0.049671922
1	0xbcd7866b	-0.026309213

running_covar f4 [1, 3]
0	0x3b4f017b	0.0031586576
1	0x3c00b2b1	0.007855103
2	0x3b4bbf84	0.0031089494

weight f4 [1, 1, 3, 3]
0	0xbe7ddbf6	-0.2479094
1	0xbe17f850	-0.14840817
2	0xbe5e2d89	-0.21697058
3	0xbee24b43	-0.44198045
4	0xbe1f1853	-0.15536623
5	0xbe9af8b1	-0.3026786
6	0x3d862225	0.06549481
7	0x3e9284e9	0.28617027
8	0xbdd40b1e	-0.10353683

weight f4 [1, 1, 3, 3]
0	0xbea16143	-0.31519517
1	0x3dd39198	0.10330504
2	0x3c994e59	0.018714117
3	0xbe42674a	-0.18984714
4	0xbeca6290	-0.39528322
5	0xbab78ccd	-0.0014003754
6	0x3d9d4399	0.07678909
7	0x3d86c28f	0.06580078
8	0xbdfbf49f	-0.12302517

weight f4 [1, 3]
0	0x3fca9137	1.5825566
1	0x3fae15d8	1.3600416
2	0x3aae1591	0.0013281574

bias f4 [1, 2]
0	0x3d5aa824	0.053383008
1	0xbd03b55b	-0.032155376

running_covar f4 [1, 3]
0	0x3f52bd4e	0.82320106
1	0x3ed4cf35	0.41564336
2	0x3e85a92d	0.26105633

weight f4 [1, 1, 1, 7]
0	0x3e9882e2	0.29787356
1	0xbbbe420d	-0.0058062137
2	0xbdd834da	-0.10556956
3	0xbd87d1b4	-0.066317946
4	0xbe1b2efc	-0.15154642
5	0x3e092183	0.1339169
6	0x3e547f01	0.20751573

weight f4 [1, 1, 1, 7]
0	0xbe5150e0	-0.20441008
1	0xbe8d216e	-0.27564567
2	0x3c932a56	0.017964523
3	0xbe556980	-0.20841026
4	0x3eb883d2	0.3603807
5	0xbdd5886e	-0.104264125
6	0xbdecdcc5	-0.11565546

weight f4 [1, 3]
0	0x3faf1a0a	1.3679821
1	0x3fbb39f1	1.4627057
2	0xbc28347a	-0.010266418

bias f4 [1, 2]
0	0xbd4f2d87	-0.050580528
1	0x3d389772	0.045066305

running_covar f4 [1, 3]
0	0x3bc866fe	0.0061157933
1	0x3a82613e	0.0009947193
2	0xba2db270	-0.00066260155

weight f4 [1, 1, 5, 1]
0	0xbeee0c88	-0.46493936
1	0xbec7d100	-0.39026642
2	0xbeacc584	-0.33744442
3	0x3eb00cf1	0.34384874
4	0x3e5ff6a4	0.2187143

weight f4 [1, 1, 5, 1]
0	0x3ed3f629	0.41398743
1	0xbe166445	-0.14686687
2	0xbadac07a	-0.0016689443
3	0xbeb615d3	-0.35563526
4	0xbea4869a	-0.32133943

weight f4 [1, 3]
0	0x3fad21d4	1.3525949
1	0x3fb2f990	1.398241
2	0x3cb383e2	0.021913473

bias f4 [1, 2]
0	0x3b4e5ab2	0.0031487164
1	0x3c514444	0.012772623

running_covar f4 [1, 3]
0	0x3e13312f	0.14374231
1	0x3e7324f3	0.23744564
2	0xbe0a34f7	-0.13496767

weight f4 [1, 1, 5, 1]
0	0x3dd6f1fa	0.10495372
1	0xbe5c0eb0	-0.21489978
2	0x3d6c26d2	0.05765421
3	0xbe06b270	-0.13154006
4	0xbe152792	-0.14565876

weight f4 [1, 1, 5, 1]
0	0x3e841327	0.25795862
1	0x3d99be83	0.0750704
2	0x3eaccb03	0.33748636
3	0x3cdbbbcd	0.026822949
4	0xbe5ece4e	-0.21758386

weight f4 [1, 3]
0	0x3fb4af67	1.4116029
1	0x3fb5bbad	1.4197899
2	0x3929fc78	0.00016211148

bias f4 [1, 2]
0	0xbd1a1dcd	-0.037626076
1	0x3ca04b76	0.019567233

running_covar f4 [1, 3]
0	0x3ae27cdc	0.0017279643
1	0x3b87d0ea	0.0041447775
2	0xba952108	-0.0011377642

weight f4 [1, 1, 1, 7]
0	0xbe5320d7	-0.20617996
1	0xbeaf0198	-0.34180903
2	0x3e01c11b	0.1267132
3	0xbca068a9	-0.019581156
4	0xbe806778	-0.2507894
5	0xbe93d1c8	-0.28870988
6	0x3eb19a90	0.34688234

weight f4 [1, 1, 1, 7]
0	0xbc55970a	-0.013036499
1	0x3ea4235d	0.3205823
2	0x3c0c70cb	0.008571814
3	0xbd8db4f4	-0.0691928
4	0x3dbd058c	0.092295736
5	0xbe89d291	-0.26918462
6	0xbe448bbd	-0.19193931

weight f4 [1, 3]
0	0x3fb3a333	1.403418
1	0x3facc4bd	1.349754
2	0x3d09e516	0.03366574

bias f4 [1, 2]
0	0xbc13e627	-0.009027041
1	0xbda22ca5	-0.079186715

running_covar f4 [1, 3]
0	0x3f292bab	0.6608226
1	0x3f22dce3	0.63618296
2	0x3e1f18c9	0.15536799

weight f4 [1, 1, 3, 3]
0	0xbe87a890	-0.2649579
1	0xbe9544dd	-0.291541
2	0xbe1e023f	-0.15430544
3	0x3e2fcf10	0.17168832
4	0x3e0b63b7	0.13612257
5	0xbe144ce9	-0.14482464
6	0x3e39838e	0.1811659
7	0xbd0903b2	-0.03345079
8	0xbea59c5a	-0.3234585

weight f4 [1, 1, 3, 3]
0	0x3e702484	0.2345143
1	0xbe8a6b5f	-0.27035043
2	0xbbc8ec32	-0.0061316723
3	0x3ea386a0	0.31938648
4	0x3db703c2	0.089362636
5	0xbeb854bd	-0.3600215
6	0x3db23ab6	0.087026045
7	0xbe5abd57	-0.2136129
8	0xbe1c7da1	-0.15282299

weight f4 [1, 3]
0	0x3fbb04b9	1.4610816
1	0x3faf5357	1.3697308
2	0x3bc4056e	0.0059820926

bias f4 [1, 2]
0	0x3d355226	0.044267796
1	0xbcdad44b	-0.026712557

running_covar f4 [1, 3]
0	0x3b96ab63	0.0045980676
1	0x3c4e7dd2	0.01260324
2	0x3b10bc00	0.0022084713

weight f4 [1, 1, 3, 3]
0	0x3e7ae36d	0.24500819
1	0xbe76bed1	-0.24096228
2	0xbdc9d16c	-0.09854397
3	0xbe632226	-0.22180995
4	0xbe589d28	-0.211537
5	0xbe96c05b	-0.2944363
6	0xbe81a078	-0.2531774
7	0xbea7b003	-0.32751474
8	0xbdc9d2c1	-0.09854651

weight f4 [1, 1, 3, 3]
0	0xbe5dea55	-0.21671422
1	0x3d5d19e0	0.053979754
2	0x3e21314a	0.15741459
3	0xbe73e10a	-0.23816314
4	0x3e64cbcb	0.22343366
5	0x3e90cd68	0.28281713
6	0x3da9ea4d	0.082966425
7	0xbe8c06b6	-0.2734887
8	0xbdd50442	-0.10401203

weight f4 [1, 3]
0	0x3fb1d738	1.3893805
1	0x3fad44df	1.3536643
2	0x3d033d38	0.032040805

bias f4 [1, 2]
0	0x3a506214	0.0007949185
1	0xbd746346	-0.059664987

running_covar f4 [1, 3]
0	0x3fbeed7a	1.4916222
1	0x3f5e780c	0.86901927
2	0x3e781335	0.24226077

weight f4 [6, 6, 9]
0	0xbe401497	-0.18757854
1	0xbdab45e1	-0.08362938
2	0xbdf39455	-0.118935265
3	0xbd4a1bab	-0.049342792
4	0x3de3f702	0.111310974
5	0xbe170377	-0.14747415
6	0x3d9c03bd	0.076179005
7	0xbd69b572	-0.057057805
8	0x3d826c05	0.06368259
9	0xbe0c2ad8	-0.13688219
10	0xbddc8e74	-0.10769358
11	0x3d686af1	0.056742612
12	0x3ddcb1f8	0.10776132
13	0x3d87669d	0.06611369
14	0xbda6c7a5	-0.08143548
15	0xbdd522c9	-0.10407025
16	0xbdeefd33	-0.11669388
17	0xbe133df6	-0.14379105
18	0x3dd1898c	0.10231313
19	0x3d8b788b	0.06810101
20	0xbdd60bf0	-0.10451496
21	0xbd94620c	-0.072452635
22	0xbd60ed64	-0.054913893
23	0x3def6c14	0.11690536
24	0xbc711b12	-0.014715927
25	0x3cc819f5	0.02442644
26	0xbe1d470f	-0.15359138
27	0x3de57c69	0.1120537
28	0x3d4920a3	0.04910339
29	0x3e3dace6	0.18522987
30	0x3dd485e0	0.10377097
31	0x3c6a155b	0.014287318
32	0xbd4645ba	-0.04840634
33	0x3dbc7d56	0.092035934
34	0x3cb07ba4	0.021543331
35	0xbda0d83e	-0.07853745
36	0xbc7f427b	-0.015579815
37	0x3d634629	0.05548683
38	0x3bc30fa6	0.005952793
39	0x3ce9caca	0.02853908
40	0x3d061353	0.032733273
41	0xbd833f4a	-0.06408556
42	0x3d4f1a12	0.050561972
43	0xbe030cc1	-0.12797834
44	0xbdc5b01d	-0.096527316
45	0x3df8abb3	0.12142124
46	0x3e072cb8	0.13200653
47	0x3d5f079f	0.054450627
48	0xbd79d244	-0.06099154
49	0xbd446319	-0.04794607
50	0xbd5df7ac	-0.054191276
51	0x3d24790e	0.04015451
52	0xbd91f657	-0.07127064
53	0x3cf8e6ec	0.03038355
54	0xbd72693b	-0.059182387
55	0x3d48c1ed	0.049013067
56	0xbda94fd5	-0.0826718
57	0x3d0bb6a0	0.03410971
58	0xbd1f8739	-0.038947318
59	0xbdea6490	-0.11444962
60	0xbe070de3	-0.13188891
61	0xbdfb2be6	-0.12264232
62	0xbe09175e	-0.1338782
63	0xbdcc8b05	-0.09987453
64	0xbcfacef8	-0.030616269
65	0xbda82e46	-0.08211951
66	0x3a7ec199	0.00097181794
67	0x3d36e274	0.044649556
68	0xbe3bc0fa	-0.18335333
69	0xbe2fa070	-0.17151046
70	0xbe1026d0	-0.14077306
71	0xbd78437c	-0.060611233
72	0xbd3de026	-0.046356343
73	0xbde5070d	-0.111829855
74	0x3d5bf798	0.05370292
75	0xbdfe4b95	-0.1241676
76	0x3d1fd69c	0.039023027
77	0x3d96f22e	0.07370411
78	0xbda75537	-0.0817055
79	0xbdeed4e6	-0.11661701
80	0xbd68be02	-0.05682183
81	0x3c8205ee	0.015871968
82	0xbe079978	-0.13242137
83	0x3db854f4	0.090005785
84	0x3dcc9b54	0.09990564
85	0xbd12580e	-0.035728507
86	0x3e146f9e	0.14495704
87	0xbd6cff37	-0.05786058
88	0x3d12b16c	0.035813734
89	0x3d1934a7	0.03740373
90	0x3dc93bca	0.09825857
91	0xbdde2926	-0.10847692
92	0x3e0b3e8c	0.13598078
93	0xbcf82d4d	-0.030295039
94	0x3e36f43d	0.17866607
95	0x3de87bc1	0.11351729
96	0x3db87673	0.090069674
97	0xbdc9006e	-0.09814535
98	0x3cf594ea	0.029978234
99	0xbc527899	-0.012846136
100	0x3deef0d7	0.1166703
101	0xbd92a076	-0.07159512
102	0xbe09012e	-0.13379356
103	0xbde34a2b	-0.11098131
104	0x3cd03fea	0.025421102
105	0x3d196003	0.03744508
106	0x3da9d43f	0.08292436
107	0x3d3f5cc5	0.04671933
108	0x3e045394	0.12922508
109	0xbd351aba	-0.04421494
110	0x3debf2f2	0.115209475
111	0xbd3d52fe	-0.046221726
112	0x3c68ff3e	0.014221011
113	0xbdd4c76c	-0.10389599
114	0xbd959d5a	-0.07305403
115	0x3cc23a71	0.023709508
116	0x3b60a08e	0.0034275386
117	0xbc597415	-0.013272305
118	0x3d91bef7	0.07116502
119	0x3d7c5bd3	0.061611008
120	0xbdf61c11	-0.12017072
121	0xbd4d5ba6	-0.05013623
122	0xbdc76ab6	-0.0973715
123	0xbd2b06e2	-0.04175461
124	0x3dae90ec	0.085237354
125	0xbdabead2	-0.08394398
126	0xbdb9329d	-0.09042857
127	0x3d750042	0.0598147
128	0x3ddd986b	0.10820087
129	0xbe19a070	-0.15002608
130	0x3d9e704b	0.07736262
131	0xbe209a36	-0.15683827
132	0xbe4137de	-0.18868968
133	0xbcd85ce5	-0.026411483
134	0xbe42fc64	-0.19041592
135	0x3e1f57b5	0.15560801
136	0x3e16935d	0.14704652
137	0xbc01aea1	-0.00791517
138	0xbdf492e3	-0.11942079
139	0x3cd40b7d	0.025884384
140	0x3da8ba8d	0.08238707
141	0xbd8c63b3	-0.068549536
142	0x3dc69b59	0.09697599
143	0x3de438ca	0.11143644
144	0x3d86db82	0.065848365
145	0x3d138693	0.03601701
146	0x3db4a240	0.08820009
147	0xbd872b2a	-0.0660003
148	0x3e4a6a7f	0.19767188
149	0x3d977023	0.07394435
150	0xbd191a46	-0.037378572
151	0xbe156e17	-0.14592777
152	0xbd463324	-0.048388615
153	0x3d2656a1	0.04060996
154	0xbd7a465c	-0.061102256
155	0xbdb01472	-0.0859765
156	0xbddd0831	-0.10792578
157	0x3d87bef6	0.0662822
158	0x3e0ae51d	0.13563962
159	0x3dc2b02b	0.095062576
160	0xbd51da5a	-0.051233627
161	0x3de92848	0.11384636
162	0x3d09ef43	0.033675443
163	0xbd19ca6f	-0.03754657
164	0xbd6a3f80	-0.057189465
165	0xbd8e18ce	-0.06938325
166	0xbe345a83	-0.17612652
167	0xbdd6f7d1	-0.10496486
168	0x3d93a068	0.072083294
169	0xbda24962	-0.07924153
170	0xbbe22b66	-0.006902146
171	0x3d69e380	0.057101727
172	0xbcc9e472	-0.024645064
173	0xbc5583d2	-0.013031917
174	0xbe056e44	-0.13030344
175	0xbc23aec7	-0.009990401
176	0xbde80405	-0.11328892
177	0xbe035640	-0.1282587
178	0xbda8adcc	-0.08236274
179	0x3daaaca4	0.0833371
180	0x3e0390b5	0.1284817
181	0x3e2d9687	0.16951953
182	0xbdaed845	-0.08537344
183	0x3d87a6b5	0.06623594
184	0x3d2fd339	0.042926047
185	0x3c67673b	0.014123733
186	0xbdbded0a	-0.09273727
187	0xbdde791c	-0.108629435
188	0xbe0c9b41	-0.137311
189	0x3a13709b	0.00056243845
190	0xbc9364ca	-0.017992396
191	0x3d5657cf	0.052329835
192	0xbba9169d	-0.0051601664
193	0x3cf7ce4c	0.030249737
194	0xbd2d8499	-0.042362783
195	0x3db954e3	0.09049394
196	0xbd0858e4	-0.033287898
197	0xbcc1e980	-0.023670912
198	0xbd6dfbac	-0.05810134
199	0xbc8c71bf	-0.017144082
200	0x3ddd5b78	0.10808462
201	0x3df221ab	0.11822828
202	0x3d2dc2ca	0.042422093
203	0x3df3fbb6	0.119132444
204	0xbcb855fc	-0.022501938
205	0xbd1ebcd1	-0.038754288
206	0x3dc0ac57	0.09407871
207	0xbcda9660	-0.026683033
208	0xbd82e5c8	-0.063914835
209	0x3de399c4	0.11113313
210	0x3e187269	0.14887394
211	0x3d5d9b9d	0.054103483
212	0x3e2a2977	0.1661738
213	0xbd817a87	-0.06322198
214	0x3df2445b	0.11829444
215	0xbc02f11d	-0.007992056
216	0xbda65fc2	-0.08123733
217	0x3d7ea583	0.062169563
218	0xbdc9bc19	-0.0985033
219	0xbe014d94	-0.1262725
220	0x3df9342c	0.12168154
221	0xbe126727	-0.14297162
222	0x3d9a706c	0.07540974
223	0xbd4cdc50	-0.050014794
224	0xbd79afea	-0.06095878
225	0xbde54b50	-0.11196005
226	0xbdd2062f	-0.10255086
227	0xbd8237b4	-0.06358281
228	0x3d11cec3	0.035597574
229	0x3d1c96e0	0.038229823
230	0xbdce325a	-0.100681975
231	0xbe16a691	-0.14711978
232	0x3ba6b1b1	0.0050871004
233	0xbd96ccde	-0.07363294
234	0x3e061446	0.13093671
235	0xbcbf16fe	-0.023326393
236	0xbdbebc85	-0.09313301
237	0xbd97781a	-0.073959544
238	0x3dd19790	0.102339864
239	0x3cfe3aa4	0.031033821
240	0x3dce4072	0.10070886
241	0xbd840f7b	-0.06448265
242	0xbd355f1d	-0.04428016
243	0x3dda4c58	0.10659093
244	0x3e05b4e4	0.13057286
245	0x3e10387f	0.14084052
246	0x3d588810	0.052864134
247	0x3db1ae09	0.08675773
248	0xbd204062	-0.0391239
249	0x3cb6c3b3	0.022310114
250	0x3d9d8846	0.07692008
251	0xbd3c7feb	-0.04602043
252	0x3d9cb62e	0.076519355
253	0xbab2013f	-0.0013580694
254	0xbda40013	-0.08007827
255	0xbdb3fc2f	-0.087883346

weight f4 [6, 6, 9]
0	0x3cb5cfde	0.022193845
1	0x3d5f04e6	0.05444803
2	0x3cea9a50	0.028638035
3	0xbde74156	-0.11291759
4	0xbdc69296	-0.09695928
5	0x3d3e320c	0.046434447
6	0xbd64e6e9	-0.055884276
7	0xbd9bc4d4	-0.07605901
8	0xbde53516	-0.11191766
9	0xbdb88c1b	-0.09011098
10	0x3bd79fa3	0.0065803095
11	0xbda4816c	-0.08032498
12	0xbcfa5674	-0.030558802
13	0x3d8bf978	0.06834692
14	0x3e0bab26	0.13639507
15	0x3e046c41	0.1293192
16	0x3e0e1aea	0.13877454
17	0xbcf6d06b	-0.030128678
18	0x3c675dd0	0.014121488
19	0xbe10ffda	-0.141601
20	0xbd853436	-0.06504099
21	0xbd277884	-0.040886417
22	0x3ca40d05	0.02002574
23	0x3d72ba8d	0.05925994
24	0x3d7d316e	0.061814718
25	0x3d6a1f8b	0.057158988
26	0x3c94fbc9	0.018186467
27	0x3a5970db	0.000829471
28	0xbc85768c	-0.01629188
29	0xbcde76f4	-0.02715633
30	0xbbc7c489	-0.006096427
31	0x3cb5bb02	0.022183899
32	0xbe1b1ad0	-0.15146947
33	0x3c648cbc	0.013949569
34	0x3d4adf85	0.04952957
35	0xbe1d191d	-0.15341611
36	0x3d9c1ad9	0.07622308
37	0x3dced02d	0.100983
38	0xbd869cda	-0.06572886
39	0x3cfaa1d8	0.030594751
40	0xbdd41adc	-0.103566855
41	0x3dae9cb6	0.08525984
42	0xbd979df0	-0.07403171
43	0xbe282c43	-0.16423135
44	0x3cdf713e	0.027275678
45	0xbe243ef0	-0.16039634
46	0xbe04fea5	-0.12987764
47	0xb9dda1de	-0.00042273005
48	0x3dc34efe	0.09536551
49	0xbd5613a5	-0.05226483
50	0xbd992a5d	-0.07478783
51	0x3cb53187	0.022118343
52	0x3ccc7a36	0.024960618
53	0x3d0ce757	0.03440031
54	0x3dbf724a	0.09347971
55	0x3dfb0a7e	0.122578606
56	0xbdec4548	-0.11536652
57	0xbdb0b77a	-0.086287454
58	0x3d7b3380	0.06132841
59	0x3d4ab88d	0.049492408
60	0xbd89588e	-0.067063436
61	0x3b2abff0	0.0026054345
62	0xbdc20e06	-0.09475331
63	0xbb9cb06d	-0.004781774
64	0x3dad63c1	0.08466292
65	0x3d10b3c6	0.035327695
66	0xbdee4048	-0.116333544
67	0x3c03a6e8	0.008035399
68	0xbe1c828e	-0.15284178
69	0xbe5bd9e7	-0.21469842
70	0xbe49774c	-0.19674414
71	0xbd3b4a6a	-0.045725264
72	0x3da11277	0.0786485
73	0xbdec8609	-0.11549003
74	0x3d0b0f33	0.033950042
75	0x3c625a5f	0.013815491
76	0xbce4c9dd	-0.027928287
77	0x3de029cd	0.10945473
78	0xbd079ed1	-0.033110444
79	0x3de28ba2	0.11061789
80	0xbd8ebe9a	-0.06969948
81	0xbdada168	-0.084780514
82	0x3dacbf34	0.084349066
83	0xbd1b3316	-0.037890516
84	0xbdb29abd	-0.0872092
85	0x3db3c040	0.08776903
86	0xbd968850	-0.07350218
87	0x3cb3771d	0.021907384
88	0xbde2ef1a	-0.11080761
89	0xbcbfa7f4	-0.023395516
90	0xbd1e228a	-0.038607158
91	0xbcf02298	-0.02931337
92	0x3e2bf4e7	0.16792642
93	0x3e3eb88e	0.1862509
94	0x3e3786cd	0.17922516
95	0xbd3fb19a	-0.046800233
96	0x3dc6b0a5	0.09701661
97	0x3d8abb79	0.06774039
98	0xbd4843c8	-0.048892766
99	0x3de9c30a	0.11414154
100	0x3e2282a6	0.15870151
101	0x3da1eacb	0.07906111
102	0xbc39167a	-0.011296863
103	0x3daa75fc	0.08323285
104	0xbd814efa	-0.06313892
105	0x3e0b3d90	0.13597703
106	0xbd89ce1c	-0.06728765
107	0xbd0aac56	-0.03385576
108	0xbd8ab299	-0.06772346
109	0xbd90a65b	-0.0706298
110	0x3c640e10	0.013919368
111	0x3cc22092	0.023697171
112	0xbe0819d0	-0.13291097
113	0xbcc96d2a	-0.024588186
114	0x3e09501e	0.13409469
115	0xbc9df8a1	-0.019283595
116	0x3da7eee3	0.08199861
117	0x3e74d56a	0.23909536
118	0x3dd19247	0.10232978
119	0x3e2c5c0b	0.16831987
120	0x3d1086ad	0.035284687
121	0x3dc6e9b6	0.097125456
122	0x3d25975e	0.040427558
123	0x3d1bfc4b	0.038082402
124	0xbd609577	-0.05483004
125	0x3d3d0d04	0.04615499
126	0xbd87251d	-0.06598876
127	0x3b2ac761	0.002605878
128	0x3e0f467f	0.13991736
129	0x3dee9474	0.11649409
130	0x3d252a02	0.040323265
131	0xbd5d4c4b	-0.054027837
132	0xbd57b54e	-0.05266314
133	0xbcc5ca64	-0.024144359
134	0x3d2e3b5e	0.042537086
135	0x3d730ad0	0.059336483
136	0xbd91b78d	-0.07115088
137	0xbe171d29	-0.14757217
138	0xbd7c61e5	-0.061616797
139	0xbd99916d	-0.07498441
140	0x3a1b9987	0.0005935658
141	0xbe15f739	-0.14645089
142	0xbd5a1e0d	-0.053251315
143	0xbcbed548	-0.02329506
144	0xbdebd7b7	-0.11515754
145	0xbc718500	-0.014741182
146	0xbdbb5a90	-0.09148133
147	0x3db93774	0.0904378
148	0xbda1d053	-0.07901063
149	0xbb9c1904	-0.0047637243
150	0x3d54c5be	0.051946394
151	0xbd24bd42	-0.040219553
152	0x3c15d89c	0.009145882
153	0xbe02d8fe	-0.12778088
154	0xbdb377bd	-0.08763073
155	0xbdc08388	-0.094000876
156	0xbe203e57	-0.15648781
157	0x3cf90608	0.030398384
158	0xbd95980b	-0.073043905
159	0x3d8c8703	0.06861689
160	0x3db430f4	0.087983996
161	0xbe159534	-0.14607698
162	0x3c9f69fb	0.019459715
163	0xbdc8a29e	-0.09796642
164	0xbdb716e3	-0.08939912
165	0xbd657771	-0.05602211
166	0x3e0b5263	0.13605647
167	0x3df0eede	0.1176431
168	0xbd00cd73	-0.03144593
169	0x3e14cbf9	0.14530934
170	0xbd8f1972	-0.06987275
171	0xbe1f881e	-0.15579268
172	0x3d383600	0.044973373
173	0xbbc27ae1	-0.0059350585
174	0xbd805b47	-0.0626741
175	0xbd3ae193	-0.04562528
176	0x3d1981a2	0.037477143
177	0xbca0ddbb	-0.01963698
178	0xbd3b1c74	-0.045681432
179	0x3da2b379	0.07944388
180	0xbd54db3e	-0.0519669
181	0x3df9250f	0.121652715
182	0x3da7fd72	0.08202638
183	0x3d5e4f42	0.054274805
184	0xbdd91862	-0.10600354
185	0x3cb05b33	0.021527862
186	0xbe10eacd	-0.1415207
187	0xbd8edbc6	-0.06975512
188	0x3cc64ce1	0.02420658
189	0x3db5ffe0	0.08886695
190	0x3df3aba7	0.118979745
191	0x3e0ff6ef	0.14059041
192	0xbd8479ed	-0.06468568
193	0xbe2994fb	-0.16560738
194	0xbe0e346e	-0.13887188
195	0xbd2392b1	-0.039934818
196	0x3cc18599	0.023623275
197	0xbc9b5c64	-0.018964954
198	0xbdea238b	-0.114325605
199	0xbdd1ff6e	-0.102537975
200	0xbda50a1f	-0.08058571
201	0xbd642fda	-0.055709697
202	0xbd77eee3	-0.060530555
203	0x3d1dc901	0.03852177
204	0xbc6b9ce0	-0.014380664
205	0x3bf1b401	0.0073761945
206	0x3c11ac39	0.008891159
207	0x3beaf3b3	0.0071701645
208	0x3c6b28c0	0.014352977
209	0x3d488dd2	0.048963375
210	0xbc1f8a18	-0.009737514
211	0x3d2af463	0.04173697
212	0xbdd2d097	-0.102936916
213	0xbc88372d	-0.016627872
214	0xbd0f7386	-0.03502228
215	0x3c1e43e4	0.009659741
216	0x3ce64d35	0.028112987
217	0xbcfdd919	-0.03098731
218	0xbe008a5c	-0.1255278
219	0x3bd71216	0.0065634353
220	0xbddba7f5	-0.10725395
221	0x3cbad740	0.022807717
222	0xbd8b56cf	-0.06803667
223	0x3d34edc4	0.044172063
224	0xbcca6531	-0.024706455
225	0xbe8ec7e6	-0.27886885
226	0xbe3258cc	-0.17416686
227	0x3bd1a8e2	0.006398306
228	0xbd98aded	-0.07455049
229	0x3cb47b79	0.022031533
230	0x3e4f1771	0.20223786
231	0x3df34412	0.11878218
232	0x3e347643	0.17623238
233	0x3e1ad048	0.15118515
234	0xbd82713f	-0.06369256
235	0x3e1e1e2c	0.15441197
236	0x3d1093f4	0.03529735
237	0x3dda35be	0.10654782
238	0x3ddb5ee5	0.10711459
239	0x3e0b3a84	0.1359654
240	0xbdb3f3eb	-0.08786758
241	0x3d942807	0.07234197
242	0x3d4288d5	0.047493774
243	0xbdad4905	-0.08461193
244	0xbd5d42e9	-0.05401889
245	0x3dae92ea	0.085241154
246	0xbdc5bde8	-0.09655362
247	0xbd90dccc	-0.07073364
248	0x3d209917	0.039208498
249	0xbd5cf12c	-0.053940937
250	0x3d59d1dd	0.053178657
251	0x3d909ed5	0.07061545
252	0xbdef6bec	-0.11690506
253	0xbd3a3d0a	-0.045468368
254	0x3da3c84d	0.07997189
255	0xbc0e086f	-0.008669003

weights f4 [6, 1, 3, 1]
0	0x3f774106	0.9658359
1	0x3f91e50a	1.1398022
2	0xbd5293ce	-0.05141049
3	0x3f6f62a2	0.93509877
4	0x3f7ea0ac	0.99463916
5	0x3d4536d3	0.048147988
6	0x3f730485	0.9492877
7	0x3f85c816	1.0451686
8	0x3cef05ae	0.029177513
9	0x3f86781f	1.0505408
10	0x3f6cf2e3	0.92558116
11	0x3ca0062f	0.019534199
12	0x3f7bc923	0.98353785
13	0x3f8b50ca	1.088403
14	0xbe142d6d	-0.14470454
15	0x3f837c2b	1.0272268
16	0x3f88c5d3	1.0685371
17	0x3e3e3b4a	0.18577304

running_cov f4 [1, 6, 2, 2]
0	0x3f9e1954	1.235148
1	0xbe2aa660	-0.1666503
2	0xbe2aa660	-0.1666503
3	0x3fb5f92f	1.421667
4	0x3f8ad194	1.0845208
5	0x3d328854	0.043587044
6	0x3d328854	0.043587044
7	0x3f4ebe97	0.8075957
8	0x3f5bcd56	0.8586019
9	0x3de64692	0.11243929
10	0x3de64692	0.11243929
11	0x3f9d3c6c	1.2284064
12	0x3fe34399	1.7755004
13	0xbd0b903e	-0.034073107
14	0xbd0b903e	-0.034073107
15	0x3fad27c6	1.3527763
16	0x3fad0842	1.3518145
17	0xbdcebce7	-0.10094624
18	0xbdcebce7	-0.10094624
19	0x3faeb356	1.3648479
20	0x3fa5f469	1.2965213
21	0xbd449c0d	-0.048000384
22	0xbd449c0d	-0.048000384
23	0x3fa87c74	1.316298

weight f4 [6, 6, 5]
0	0xbe3b916d	-0.18317194
1	0x3dc1cb0b	0.094625555
2	0x3dc9ee2a	0.09859879
3	0xbdb380d7	-0.087648086
4	0x3dd32353	0.10309472
5	0xbe48dcaa	-0.19615427
6	0x3e18f0ba	0.1493558
7	0xbe132f84	-0.14373595
8	0x3dcf8d84	0.10134414
9	0xbcb9540f	-0.02262309
10	0xbe0f387f	-0.13986395
11	0xbd274629	-0.040838394
12	0x3a8bba99	0.0010660469
13	0xbc91ea47	-0.017811907
14	0xbdd91f43	-0.10601666
15	0xbd28837c	-0.04114102
16	0xbe453942	-0.19260123
17	0xbd24816d	-0.040162493
18	0xbe6cf566	-0.23140487
19	0xbe3888a3	-0.18020873
20	0x3df17e98	0.11791724
21	0x3c63e3a5	0.013909255
22	0x3dc06843	0.09394886
23	0x3da6bad3	0.08141103
24	0xbd9fcaf6	-0.078023836
25	0x3e2275e3	0.15865283
26	0x3d833f1b	0.06408521
27	0x3d4c177a	0.049827076
28	0x3ddba55c	0.10724899
29	0xbcdfd0fd	-0.027321333
30	0x3c90f419	0.01769452
31	0x3cdc755d	0.026911432
32	0xbd1c502b	-0.03816239
33	0xbd6cb01c	-0.05778514
34	0xbe0bfa4e	-0.13669702
35	0x3cbac1ad	0.02279743
36	0xbe289cf8	-0.16466129
37	0xbd800553	-0.062510155
38	0x3db35d20	0.087579966
39	0xbe531f5e	-0.20617434
40	0xbe09cfe9	-0.13458218
41	0x3d54d04b	0.051956456
42	0x3df0b658	0.11753529
43	0x3e364058	0.17797983
44	0xbdf4b82d	-0.11949191
45	0xbd31ad71	-0.043378297
46	0xbdfd4b0f	-0.12367832
47	0x3db899b1	0.09013689
48	0xbd2be69f	-0.041967984
49	0x3e4ac045	0.19799908
50	0xbe19c789	-0.15017523
51	0x3e2f9abb	0.17148869
52	0xbdfdd900	-0.12394905
53	0xbc96a66b	-0.018389901
54	0x3db72f04	0.089445144
55	0xbc083330	-0.008312985
56	0x3de68231	0.11255301
57	0x3e33911d	0.17535825
58	0xbda00bac	-0.07814726
59	0xbe3551e3	-0.17707019
60	0x3c6b7eac	0.014373463
61	0xbddf0a14	-0.10890594
62	0x3bf69353	0.0075248866
63	0x3e212db6	0.15740094
64	0x3c8c622f	0.017136661
65	0xbe0e13b5	-0.13874705
66	0xbe2889e8	-0.16458857
67	0xbdb5576d	-0.08854566
68	0x3d2d4d86	0.04231026
69	0xbd497d6b	-0.049191874
70	0x3d8b1da9	0.067927666
71	0xbe2c6171	-0.16834046
72	0x3d46b837	0.048515525
73	0xbe333317	-0.17499958
74	0x3e0a7a6e	0.13523266
75	0x3e1dc24c	0.1540615
76	0x3c3bfbb3	0.011473584
77	0x3e2e1f2d	0.1700408
78	0x3d809cbf	0.06279897
79	0x3d26b4b0	0.04069966
80	0x3e5f5ee9	0.21813549
81	0xbd458c40	-0.048229456
82	0x3dad27e5	0.08454875
83	0xbd0c3776	-0.03423258
84	0xbe29db04	-0.16587454
85	0xbd4a25f4	-0.0493526
86	0x3de47c32	0.11156501
87	0xbd12c8c7	-0.035836007
88	0xbe0022bb	-0.12513249
89	0x3d544447	0.051822927
90	0xbe3a3ab5	-0.18186457
91	0xbde41d9a	-0.111384585
92	0xbca03792	-0.019557748
93	0x3e065000	0.13116455
94	0x3df0caa6	0.11757402
95	0xbd470d04	-0.048596397
96	0xbcaa9c6a	-0.020826537
97	0x3dfa6d32	0.122278586
98	0xbdd50148	-0.10400635
99	0x3e53c317	0.2067989
100	0xbdcda703	-0.100416206
101	0xbcf49b63	-0.02985925
102	0xbcca8d2e	-0.024725523
103	0xbe3ba7f5	-0.1832579
104	0xbe7b3087	-0.2453023
105	0xbdda6065	-0.10662917
106	0x3d86fb10	0.06590855
107	0xbc43c5d3	-0.01194902
108	0xbdd333ac	-0.1031259
109	0xbdd48d1a	-0.103784755
110	0xbdcc2318	-0.09967631
111	0xb936eba9	-0.00017444663
112	0x3db6f65e	0.089337096
113	0x3d108522	0.035283215
114	0x3cb15276	0.021645766
115	0xbe1a2a3c	-0.15055174
116	0x3ddf21b8	0.10895103
117	0x3e3d7804	0.18502814
118	0x3e20c146	0.15698728
119	0x3e36df64	0.17858654
120	0xbd8e1be4	-0.069389135
121	0xbb7c5f9d	-0.0038509138
122	0x3d92703e	0.07150315
123	0xbe054cf5	-0.13017638
124	0xbca959c6	-0.02067269
125	0xbdc80097	-0.097657375
126	0x3d2d9b71	0.04238457
127	0x3d023d43	0.031796705
128	0xbdd55e5a	-0.10418387
129	0xbe26c12f	-0.16284631
130	0x3d3e9665	0.046530146
131	0xbd770f63	-0.06031741
132	0x3e0d2227	0.1378256
133	0xbcfedb19	-0.031110333
134	0xbe2b55b7	-0.16731916
135	0x3dd51e63	0.104061864
136	0xbd3629fb	-0.04447363
137	0x3e403a6e	0.18772289
138	0xbe102c9c	-0.14079517
139	0xbdbfc3d8	-0.09363526
140	0x3d5c3b5c	0.053767547
141	0x3e262ff8	0.16229236
142	0xbe07ab2d	-0.13248892
143	0xbd5a86d2	-0.05335123
144	0x3e09bde0	0.13451338
145	0xbdaa2493	-0.08307757
146	0xbe15e23d	-0.14637084
147	0xbe0644a0	-0.13112116
148	0xbde98a54	-0.11403337
149	0x3e13a7e1	0.1441951
150	0xbe0d401b	-0.13793986
151	0x3d390cc9	0.04517821
152	0xbe64aeaf	-0.22332262
153	0xbe445a6f	-0.19175123
154	0xbdcd8efe	-0.10037039
155	0xbd49ead3	-0.04929621
156	0x3d95c061	0.07312084
157	0x3d602a74	0.054727986
158	0x3e13e1ad	0.14441557
159	0xbdc89f20	-0.09795976
160	0x3cee6cff	0.029104708
161	0x3dc467c7	0.095901065
162	0x3d9a27ff	0.0752716
163	0xbe03e1ba	-0.12879077
164	0x3e5301eb	0.206062
165	0xbcc66701	-0.024219038
166	0x3e0ddcea	0.13853803
167	0xbd5fef2b	-0.054671448
168	0xbdceb9c4	-0.10094026
169	0x3c5767d7	0.013147316
170	0x3dee4b04	0.11635402
171	0xbd491ae8	-0.049097925
172	0xbdba85c6	-0.091075465
173	0x3dab0fa7	0.08352595
174	0xbd2974f3	-0.041371297
175	0x3e116a8e	0.14200804
176	0x3dce25fe	0.1006584
177	0xbdbab00f	-0.09115612
178	0xbcbadd5e	-0.022810634
179	0x3d05dffd	0.032684315

weight f4 [6, 6, 5]
0	0x3de22498	0.11042136
1	0x3e027ca2	0.12742856
2	0xbdda44b1	-0.10657633
3	0xbe1931cf	-0.14960407
4	0xbe03a083	-0.12854199
5	0x3d0aec7b	0.03391693
6	0xbe02dd05	-0.12779625
7	0x3c50df40	0.012748539
8	0x3e11427f	0.14185522
9	0x3d4d9dea	0.050199427
10	0xbb4a0b9d	-0.0030829676
11	0x3e147997	0.14499508
12	0x3d86dda9	0.06585247
13	0x3dbdb85d	0.0926368
14	0xbd9b4597	-0.075816326
15	0x3c4a2e2f	0.012340113
16	0xbe0873a0	-0.13325357
17	0x3d9d670d	0.07685671
18	0xbd064c9d	-0.032787908
19	0x3d82267b	0.06354996
20	0xbd816c2d	-0.06319461
21	0x3d703807	0.05864718
22	0xbe17c41d	-0.14820905
23	0x3d1d0ffa	0.038345315
24	0xbd8c8f81	-0.06863309
25	0x3bdd9fd4	0.0067634378
26	0x3e6794ee	0.22615406
27	0x3e1e333a	0.15449229
28	0xbd677f23	-0.05651773
29	0x3e1fd1c7	0.15607367
30	0xbcf1ca6a	-0.029515464
31	0x3da30b6e	0.079611644
32	0xbe05d6d6	-0.13070235
33	0x3b9bc4d8	0.00475369
34	0x3e822676	0.25419968
35	0x3d90815c	0.07055923
36	0xbddccc32	-0.10781135
37	0x3db533a3	0.088477395
38	0x3d849310	0.064733624
39	0xbd2e1883	-0.042503845
40	0xbdbb49da	-0.091449454
41	0xba7bdb2c	-0.00096075493
42	0x3cdab3f5	0.026697138
43	0x3e0254b3	0.12727623
44	0xbe4dbd35	-0.20091708
45	0xbe41ff50	-0.1894505
46	0x3d22e6cf	0.039770897
47	0xbc6d3893	-0.01447882
48	0x3c97ce8c	0.018531106
49	0x3cbcf10b	0.023064157
50	0xbde500a1	-0.111817606
51	0xbe08af30	-0.13348079
52	0xbde43a6e	-0.11143957
53	0xbe00f8ce	-0.12594911
54	0xbd3cb0bd	-0.04606699
55	0xbe1320ce	-0.14367983
56	0x3df393ab	0.118934
57	0x3d5c3576	0.05376192
58	0xbdb3e6f8	-0.08784288
59	0x3d9b79d7	0.075915985
60	0x3df81a66	0.1211441
61	0xbd970b81	-0.07375241
62	0xbe5070da	-0.2035555
63	0x3e324f7e	0.17413136
64	0x3beb1000	0.007173538
65	0xbd83bc05	-0.06432346
66	0x3e54cf53	0.20782213
67	0xbcc01f94	-0.023452558
68	0xbe0f176d	-0.1397378
69	0x381f6634	3.8003738e-05
70	0x3e4fd23d	0.20295043
71	0x3e1c2625	0.15248926
72	0x3dad3260	0.08456874
73	0x3d5581f0	0.05212587
74	0xbdd901a8	-0.10596019
75	0xbd0795a4	-0.033101693
76	0xbe163c71	-0.14671494
77	0x3d64c153	0.05584843
78	0xbe6c5992	-0.23081043
79	0x3e0ca1a1	0.13733532
80	0x3c5b9e66	0.013404464
81	0x3d267080	0.040634632
82	0x3d6f6ffe	0.058456413
83	0x3b97e7c4	0.004635783
84	0x3db33c0d	0.08751688
85	0x3e1d8ba0	0.15385294
86	0x3cfe6cb1	0.031057687
87	0x3c98e861	0.018665494
88	0xbdd938c2	-0.10606529
89	0xbe069a0a	-0.13144699
90	0xbcfbf698	-0.030757234
91	0x3e2d2fef	0.16912816
92	0x3d9321bb	0.07184168
93	0x3d880bab	0.066428505
94	0x3d77ab36	0.060466014
95	0x3de86c27	0.113487534
96	0x3d8f47ff	0.06996154
97	0x3d1717ed	0.03688805
98	0xbd63d000	-0.055618286
99	0xbde9fe49	-0.11425454
100	0xbd1c2aac	-0.038126633
101	0x3e031f0a	0.12804809
102	0xbdb04927	-0.08607703
103	0x3de124f6	0.10993378
104	0x3e134183	0.1438046
105	0xbddca4ff	-0.10773658
106	0xbe454aed	-0.19266863
107	0x3e061e5e	0.13097522
108	0xbdfe8dd7	-0.124293976
109	0x3e1ecf89	0.15508856
110	0xbe3603ca	-0.17774883
111	0xbd4974b6	-0.04918357
112	0xbe2aec3e	-0.16691682
113	0xbe396604	-0.18105322
114	0xbd618c4c	-0.05506544
115	0xbd95f7eb	-0.07322677
116	0xbe1d22e0	-0.15345335
117	0xbcddfc12	-0.027097736
118	0x3ddb1a9d	0.106984355
119	0xbd95db90	-0.07317269
120	0x3c808b2d	0.015691364
121	0xbd205940	-0.039147615
122	0xbe36b1e2	-0.17841294
123	0x3d7b6896	0.061379038
124	0xbe20e6e3	-0.15713076
125	0xbe363869	-0.17794956
126	0xbe179e67	-0.1480652
127	0x3e77bc97	0.24193035
128	0x3e820156	0.25391644
129	0x3e734ae9	0.23759045
130	0x3d92e9d5	0.07173506
131	0xbd1caee2	-0.03825272
132	0x3e14447c	0.1447925
133	0xbd2585a1	-0.04041064
134	0xbd14f5bf	-0.036367174
135	0xbdaa0134	-0.08301011
136	0x3e0171e2	0.12641099
137	0x3d17e856	0.037086807
138	0xbe05f918	-0.13083303
139	0xbdf06f53	-0.117399834
140	0x3ce1a314	0.027543582
141	0x3e09139a	0.13386384
142	0xbe27220c	-0.16321582
143	0x3e2fac29	0.17155518
144	0x3d1f8e93	0.03895433
145	0x3e16964a	0.14705768
146	0x3d9f7f76	0.07787983
147	0xbd97dbfc	-0.074150056
148	0x3d86b06c	0.065766186
149	0x3e50a7da	0.2037653
150	0x3d07a111	0.03311259
151	0xbe7c11f8	-0.2461623
152	0x3dba7ace	0.091054544
153	0xbe8a7d11	-0.27048543
154	0xbe494ac9	-0.19657435
155	0xbaaecfad	-0.0013337039
156	0xbe3009ee	-0.17191288
157	0x3da2005f	0.07910227
158	0x3dbb0976	0.09132664
159	0xbdd17ef6	-0.10229294
160	0x3dcb82ab	0.09937032
161	0xbdbe8eab	-0.093045555
162	0xbd86889e	-0.065690264
163	0xbde29840	-0.11064196
164	0x3c9dfbe2	0.019285146
165	0x3e093820	0.13400316
166	0xbdff0f2e	-0.12454067
167	0x3cc7993d	0.024365062
168	0xbd3d46bf	-0.046210047
169	0x3dced907	0.100999884
170	0xbe22e693	-0.1590827
171	0xbdd1591d	-0.10222075
172	0x3e3f4bbb	0.18681233
173	0xbdb6b048	-0.08920342
174	0x3e28d9a5	0.16489275
175	0x3c0d2cd3	0.008616644
176	0x3e0e918d	0.1392271
177	0xbce680d3	-0.0281376
178	0x3dba6775	0.09101764
179	0xbe2125ad	-0.15737028

weights f4 [6, 1, 3, 1]
0	0x3f7108c2	0.9415399
1	0x3f78fa28	0.9725671
2	0xbd58bff0	-0.05291742
3	0x3f72f339	0.9490238
4	0x3f80284e	1.00123
5	0xbd131786	-0.035911106
6	0x3f7b9e88	0.98288774
7	0x3f7ee29c	0.9956453
8	0xbb6770b3	-0.0035314977
9	0x3f899d8e	1.0751207
10	0x3f7376c0	0.95103073
11	0x3c9b66ff	0.01897001
12	0x3f8655c6	1.0494926
13	0x3f80a78f	1.0051135
14	0xbe5a5bf2	-0.21324137
15	0x3f78feed	0.97263986
16	0x3f8ab7ae	1.0837305
17	0x3e3d49af	0.1848514

running_cov f4 [1, 6, 2, 2]
0	0x3feb08a3	1.8362011
1	0xbeea0744	-0.45708668
2	0xbeea0744	-0.45708668
3	0x4006d653	2.1068313
4	0x4013e1ca	2.310656
5	0xbe9bc398	-0.30422664
6	0xbe9bc398	-0.30422664
7	0x4003ebe6	2.061273
8	0x3fe7f29c	1.8120914
9	0x3dab51d6	0.08365218
10	0x3dab51d6	0.08365218
11	0x3fe16256	1.7608135
12	0x3fd587c4	1.6682057
13	0x3d0b4102	0.033997543
14	0x3d0b4102	0.033997543
15	0x3faab3f2	1.3336165
16	0x3fb91831	1.4460508
17	0xbdb2c7f4	-0.08729544
18	0xbdb2c7f4	-0.08729544
19	0x3fed5698	1.8542051
20	0x3f9651a2	1.1743662
21	0xbcca2656	-0.024676483
22	0xbcca2656	-0.024676483
23	0x3f99b21c	1.200748

weight f4 [6, 6, 3]
0	0x3e54d54b	0.2078449
1	0x3dcb7fdd	0.09936497
2	0x3e4d0063	0.20019679
3	0x3e37054d	0.17873116
4	0x3dc12c7f	0.09432315
5	0xbe4fcd4c	-0.20293158
6	0xbdf11a01	-0.11772538
7	0xbd86cc70	-0.06581962
8	0xbde1464b	-0.109997354
9	0xbe6fccfa	-0.23418036
10	0xbe1a2266	-0.15052184
11	0xbd6ffb41	-0.058589224
12	0xbcfaa91b	-0.030598214
13	0xbdfabbc8	-0.12242848
14	0x3dee9861	0.11650158
15	0xbda86a0f	-0.08223354
16	0x3da73223	0.0816386
17	0x3d9ec208	0.07751852
18	0xbe4efd11	-0.20213725
19	0xbd0315e2	-0.03200329
20	0xbe02e41e	-0.12782332
21	0xbe4c4602	-0.19948581
22	0x3da6eb50	0.08150351
23	0xba78582f	-0.00094735896
24	0xbe5379c7	-0.20651923
25	0x3d9242fc	0.071416825
26	0xbe5e9ccc	-0.21739501
27	0xbd71a667	-0.058996584
28	0x3d4b61cd	0.049653817
29	0xbd7f52fc	-0.062335
30	0x3e4122fe	0.18861005
31	0xbdc9c274	-0.09851542
32	0xbe5af176	-0.21381173
33	0x3e1cee4d	0.1532528
34	0x3de4d688	0.11173731
35	0xbe644c45	-0.2229472
36	0x3e5853e3	0.2112575
37	0xbe298ad2	-0.16556862
38	0x3e50805b	0.20361464
39	0xbe3f6091	-0.18689181
40	0x3e371ee4	0.17882878
41	0x3e326a52	0.1742337
42	0xbd8e523b	-0.06949278
43	0xbda86040	-0.08221483
44	0xbc6cf4dc	-0.014462676
45	0x3e14a9b9	0.14517869
46	0x3d9b88cb	0.075944506
47	0x3e2cc34e	0.16871378
48	0x3e064230	0.13111186
49	0x3ce1c106	0.027557861
50	0x3e974443	0.29544267
51	0xbd95e885	-0.0731974
52	0x3d895d73	0.06707277
53	0xba6bdbe9	-0.0008997308
54	0xbe462013	-0.19348173
55	0xbcd268ee	-0.0256848
56	0xbc55d297	-0.013050697
57	0x3dbbc5cb	0.091685854
58	0xbe6ecbc4	-0.23319918
59	0xbe0e0be0	-0.13871717
60	0xbd01ea5b	-0.03171764
61	0xbd9fc8e1	-0.078019865
62	0x3e16a2e5	0.14710577
63	0xbd6c3cad	-0.057675052
64	0xbd195dfa	-0.03744314
65	0x3e39411b	0.18091242
66	0xbd5cc128	-0.053895146
67	0x3e0c05e8	0.13674128
68	0x3cbd21e1	0.023087444
69	0x3e2d44be	0.16920754
70	0xbc9a2ad9	-0.01881926
71	0xbd1c7f9e	-0.038207643
72	0xbd0be641	-0.034155134
73	0x3e55ba7c	0.2087192
74	0xbe3fba5c	-0.18723434
75	0xbc6b3e63	-0.014358136
76	0x3dddfe42	0.108395115
77	0x3d35ecc4	0.04441525
78	0x3c55e5fa	0.013055319
79	0xbdb95dad	-0.0905107
80	0xbe458511	-0.19289042
81	0xbe058d7a	-0.1304225
82	0x3e80d6dc	0.25163925
83	0xbdc5b7f7	-0.09654229
84	0xbe04d8e5	-0.12973364
85	0x3def65e5	0.11689357
86	0xbd8aa5bd	-0.06769893
87	0xbd3d8b40	-0.046275377
88	0xbe577ece	-0.21044466
89	0xbd55ab50	-0.05216533
90	0xbe7c147a	-0.24617186
91	0x3bdcd1c0	0.0067388713
92	0x3d2850e5	0.041092772
93	0x3d378ba4	0.044810906
94	0x3e152b58	0.14567316
95	0xbe174ce8	-0.14775431
96	0xbe784f33	-0.24248962
97	0xbe0d2e93	-0.13787298
98	0xbe50298c	-0.20328349
99	0x3de91f7f	0.113829605
100	0xbe7c24a6	-0.24623355
101	0x3d3bcde6	0.045850657
102	0xbd8b56a3	-0.06803634
103	0x3e310ae8	0.17289317
104	0x3ded9ec4	0.11602548
105	0xbc5eec85	-0.013606195
106	0x3e710d92	0.23540333
107	0xbc235bf5	-0.009970655

weight f4 [6, 6, 3]
0	0xbe1e5d59	-0.15465297
1	0xbdf61694	-0.12016025
2	0x3de9b54e	0.11411534
3	0x3e58ed5a	0.21184292
4	0x3df6c8cf	0.1205002
5	0x3d8fb398	0.07016677
6	0x3e0bbde4	0.13646656
7	0x3e414e73	0.18877582
8	0xbca79cff	-0.020460604
9	0x3e35ab28	0.17741072
10	0x3e1694d1	0.14705206
11	0x3db8ae62	0.09017636
12	0xbe9b1cc1	-0.30295375
13	0x3e27d57c	0.16390032
14	0xbe6d9359	-0.2320074
15	0xbe47d9e4	-0.19516712
16	0xbe830692	-0.2559095
17	0xbe60a8b4	-0.21939355
18	0x3e68cf1d	0.22735257
19	0xbe254dc3	-0.16142945
20	0x3c79ccd2	0.015246587
21	0x3e652151	0.2237599
22	0xbd823385	-0.06357483
23	0xbe76428c	-0.24048823
24	0xbdbe53fa	-0.09293361
25	0x3e000267	0.12500916
26	0x3dc6062b	0.09669145
27	0xbc0ebb5e	-0.008711664
28	0xbdc23441	-0.09482623
29	0xbcddc768	-0.027072623
30	0x3e178481	0.1479664
31	0x3dd62de8	0.10457975
32	0xbd8f6149	-0.070009775
33	0xbd9556c2	-0.07291938
34	0xbe12b44d	-0.14326592
35	0x3d18c59b	0.037297826
36	0xbd2db95d	-0.042413104
37	0xbe30de55	-0.17272313
38	0xbdcd9026	-0.1003726
39	0xbd8cb110	-0.068697095
40	0xbd6f2134	-0.058381274
41	0xbd1f6dfa	-0.03892324
42	0xbd41d350	-0.047320664
43	0xbe27baae	-0.16379806
44	0xbde77e95	-0.113034405
45	0xbe3741a6	-0.17896137
46	0xbe47bdf8	-0.19506061
47	0xbd29d40b	-0.041461986
48	0xbe21814e	-0.15771982
49	0x3db21906	0.08696179
50	0xbdd5c2c6	-0.10437541
51	0x3dffb5b5	0.1248583
52	0xbddebbbc	-0.10875651
53	0xbe2402d1	-0.160167
54	0x3cced80d	0.025249505
55	0x3e859724	0.26091874
56	0xbb975175	-0.0046178647
57	0x3d671fc3	0.056426775
58	0x3d5e9ead	0.054350544
59	0x3e0155b6	0.12630352
60	0xbd403ca2	-0.046932824
61	0xbc40a220	-0.011757404
62	0x3e03914a	0.12848392
63	0xbe1936e0	-0.1496234
64	0x3c8d3863	0.017238801
65	0x3d82c2c7	0.06384807
66	0x3d8d02ce	0.068853006
67	0xbcaae797	-0.020862384
68	0xbe2347c1	-0.1594534
69	0x3ce09c60	0.027418315
70	0xbd9c9bd9	-0.07646913
71	0x3d37a356	0.044833504
72	0xbe752831	-0.23941113
73	0x3cc4d2d0	0.024026304
74	0xbe26c4fb	-0.1628608
75	0xbe1071b8	-0.1410588
76	0xbd98884f	-0.07447874
77	0xbd2d080a	-0.042243995
78	0x3e7d7bdb	0.24754278
79	0x3e4b2f63	0.19842295
80	0x3e3de3d3	0.1854394
81	0xbe3b70a1	-0.18304683
82	0x3d813a6a	0.0630997
83	0xbd8eb9d5	-0.069690384
84	0xbddcd132	-0.10782088
85	0xbe0d22d0	-0.13782811
86	0x3daf8c6b	0.085717045
87	0x3e627d96	0.2211822
88	0xbd83e6d3	-0.064405106
89	0x3db8948f	0.0901271
90	0xbd924a51	-0.07143081
91	0xbd2abe1e	-0.041685216
92	0xbe4f1470	-0.2022264
93	0xbe605dd7	-0.21910797
94	0xbcb0911d	-0.02155357
95	0x3e5a85b1	0.21340062
96	0x3dba3fbe	0.09094189
97	0xbcd214b7	-0.025644643
98	0xbd0df0f0	-0.034653604
99	0x3e10366a	0.14083257
100	0x3daffae1	0.08592773
101	0x3d0d01e1	0.03442562
102	0x3e24edf1	0.16106392
103	0xbd7ad149	-0.061234746
104	0x3da68f65	0.08132819
105	0x3e4e8880	0.20169258
106	0xbd80fd8d	-0.06298361
107	0xbd50835b	-0.05090652

weights f4 [6, 1, 3, 1]
0	0x3f85b121	1.044468
1	0x3f57c709	0.8428808
2	0xbd990bbe	-0.07472943
3	0x3f847f64	1.0351377
4	0x3f70e9a5	0.94106513
5	0x3daddeb4	0.08489743
6	0x3f7a2ada	0.97721636
7	0x3f7f43e4	0.9971297
8	0xbd98e7f9	-0.0746612
9	0x3f8593f5	1.0435778
10	0x3f7c4afc	0.9855192
11	0xbe1ce4d7	-0.1532167
12	0x3f7cd135	0.98756725
13	0x3f874ac8	1.0569696
14	0xbaf3f129	-0.00186113
15	0x3f5be35f	0.85893816
16	0x3f8b36e3	1.0876125
17	0x3e28a0f5	0.1646765

running_cov f4 [1, 6, 2, 2]
0	0x3f8d0cb4	1.1019502
1	0x3e14d02f	0.1453254
2	0x3e14d02f	0.1453254
3	0x3f9422f8	1.1573172
4	0x40022d10	2.0340004
5	0x3c467584	0.012112979
6	0x3c467584	0.012112979
7	0x4007f14d	2.1241028
8	0x3fc07dfa	1.5038445
9	0x3ecac1f0	0.39601088
10	0x3ecac1f0	0.39601088
11	0x3ffb1f6a	1.9618962
12	0x3fe9a818	1.8254423
13	0xbe409981	-0.18808557
14	0xbe409981	-0.18808557
15	0x400964dc	2.146781
16	0x3fd31e8f	1.6493701
17	0xbcd1be8b	-0.025603553
18	0xbcd1be8b	-0.025603553
19	0x3fbbe563	1.4679378
20	0x3fea3ca8	1.8299761
21	0xbd3a232a	-0.04544369
22	0xbd3a232a	-0.04544369
23	0x400b5090	2.1767921

weight f4 [1, 6, 1]
0	0xbe90363f	-0.28166386
1	0x3e82637b	0.25466523
2	0x3ec45a1a	0.38349992
3	0xbe3c539b	-0.18391268
4	0xbe5eade5	-0.21746023
5	0x3e8e9922	0.27851206

weight f4 [1, 6, 1]
0	0xbe29f3fa	-0.16596976
1	0x3da4f91e	0.08055328
2	0xbd3024e7	-0.043003943
3	0x3eca7f6a	0.39550334
4	0xbdbcc843	-0.092178844
5	0xbd890108	-0.0668965

weights f4 [1, 1, 3, 1]
0	0x3f95168e	1.1647508
1	0x3f90cd26	1.1312606
2	0x3dbcc69a	0.09217568

running_cov f4 [1, 1, 2, 2]
0	0x3f8be567	1.0929383
1	0x3db1ccf0	0.08681667
2	0x3db1ccf0	0.08681667
3	0x3f78b94c	0.9715774

weight f4 [6, 6, 7]
0	0xbdea769a	-0.11448403
1	0x3de13d28	0.10997993
2	0x3cc74878	0.024326548
3	0x3ddf04be	0.108895764
4	0x3df4eaa6	0.11958818
5	0x3d2c4ef4	0.042067483
6	0x3d72e813	0.059303354
7	0x3e08a03a	0.13342372
8	0xbd5810ad	-0.05275028
9	0xbdfdd9ec	-0.12395081
10	0xbe62ad4e	-0.22136423
11	0x3d976663	0.073925756
12	0x3de6a1a3	0.112612985
13	0xbc82fc18	-0.015989348
14	0x3d776979	0.06040332
15	0x3d6cea70	0.057840765
16	0xbe1112d8	-0.14167345
17	0xbd731b27	-0.059352066
18	0xbe09b4b4	-0.13447839
19	0xbdbcf6e3	-0.092267774
20	0x3d405b98	0.04696235
21	0xbdcbf7e8	-0.09959394
22	0xbd9795b8	-0.074016035
23	0x3a05a4d9	0.00050981116
24	0xbda66f6a	-0.08126719
25	0xbd5858d8	-0.052819103
26	0xbb5d53bf	-0.003377184
27	0x3e0988b5	0.13431056
28	0x3d841216	0.06448762
29	0xbd7418b6	-0.05959388
30	0x3ddcee6a	0.107876614
31	0x3dd9ff0d	0.1064435
32	0xbc42162b	-0.011846106
33	0x3cd3b83f	0.025844691
34	0xbda69e84	-0.08135703
35	0x3e1854f9	0.14876164
36	0xbdb3c2a3	-0.087773584
37	0x3e010ea9	0.12603249
38	0x3e60bbdf	0.21946667
39	0x3e2626bf	0.16225718
40	0xbd95dc41	-0.07317401
41	0x3d51391e	0.05107986
42	0xbdd127b9	-0.102126546
43	0x3d82edef	0.063930385
44	0x3d9a7bab	0.07543119
45	0xbd867cbb	-0.06566759
46	0x3df32802	0.11872865
47	0x3c5f6d08	0.013636835
48	0x3e104288	0.1408788
49	0x3de10365	0.109869756
50	0x3e180786	0.1484662
51	0x3e3127cc	0.17300338
52	0x3de7daf2	0.113210574
53	0xbd843e79	-0.06457228
54	0x3e049aa8	0.12949622
55	0xbd5c07bc	-0.053718314
56	0x3d88e0f6	0.06683533
57	0xbe4e8064	-0.20166165
58	0x3db16d70	0.08663452
59	0x3cd4357f	0.025904415
60	0xbe5310c1	-0.2061186
61	0x3dd501bc	0.104007214
62	0x3e0ce79f	0.13760231
63	0x3e3a4d0b	0.18193452
64	0x3ac59e25	0.0015077038
65	0xbdc5ad77	-0.096522264
66	0x3e1fa150	0.1558888
67	0x3e31ecc7	0.1737548
68	0xbe24c7dc	-0.16091865
69	0xbd74704e	-0.059677415
70	0x3e137edd	0.14403863
71	0xbc91c026	-0.017791819
72	0xbe160707	-0.14651118
73	0xbe24ddd7	-0.1610025
74	0x3d992b34	0.074789435
75	0xbdd637fd	-0.10459898
76	0xbe38531a	-0.1800045
77	0x3c260bc1	0.010134638
78	0xbe009de3	-0.12560229
79	0x3db5ad37	0.08870929
80	0xbdb1c3f0	-0.0867995
81	0xbdb344a5	-0.08753327
82	0x3d0c8169	0.034303103
83	0x3d0f5feb	0.035003584
84	0xbdb05613	-0.08610167
85	0x3dde7212	0.10861601
86	0x3db7bff0	0.08972156
87	0x3d94a802	0.072586074
88	0xbe010002	-0.12597659
89	0xbc89f937	-0.016842468
90	0xbdac83ae	-0.084235534
91	0xbdc6f24e	-0.09714185
92	0xbe10f87d	-0.14157291
93	0xbd44c584	-0.048039928
94	0x3e035495	0.12825234
95	0xbd3589d4	-0.044320896
96	0x3ad722d6	0.001641358
97	0xbe3d7a4c	-0.18503684
98	0x3cca7d3d	0.024717921
99	0x3dc810f0	0.097688556
100	0x3c46dd63	0.012137744
101	0x3e05620c	0.13025683
102	0xbc0df0fa	-0.00866341
103	0x3cd32f5f	0.025779424
104	0x3db64fea	0.08901961
105	0xbdb01318	-0.08597392
106	0x3d416a23	0.04722036
107	0x3dc49c5b	0.09600135
108	0x3d5ff925	0.054680962
109	0xbe29fdd4	-0.16600734
110	0x3dffcde8	0.124904454
111	0x3bd5e967	0.006528068
112	0x3d828d3e	0.06374596
113	0xbd6656ab	-0.056234997
114	0xbcd54015	-0.026031533
115	0xbcb0fa0c	-0.021603607
116	0xbcd6c313	-0.026216066
117	0xbe0858d7	-0.1331514
118	0xbe0576cc	-0.13033599
119	0xbe235f35	-0.15954287
120	0xbcac5f7a	-0.02104162
121	0x3d8ad70a	0.06779297
122	0x3d79f55f	0.06102502
123	0xbc9635c9	-0.018336194
124	0x3d339fa3	0.043853413
125	0xbe23c776	-0.15994057
126	0xbd0044b0	-0.031315506
127	0x3dfb9b96	0.12285535
128	0xbd885dd5	-0.06658522
129	0x3cbbdcc2	0.022932414
130	0xbd4c2d1c	-0.049847707
131	0xbe4fafa2	-0.20281842
132	0xbd8ea406	-0.06964879
133	0x3d65f2fb	0.056139927
134	0xbd3e2ffe	-0.046432488
135	0xbb0480d4	-0.002021839
136	0xbdc6ac02	-0.09700777
137	0x3debf23b	0.11520811
138	0xbe2372f4	-0.1596182
139	0xbe95bc07	-0.29245016
140	0xbdf59591	-0.11991418
141	0xbc835a8f	-0.016034393
142	0xbde51397	-0.11185377
143	0xbe017f24	-0.12646157
144	0x3e25f767	0.16207658
145	0xbdedf845	-0.11619619
146	0x3d20c706	0.039252304
147	0xbcdb7b75	-0.026792267
148	0xbdabad7a	-0.083826974
149	0xbdc96b4a	-0.09834917
150	0xbde0b95f	-0.10972857
151	0x3dabe2e5	0.08392886
152	0x3e23931d	0.15974088
153	0x3e226366	0.1585823
154	0xbd0e3278	-0.0347161
155	0xbdfd6e4d	-0.12374554
156	0xbdfbfafa	-0.12303729
157	0xbd1c8c0d	-0.0382195
158	0xbdf6422a	-0.120243385
159	0xbc9dd564	-0.019266792
160	0x3d8ab85a	0.067734435
161	0x3c9ca8e4	0.019123502
162	0xbd6d6699	-0.057959173
163	0x3e1455ac	0.14485806
164	0x3d9b8da7	0.075953774
165	0xbe07734a	-0.13227573
166	0xbde0ef81	-0.10983182
167	0xbe32ebea	-0.17472807
168	0x3d97b0ef	0.07406794
169	0x3d9e8594	0.07740322
170	0x3d05d638	0.032674998
171	0x3e1aa112	0.15100506
172	0x398bf5b4	0.0002669521
173	0x3c7d2686	0.015451079
174	0xbdd6a229	-0.10480148
175	0xbdfcb2f0	-0.12338817
176	0x3e359762	0.17733529
177	0xbcc72d57	-0.024313612
178	0xbda76493	-0.0817348
179	0x3c45ca7a	0.0120722
180	0xbe6c0c98	-0.23051679
181	0x3d351a17	0.044214334
182	0xbe529682	-0.20565227
183	0xbd58647a	-0.052830197
184	0x3d331131	0.043717567
185	0x3df2116a	0.11819728
186	0x3e2d520f	0.16925834
187	0x3c075a19	0.008261227
188	0xbd811bf7	-0.06304162
189	0xbcc1f27b	-0.023675194
190	0xbd21488f	-0.039375838
191	0xbcda7fb1	-0.026672216
192	0x3db545c2	0.08851196
193	0x3dc8a2d6	0.097966835
194	0x3d3e14c8	0.046406537
195	0xbd747354	-0.059680298
196	0x3b9fb8a2	0.004874305
197	0xbda2c058	-0.07946843
198	0xbd0aa4ea	-0.03384868
199	0xbcee561f	-0.0290938
200	0x3d23f2b4	0.04002638
201	0xbdbf0eba	-0.09328981
202	0xbdabaa3e	-0.083820805
203	0xbc9821b7	-0.018570764
204	0xbd468784	-0.04846908
205	0xbd4f8f7b	-0.050673943
206	0x3e39a274	0.18128377
207	0x3ddaa145	0.10675291
208	0x3d0464b2	0.032322593
209	0x3ca330d0	0.019920737
210	0x3cbc9abf	0.023023007
211	0xbe2a8f41	-0.1665621
212	0x3d7f5f95	0.062347014
213	0x3cad1b19	0.021131085
214	0xbe1dfc65	-0.15428312
215	0x3dad40d6	0.08459632
216	0x3de23f44	0.11047223
217	0x3e21eb02	0.15812305
218	0xbddfc5fd	-0.10926435
219	0xbe34b0c2	-0.17645553
220	0xbe1d75a6	-0.1537691
221	0x3d211868	0.039329916
222	0x3d94fa62	0.07274319
223	0xbdb65ca6	-0.0890439
224	0x3da52e71	0.080654986
225	0xbceca747	-0.028888358
226	0xbe1d2dd5	-0.15349515
227	0xbde73e62	-0.112911955
228	0xbe4ac281	-0.1980076
229	0x3df1c47e	0.11805056
230	0xbdaf3be4	-0.08556345
231	0xbdf3b8bc	-0.1190047
232	0xbd5394a8	-0.05165544
233	0xbd4601a4	-0.04834141
234	0xbd50b74e	-0.050956063
235	0x3c9f05fb	0.019412031
236	0xbe25b46c	-0.16182107
237	0xbd8add21	-0.06780458
238	0x3cfe33f4	0.031030633
239	0xbd6fd2b9	-0.05855057
240	0x3e1459e0	0.1448741
241	0x3d02b70a	0.03191284
242	0x3e13c4a8	0.14430487
243	0x3b82fb86	0.003997269
244	0xbc903844	-0.017604955
245	0xbd5b6a69	-0.053568278
246	0x3d1d7c99	0.038448904
247	0xbca1b781	-0.019740822
248	0x3d57dd2a	0.052701153
249	0xbe2ca90f	-0.16861366
250	0x3dc8b99b	0.098010264
251	0xbca363c4	-0.019945033
