Homography_Trained_Model/E2EMP_UL1_20.pth (torch, 885260 bytes, 291 tensors)

weight f4 [1, 1, 1, 7]
000000 75 e8 bb bd ae b5 0f 3d 74 70 23 bd cb a2 00 3d
       -0.09175197 0.035085373 -0.039902166 0.03140525
000010 4b 20 a0 3d 04 0f f6 3e 1e 41 30 be
       0.078186594 0.4805833 -0.1721234

weight f4 [1, 1, 1, 7]
000000 82 00 f8 3d fe 12 d5 3d 55 2e 83 3e fe a4 28 be
       0.12109472 0.10404013 0.25621286 -0.1646919
000010 0b 5a 07 3d fe fb 84 3e 9b c5 5d be
       0.033044856 0.25973505 -0.21657412

weight f4 [1, 3]
000000 00 38 b2 3f bf a1 b8 3f ce bc fc bd
       1.392334 1.4424361 -0.12340699

bias f4 [1, 2]
000000 db 0a 2c 3c fc 1f b8 bc
       0.010500635 -0.022476189

running_covar f4 [1, 3]
000000 d4 ff 3f 3b 26 93 45 3b d6 48 67 b9
       0.0029296773 0.0030147522 -0.0002205701

weight f4 [1, 1, 5, 1]
000000 67 27 5c be f1 fb e0 3e 5c 73 f4 be 6f 34 d3 be
       -0.21499406 0.43942216 -0.47744262 -0.4125094
000010 48 37 a7 be
       -0.32659364

weight f4 [1, 1, 5, 1]
000000 86 27 88 be 55 54 61 be 1d b8 d5 be 6c 27 b2 3e
       -0.26592654 -0.22004826 -0.4174203 0.34795702
000010 85 bc d8 3c
       0.02645708

weight f4 [1, 3]
000000 6a 5a b3 3f 02 9c ba 3f d8 b1 d8 3c
       1.4011967 1.457886 0.02645199

bias f4 [1, 2]
000000 18 28 43 3b 5c 31 c6 3d
       0.0029778536 0.09677383

running_covar f4 [1, 3]
000000 d1 d4 b5 3f 5e f7 5b 3f 1e e1 a1 3e
       1.4205571 0.8592433 0.31617063

weight f4 [1, 1, 5, 1]
000000 6b d2 2d be 3f 33 61 be 83 20 8f 3c b9 ff fb bd
       -0.169748 -0.21992205 0.017471557 -0.123046346
000010 a8 48 15 be
       -0.14578497

weight f4 [1, 1, 5, 1]
000000 c5 3e 7d bd 12 58 a1 3e ed 49 d1 3e aa e4 f1 bb
       -0.06182744 0.31512505 0.40876713 -0.007381995
000010 a0 63 86 bd
       -0.06561971

weight f4 [1, 3]
000000 54 6b a5 3f 7d b2 a9 3f 5d df d8 bd
       1.2923379 1.3257595 -0.10589478

bias f4 [1, 2]
000000 2e a7 44 3e 42 f1 ff 3d
       0.19204399 0.12497188

running_covar f4 [1, 3]
000000 b6 b9 92 3b f4 6d 32 3b 78 f4 ab 3a
       0.004477705 0.0027226182 0.0013119122

weight f4 [1, 1, 1, 7]
000000 26 0b 85 be a5 11 07 bd 17 bf 11 be b5 9a 04 be
       -0.25985068 -0.03297581 -0.14233051 -0.12949641
000010 e1 a1 8d bc 2a b9 47 bd ba ba 50 be
       -0.017289104 -0.04876057 -0.2038373

weight f4 [1, 1, 1, 7]
000000 28 b1 d7 be ef 1b 8a be 27 e3 70 bd c1 4c 92 be
       -0.42127347 -0.26974437 -0.05881038 -0.28574184
000010 05 8a 4a 3e 67 a4 c2 bd 02 30 22 3e
       0.19779213 -0.095040135 0.15838626

weight f4 [1, 3]
000000 25 8f b0 3f 8c 25 bc 3f f6 16 b1 3d
       1.3793684 1.4698958 0.086469576

bias f4 [1, 2]
000000 76 47 11 bc 56 1f 2b bd
       -0.008867135 -0.04177793

running_covar f4 [1, 3]
000000 5c 71 bc 3f f5 2b c0 3f 3d bc 09 3e
       1.4722095 1.5013415 0.13450713

weight f4 [1, 1, 3, 3]
000000 68 e4 19 bd 63 43 94 3d ca c9 74 be 9a f4 8f 3e
       -0.03757134 0.072394155 -0.23905101 0.28116304
000010 2c 75 8f 3e 69 d5 9d 3e f0 8c bd 3d 43 78 af bd
       0.28019083 0.30826882 0.09255397 -0.0856786
000020 b8 49 84 3d
       0.06459373

weight f4 [1, 1, 3, 3]
000000 16 7c 9c be 28 d4 76 3e 5d 99 53 bd 29 9b 20 be
       -0.3056342 0.24104369 -0.05165993 -0.15684189
000010 a2 2b de bd 54 f5 10 3e df 7c 1c bc 64 6f 5a 3d
       -0.10848166 0.14156085 -0.009551256 0.053328887
000020 c6 a7 14 be
       -0.14517125

weight f4 [1, 3]
000000 2d 1a bc 3f 40 b8 ae 3f f8 4e 02 bc
       1.4695488 1.3649979 -0.007953398

bias f4 [1, 2]
000000 fb 55 26 bd d3 19 51 b9
       -0.04060934 -0.00019941413

running_covar f4 [1, 3]
000000 48 7a ab 3b 95 56 55 3b d7 fc 16 b9
       0.005233083 0.0032552828 -0.00014399305

weight f4 [1, 1, 3, 3]
000000 83 87 30 be c7 c2 08 3e 53 67 8f be 59 a1 57 3e
       -0.17239194 0.13355552 -0.28008518 0.21057643
000010 f0 12 f2 bd db 5c 64 bc 1d ff 19 be a0 e6 4e 3e
       -0.11820018 -0.013938154 -0.15038724 0.20205164
000020 03 1e c3 3d
       0.09527209

weight f4 [1, 1, 3, 3]
000000 e5 31 9b bd a7 cf 61 3e e6 a6 b4 3e 99 e8 54 be
       -0.07577876 0.2205187 0.35283583 -0.20791854
000010 7b 6c 3a be b1 8b a4 be 44 2d 48 be e0 ea c4 3e
       -0.18205445 -0.32137826 -0.19548517 0.38460445
000020 5d 2f 3f be
       -0.18670411

weight f4 [1, 3]
000000 b2 d8 a7 3f fa 95 cf 3f 26 ff bf bd
       1.3113005 1.6217644 -0.093748376

bias f4 [1, 2]
000000 67 b8 f7 bd 2d f7 74 3c
       -0.12095719 0.014951509

running_covar f4 [1, 3]
000000 ab 9d 21 3f 15 d4 97 3e 3a c3 b8 3c
       0.6313121 0.29653993 0.022554029

weight f4 [1, 1, 1, 7]
000000 9c b2 b8 be 49 b0 b4 3d 50 1d cc be cb f3 55 be
       -0.36073768 0.08822686 -0.39866114 -0.20893781
000010 b6 1f ac be 68 b8 af 3e 8b 5b bf bc
       -0.33617944 0.34320378 -0.02335908

weight f4 [1, 1, 1, 7]
000000 2a 65 41 3e ec 95 4a be a4 f7 89 be 6f 6d 95 bd
       0.18886247 -0.19783753 -0.26946747 -0.072962634
000010 af 7e 99 3e 3c 82 c7 be 01 dd 8d be
       0.29979464 -0.38966548 -0.27707675

weight f4 [1, 3]
000000 8f fd b9 3f 02 57 b1 3f 5e e8 83 3c
       1.4530505 1.3854678 0.016102012

bias f4 [1, 2]
000000 06 21 3a 3a a8 fd d4 3b
       0.0007100258 0.0064999647

running_covar f4 [1, 3]
000000 32 75 d8 3b 2e 79 a3 3b 6a 2a 05 37
       0.0066057676 0.004988811 7.937293e-06

weight f4 [1, 1, 5, 1]
000000 79 a7 86 be b2 fb 84 be bb 3f 1c 3e 4d 4d 3b be
       -0.26299646 -0.25973278 0.15258686 -0.18291207
000010 cb 0b 48 bd
       -0.04883937

weight f4 [1, 1, 5, 1]
000000 88 73 95 3e 88 2a b5 be 1a 4d 03 be 4f f1 b2 be
       0.29189706 -0.3538401 -0.1282238 -0.3494973
000010 ff d6 88 bd
       -0.06681632

weight f4 [1, 3]
000000 d2 e1 ab 3f 0b ba b0 3f 2b e8 21 3d
       1.342829 1.3806776 0.039528053

bias f4 [1, 2]
000000 e5 fa 2e bd 24 df 0f bd
       -0.04271974 -0.035124913

running_covar f4 [1, 3]
000000 ce fa cc 3e 29 fe 9e 3f 09 fc c0 be
       0.400351 1.2421314 -0.37692288

weight f4 [1, 1, 5, 1]
000000 fa d8 a6 be 32 bb 98 3e 0e ef 9d 3e dc af f3 3c
       -0.32587415 0.2983032 0.30846447 0.029746942
000010 4e e4 3d be
       -0.18544123

weight f4 [1, 1, 5, 1]
000000 41 a3 d9 3d 94 68 3c be 21 2f b3 3e 27 9a 5c be
       0.10626841 -0.18399268 0.34996894 -0.2154318
000010 b7 ff b2 be
       -0.3496072

weight f4 [1, 3]
000000 62 2f b2 3f df b4 b8 3f 2a c9 38 3b
       1.392071 1.4430197 0.0028196075

bias f4 [1, 2]
000000 34 55 51 bd 4a 64 41 3d
       -0.051106647 0.047214784

running_covar f4 [1, 3]
000000 52 cb 44 3b 2d ec c9 3b 7f 89 11 bb
       0.0030028415 0.0061621876 -0.0022207198

weight f4 [1, 1, 1, 7]
000000 39 e0 91 3c b5 8f 3b be 8a 6c ae 3e 54 a5 88 3e
       0.017807113 -0.18316539 0.34067184 0.26688635
000010 b7 10 51 be 5c 8c 64 be 30 0f 23 3b
       -0.20416532 -0.22319168 0.0024880879

weight f4 [1, 1, 1, 7]
000000 4f 17 b6 be 72 e6 b4 be 5d 40 1d be 35 31 ea be
       -0.35564658 -0.35332066 -0.15356584 -0.45740667
000010 d9 cb 88 be 6a 70 31 bd 48 f3 20 3e
       -0.26718023 -0.043320097 0.15717804

weight f4 [1, 3]
000000 f8 e2 9d 3f 67 9a ae 3f d9 a2 80 bc
       1.233489 1.364087 -0.015702652

bias f4 [1, 2]
000000 7e f7 04 be fb 58 a5 bc
       -0.12985036 -0.02018403

running_covar f4 [1, 3]
000000 fd f8 6c 40 2c 6b 3c 40 61 35 a2 bf
       3.702697 2.9440413 -1.267254

weight f4 [1, 1, 3, 3]
000000 b5 d2 24 be 14 fb 99 be b4 3d 72 be 84 bd 03 be
       -0.16096003 -0.3007437 -0.2365635 -0.12865263
000010 45 fd eb 3d e7 13 b6 3d 4b 36 a8 be 01 1b bf 3d
       0.11522917 0.08890515 -0.32853922 0.093313225
000020 2c 71 9b be
       -0.3035978

weight f4 [1, 1, 3, 3]
000000 04 20 8d 3e 5b 1d 28 bd bc 0e d2 bd e3 6c 9a 3e
       0.27563488 -0.04104362 -0.102567166 0.301612
000010 27 21 f2 be 7b e0 b6 3e 9c b5 9a 3d 2b dc a0 3e
       -0.47290918 0.3571814 0.075541705 0.31417975
000020 e7 3b 36 3e
       0.17796288

weight f4 [1, 3]
000000 7c 08 ad 3f 69 45 bd 3f 64 5f 9d 3c
       1.3518214 1.4786807 0.019210525

bias f4 [1, 2]
000000 a1 4a 3b bd 63 57 c9 3d
       -0.04572547 0.09831121

running_covar f4 [1, 3]
000000 8f 07 b8 3c 0a d8 20 3b a5 ad 40 3b
       0.022464542 0.0024542832 0.0029400375

weight f4 [1, 1, 3, 3]
000000 79 dc 92 bd a9 60 11 bd fc 20 94 3e 7a c3 6a 3e
       -0.07170958 -0.035492573 0.28931415 0.22926131
000010 ef 91 d5 3d 22 49 ea 3c 8f f5 8e 3e 0d 13 88 3c
       0.10428225 0.028599326 0.2792172 0.016610647
000020 a7 86 67 bd
       -0.0565249

weight f4 [1, 1, 3, 3]
000000 1b 07 74 3e 93 c4 46 3e fc 13 bd 3e b0 6e 40 be
       0.23830836 0.19410925 0.3692931 -0.18792224
000010 ab bd 9c be d0 cc 63 3e 87 a8 52 3e 60 2b a2 3e
       -0.30613455 0.22246099 0.205721 0.31673717
000020 27 75 e6 bd
       -0.11252814

weight f4 [1, 3]
000000 08 13 ab 3f ac 09 9d 3f a6 27 b9 bc
       1.3365183 1.2268577 -0.022601914

bias f4 [1, 2]
000000 32 6e 9d bd a4 3c fd bd
       -0.07687034 -0.12365082

running_covar f4 [1, 3]
000000 4c 60 c4 3f ac a4 3d 3f 69 ec b5 be
       1.5341887 0.74079394 -0.3553193

weight f4 [6, 6, 9]
000000 02 f5 02 bc f2 74 82 bd 2e db 8c bd 1c 56 1c be
       -0.007992985 -0.06369962 -0.06877743 -0.15267223
000010 0f 7f 8e 3d e6 cd 4e be a6 9d 0b be 86 19 80 bd
       0.06957828 -0.20195732 -0.13634357 -0.06254868
000020 4b 7f af 3d 3f 7c a8 3d f7 56 ea 3c 5b 4a 9d 3d
       0.08569201 0.08226823 0.028605921 0.07680198
000030 21 3c 1f be f4 3d 34 bc 6c e5 17 be 49 93 38 3d
       -0.15550281 -0.011001099 -0.14833611 0.045062337
000040 ee 17 1c 3d b0 7b da 3c 33 40 b0 3d c0 e5 ec 3c
       0.03810876 0.026670307 0.08605995 0.028918147
000050 a0 52 ea bd 77 47 14 be f0 31 14 be 2f bf 8b 3d
       -0.11441541 -0.14480387 -0.14472175 0.06823575
000060 1b 6e d4 bd aa e3 62 3d 9d 43 4a bb 4f 61 44 bd
       -0.103725635 0.0553929 -0.0030863055 -0.047944363
000070 e8 fb 1d be 0d c7 26 bd b2 21 00 3e af 86 fe bc
       -0.15428126 -0.040717173 0.12512854 -0.031070082
000080 0e a9 93 3c e8 3d 2a bc 08 e7 30 bd 0c ac 43 bb
       0.018024947 -0.010390736 -0.04318908 -0.0029857187
000090 ec 6c 0f 3c 0f 07 d5 bd 3a f7 10 3d 7c c8 32 be
       0.008753996 -0.10401737 0.035392024 -0.17459291
0000a0 eb ad 5b 3c 7a a2 4f 3d d6 0d 4e 3d dc 5a 45 bd
       0.0134081645 0.05069206 0.050306164 -0.048182353
0000b0 f6 f2 8c bb fe 8b 9d bd c4 a6 1a 3e 39 49 e8 3d
       -0.004301424 -0.07692717 0.15102679 0.11342091
0000c0 9e 5f 82 bd b4 ef c9 3d 37 0f c2 3d 98 67 ff 3d
       -0.06365894 0.09860173 0.09475558 0.12470931
0000d0 e6 ca 14 bd 2b f4 bd 3d 06 11 26 bc f6 86 4b ba
       -0.03632631 0.09275087 -0.010135895 -0.0007763946
0000e0 41 cb a6 bd 75 56 a9 3d 0f a1 06 be f2 12 3e 3d
       -0.08144236 0.082684435 -0.13147376 0.046404786
0000f0 ca f1 82 bd e7 61 75 3c 4e e7 03 be dd 6c e6 3d
       -0.06393774 0.014976955 -0.12881204 0.11251233
000100 8b 2e d3 bd da 7f 9c 3d 9f 81 a8 3d 89 08 0a be
       -0.10311612 0.07641573 0.08227848 -0.13479818
000110 b6 ae 84 3d de 8a 98 3d 92 d5 86 bc 04 fd f1 bd
       0.06478636 0.07448362 -0.01645926 -0.11815837
000120 24 05 40 bd 58 5f 2b 3d 21 3a 8f bd c3 15 15 bd
       -0.046879902 0.041838974 -0.06993509 -0.036397707
000130 eb 27 11 3c 8d 8a 8b 3d 99 df e0 bb ea f3 57 be
       0.008859615 0.06813536 -0.0068625924 -0.2108914
000140 1a f3 26 be 25 d6 25 bc 39 2e 07 3e 53 40 c8 bd
       -0.16303673 -0.010121857 0.13201226 -0.09777894
000150 7d e6 fb 3d 9a 41 2f be bb 39 29 be 8c fa e2 bd
       0.122998215 -0.17114869 -0.16525929 -0.11082944
000160 f6 5f fb bc 41 4b e9 bb 35 19 73 3d ec 12 40 bd
       -0.030685406 -0.0071195667 0.05935021 -0.046893045
000170 ab 43 c1 3d 2d 9f 65 3d 84 c0 7d 3c fc de 13 be
       0.09436735 0.056060005 0.015487794 -0.1444053
000180 a1 6f 2c be b1 d4 2a 3d 4c 82 a4 3d 64 a1 96 3d
       -0.16839458 0.041706745 0.08032665 0.073550016
000190 5a e0 04 3e 20 bc ef 3d dc 3d 61 bb df 62 7c 3d
       0.12976208 0.11705804 -0.0034369146 0.06161773
0001a0 33 c5 6b bd 72 c0 a7 3c d8 60 76 3d 50 28 bd bd
       -0.05756111 0.020477507 0.06015095 -0.092362046
0001b0 c8 26 ef 3d 8c 23 1c bd f3 7e 4d bd 1e 8e 17 3d
       0.11677319 -0.038119838 -0.050169896 0.037000768
0001c0 8c 05 82 bd 57 79 03 bb 66 ea cf bc 0f f3 ea bd
       -0.06348714 -0.0020061338 -0.025380325 -0.11472141
0001d0 46 4d 80 3d d0 41 31 3c 35 a6 e3 bc a1 43 25 3e
       0.06264739 0.010818914 -0.027789215 0.1613908
0001e0 a0 ac 21 3e 5c 96 23 3c 6c 15 80 bd a8 73 3a bd
       0.15788507 0.009984579 -0.06254086 -0.045520455
0001f0 2c a1 a4 bc a2 96 c3 3d bf 7c 41 3e dd c4 b2 3d
       -0.020096384 0.09550215 0.18895243 0.08728955
000200 72 3a 49 3e bb 4a bd 3d a8 44 b8 3d cd d8 92 bd
       0.19651201 0.09242769 0.0899747 -0.07170258
000210 bf 31 c7 3d 13 2a 57 3c 4d 12 05 3e bf a8 5b bc
       0.09726285 0.01313259 0.12995262 -0.013406931
000220 6e 8b 08 3e 96 10 33 be 97 cd 35 bd 95 89 2a bd
       0.13334438 -0.17486796 -0.04438552 -0.041635115
000230 28 45 92 3d d2 13 7c bd 1d 4b dc bd 72 fb 28 3e
       0.07142097 -0.06154234 -0.10756514 0.16502169
000240 85 3e a9 3c c4 92 25 be bb bb 2f be c6 bb fe bd
       0.020659694 -0.16169268 -0.17161457 -0.12438159
000250 38 81 be bd 74 d1 d9 3d 1a 4a e7 bd 57 71 95 3b
       -0.0930199 0.10635653 -0.112934306 0.0045606303
000260 01 e5 96 3d 58 16 dd bc 40 7d 52 bd 5c c7 d6 bd
       0.07367898 -0.026988193 -0.05138898 -0.104872435
000270 61 72 56 3b 77 bc 87 ba 89 47 38 bd 76 4c 3e 3c
       0.0032721984 -0.001035585 -0.044990096 0.011614909
000280 c6 2e a2 3d 9f d5 08 be dd 64 c3 bc 55 26 21 be
       0.079190776 -0.1336274 -0.023851806 -0.15737279
000290 41 be 07 bd 0e f7 34 3e 98 a4 25 be 48 b3 14 be
       -0.033140425 0.17672369 -0.16176069 -0.14521515
0002a0 6a 5f 84 3d 39 0a 1c bd bb 70 e9 bc 51 ad c9 bc
       0.06463511 -0.038095687 -0.028496137 -0.024618777
0002b0 02 0c ac bc af 24 1c 3e 93 5d 18 3d ee 75 31 3e
       -0.02100182 0.15248369 0.037198614 0.17330143
0002c0 2a 34 46 3e 8c db 3b 3e db 11 f1 3d 6b ba 53 3d
       0.19355837 0.18345469 0.11770984 0.051691454
0002d0 be a2 32 be 7f 38 b7 bd 7a b3 20 bd ab a6 a0 bd
       -0.17444894 -0.08946323 -0.039233662 -0.078442894
0002e0 27 04 98 3d ff 65 35 3c bd fe 03 be e3 b9 a0 bd
       0.07422667 0.011071681 -0.12890144 -0.07847955
0002f0 c3 46 8b 3d cd dd 08 3e 52 37 67 bd 7f 82 2b 3c
       0.06800606 0.1336586 -0.056449242 0.010468124
000300 80 cd 46 3d 2a 54 a4 3d be bc 17 bd d6 a3 25 be
       0.048535824 0.080238655 -0.037045233 -0.1617578
000310 53 a0 3c bd f7 cd 8d bd a1 ae be bd 25 d9 4d ba
       -0.046051335 -0.0692405 -0.093106516 -0.00078524865
000320 f3 a7 d4 bc 61 ec 39 bd 0f 8f c1 bd da 5a 95 bd
       -0.02595899 -0.045391444 -0.094511144 -0.07292719
000330 9f c4 d9 3c f2 9c 06 3e ff b5 26 3b f1 15 a5 3d
       0.026583014 0.13145807 0.0025438068 0.080608256
000340 d0 48 f7 bd 47 65 9f 3d f3 30 3e 3d b2 c7 69 bc
       -0.12074435 0.07782989 0.0464334 -0.0142688025
000350 c3 4a e0 3d e3 e5 bf bd 0a f5 4f 3d ab 8e fb 3d
       0.1095176 -0.09370019 0.050770797 0.12283071
000360 b4 89 15 bd 29 22 be bc c1 eb 2e be 6e b7 e8 bd
       -0.036508277 -0.023209648 -0.1708212 -0.113631114
000370 ba 02 84 bd 1e 8b 02 ba d6 84 5c bc b3 4f 30 3d
       -0.064458326 -0.00049798365 -0.013459405 0.043044757
000380 35 9b e1 3d fa 32 02 be 5e 7f 2f be 4e 1d 5d bd
       0.110159315 -0.12714759 -0.1713843 -0.053983025
000390 db 58 fe bd 04 f4 97 3d 10 10 06 be 43 f0 05 bd
       -0.124192916 0.07419589 -0.13092065 -0.032699835
0003a0 00 16 00 bc 38 3f c0 3c c1 f8 9e bc 12 d6 0f 3e
       -0.007817745 0.023467645 -0.019405724 0.14046505
0003b0 a8 bf 8b 3d af 62 8e 3b d8 b4 e3 3b 32 00 a5 3c
       0.06823665 0.00434526 0.0069490485 0.020141695
0003c0 2f 9c 4c 3c bd 35 4a 3e 63 7b 31 3e 35 d6 93 ba
       0.012488409 0.19747062 0.17332225 -0.0011279049
0003d0 cd 87 2b 3d b4 0e 77 bd ee 6d a6 3c e8 cf ef bc
       0.041877557 -0.060316756 0.02031609 -0.029273942
0003e0 cd bd 8a 3c 99 64 02 3e e4 ae 71 bd 2c 15 86 3d
       0.016936207 0.12733687 -0.05900468 0.06547007
0003f0 a8 a0 f6 bd dc 17 c9 bd 04 ac c5 3d b0 b5 ed bd
       -0.120423615 -0.09819004 0.0965195 -0.1160692

weight f4 [6, 6, 9]
000000 49 cb b7 3d 5c 49 a4 bd ac ab 5e 3d 99 bb 20 bd
       0.089743204 -0.08021805 0.054362938 -0.039241407
000010 6c 6b 80 bd ba b4 15 be 60 7c 0f 3d 5d ac 85 3d
       -0.06270489 -0.14619723 0.035030723 0.06527016
000020 b1 a5 9c 3d b2 c4 ea 3d 54 57 83 bb c1 5e db 3d
       0.07648791 0.11463298 -0.004008213 0.10711432
000030 75 30 a5 ba 5c 1e 90 bd f5 13 b1 3d 2b 9c a6 3b
       -0.0012602942 -0.070370406 0.086463846 0.0050845346
000040 d4 89 2c bc e5 44 4a 3d 16 5c 82 be 80 5b 38 bb
       -0.010530908 0.04938211 -0.2546088 -0.002813071
000050 b0 e8 81 bd f9 b9 86 bd 1a 4d 1e 3e 97 9d 88 3e
       -0.0634321 -0.0657844 0.154591 0.26682732
000060 76 2d 39 3c 1d 19 e8 3d f2 b7 4b 3e 35 fd 0f bd
       0.011302343 0.11332915 0.19894388 -0.035153586
000070 c2 77 32 bd 8a 74 c6 bc 4f cd ce 3d ea 31 1c bd
       -0.04357124 -0.024225492 0.10097753 -0.03813354
000080 85 83 fd bc 99 b3 d9 3c bd b8 0b bd 11 a1 33 3e
       -0.030946502 0.026574897 -0.034111727 0.1754191
000090 6f 9d ca ba e4 e3 9f 3d 63 0c 5c 3c 2a 95 c0 3d
       -0.0015458296 0.078071386 0.013430688 0.09403451
0000a0 fb e0 3b 3e 6b 91 3c 3e a9 98 f5 bb da fa 63 bd
       0.18347542 0.18414848 -0.007495005 -0.055659153
0000b0 68 13 cf bc 19 f9 32 3d 70 4c 32 bb 5a 43 ee 3d
       -0.025277808 0.04369459 -0.0027206205 0.1163394
0000c0 8e 7c 50 bd 2e 46 df 3d 0b b4 7f 3c af 7a c3 3d
       -0.050900035 0.109020576 0.01560689 0.095448844
0000d0 01 6e d1 bd 2a d3 7c 3d 00 e9 ee 3c f0 ab 8f bb
       -0.1022606 0.06172482 0.029163837 -0.00438451
0000e0 09 46 69 bc 5f 97 b9 bc 59 33 01 be 89 1c a8 bd
       -0.014237889 -0.022655187 -0.12617244 -0.08208568
0000f0 90 2a 0c be 19 df 89 3d bd 53 22 3d 8a fb cb bd
       -0.13688111 0.067320056 0.03963064 -0.09960087
000100 05 50 f2 bd 21 9a cb 3d 66 af cc 3c 67 f8 61 bb
       -0.11831669 0.09941507 0.02498598 -0.0034480335
000110 5c 90 ed bd 0e e2 f3 bd af 2f b4 bd c1 53 30 bc
       -0.115998 -0.11908351 -0.087981574 -0.010762156
000120 58 e0 c1 bd a2 a7 d9 3d ab d3 f8 3d 32 56 44 3e
       -0.09466618 0.106276765 0.121497475 0.19173506
000130 02 5f d4 3c 13 fb 35 3e d3 3f 49 3e 62 e2 31 3e
       0.02592421 0.17771558 0.19653253 0.17371514
000140 69 8c 6b 3d 69 7f 82 3c 4d 18 de 3c 83 29 7a bd
       0.057506952 0.015929895 0.027111197 -0.061074745
000150 b0 22 47 3d 65 3e 0c 3d 77 5a 73 3d 4c c9 49 bd
       0.048617065 0.03423919 0.059412446 -0.049264237
000160 c5 30 7d bd 20 93 0e be 89 2b 57 3d a7 c8 88 bd
       -0.06181409 -0.13923311 0.052531753 -0.066788964
000170 b1 a8 d0 bb e9 4d 06 be 04 d7 d5 bd 41 40 fc 3d
       -0.006367766 -0.13115658 -0.104414016 0.12316943
000180 ab 2d 5e 3c 7a 1f 43 bd 6d 12 1e 3d 5d 90 1a 3e
       0.013560693 -0.04763744 0.03859179 0.15094133
000190 c9 6c df 3d 5e 1f af 3d 4a 48 c7 bc 09 5d 9c 3d
       0.10909421 0.08550905 -0.024326462 0.076349325
0001a0 f6 fc 9e 3d cc 42 1b 3e cd 16 41 3d 0d 3c e7 bd
       0.07763092 0.151622 0.047140885 -0.11290751
0001b0 cf e9 2b 3e 15 0b ac 3d dc e4 ea 3d 8f c0 b3 3d
       0.1678841 0.08400551 0.11469433 0.08776962
0001c0 03 70 f4 3d f2 c0 64 3d 1f ea ca bd 5b 4e 19 be
       0.11935427 0.05584807 -0.09907936 -0.14971296
0001d0 51 a6 86 bd 32 4d 88 bd 09 8b 91 bd 39 6a 8f bd
       -0.06574691 -0.06655349 -0.07106597 -0.07002682
0001e0 d4 c7 5c 3d b5 9c f7 bd 24 a4 c8 bd 0c 8e 87 3d
       0.05390151 -0.12090436 -0.09796932 0.0661889
0001f0 11 8b 86 3d 0e e1 9c bc 9c c9 eb 3c 42 b4 b1 bd
       0.065694936 -0.019150283 0.028782658 -0.086769596
000200 cb 63 3f 3d 77 49 6e bd 78 dc 37 bb 12 cf bb bd
       0.04672603 -0.05817553 -0.0028054994 -0.09170355
000210 6c 53 a6 bd 1f 67 d7 bc 8a 07 d0 3c 3b 5f 2f 3e
       -0.0812138 -0.02629429 0.02539422 0.17126171
000220 b4 3b 1b be 32 f7 cf ba 4e 5c a7 bd 66 df 00 3d
       -0.15159494 -0.0015866517 -0.081719026 0.03146305
000230 dd 2c b3 bc 35 f6 10 3d c6 41 a1 3d 30 b8 89 bd
       -0.021871978 0.03539105 0.078738734 -0.06724584
000240 8d 58 db bd da 3b 36 bc ca 36 55 3d fc d7 c4 bd
       -0.10710249 -0.011122668 0.052054204 -0.09611508
000250 32 bc ef 3c a4 cb ce bd 60 ff af bd e0 87 6a bd
       0.029264543 -0.10097435 -0.08593631 -0.057258487
000260 b3 94 72 3d 9d 60 19 3e c5 5e 54 3d 14 6a 13 bd
       0.059223842 0.14978261 0.05184819 -0.035989836
000270 72 be a4 bd e6 44 d0 bb 5e 1f de bd e2 eb d8 3d
       -0.08044137 -0.0063558696 -0.108458266 0.10591866
000280 38 4b d2 bd 20 f6 6c bd dc df 20 bd a2 b2 04 be
       -0.10268253 -0.05785191 -0.03927599 -0.12958768
000290 78 6b c0 bc ac db bf 3d ec 45 da 3d 6f 8f 2d 3b
       -0.023488745 0.09368071 0.10657868 0.0026483198
0002a0 51 1e 5b bd 44 d5 5b bd 0b 7c 8c 3d 11 84 db 3d
       -0.05349571 -0.053670183 0.06859597 0.10718549
0002b0 a2 59 90 bd f3 dc 42 bc d0 66 26 3d 7b 87 59 bd
       -0.07048346 -0.011893499 0.040625393 -0.05310772
0002c0 2f 45 d9 3d 0e d9 4e bc f1 8e 5e 3e 34 f2 33 3d
       0.10608899 -0.012624992 0.21734215 0.043932155
0002d0 a7 7b a8 bb 24 b0 c1 bd fb 5f 09 3e 13 c2 1a 3e
       -0.0051416936 -0.09457424 0.1341552 0.15113096
0002e0 fa d4 fc 3d fe e9 a8 bb 21 fe af bd 58 e5 80 bd
       0.123453096 -0.005154847 -0.08593393 -0.06293744
0002f0 39 5e 38 3e 07 29 0c be 99 19 96 3d 7c 37 9a 3d
       0.18004693 -0.13687526 0.07329101 0.07530114
000300 4d 78 55 3e 35 a1 cf bb 6c 3e 4d 3d 7f 56 0e 3e
       0.20846672 -0.006336356 0.05010836 0.13900183
000310 2d f4 b3 bd 84 23 33 3d 9e f4 a0 3d 0a 1f 03 be
       -0.08786807 0.043735042 0.07859157 -0.12804809
000320 40 f0 8d bd df 9f 0f bd 09 28 b5 bd a5 46 a0 3d
       -0.0693059 -0.035064574 -0.08845527 0.078259744
000330 74 8d ab 3d 20 41 19 3e 3c ae 8f 3d 7b c8 06 be
       0.083765894 0.1496625 0.070156544 -0.13162415
000340 d2 8b 66 3d 77 1e e9 bd 85 10 dd bc aa f6 86 bc
       0.056285687 -0.11382764 -0.026985416 -0.01647504
000350 f9 e0 8b bc 4b d6 cd ba ab b3 47 bd db 44 18 3d
       -0.017075049 -0.0015704123 -0.04875533 0.03717504
000360 94 48 9d 3c 51 95 13 3d 42 25 34 3e 1b 4d 2f be
       0.019199647 0.03603107 0.17592338 -0.17119257
000370 9e 0e 73 bd 36 52 08 3d 01 67 f0 bc fe 56 42 3d
       -0.059340112 0.033281527 -0.029345991 0.047446243
000380 d4 31 ce 3d bb 7c bf 3c 99 4d 28 be ef 5b ec bc
       0.10068098 0.023374906 -0.16435851 -0.028852431
000390 fa 7f 8c 3d fb 2c c6 bd 2e 73 d1 3d 9d 37 53 3d
       0.06860347 -0.09676548 0.10227047 0.05156671
0003a0 fe 00 25 bd ae 14 0e bb d6 c8 f8 3d 2e 1d 9d bd
       -0.04028415 -0.0021679807 0.121476814 -0.07671581
0003b0 63 6c 63 bd c4 f0 4b bd 17 12 22 be 9f 67 70 3a
       -0.055523288 -0.04979016 -0.15827213 0.0009170714
0003c0 68 a0 88 3d bc 35 b8 3c 9c 77 0b 3e 68 ab ca 3d
       0.0667122 0.02248656 0.13619846 0.098959744
0003d0 88 a0 1c bc d6 a3 db 3d 47 9f 86 3a d2 35 4b 3e
       -0.009559758 0.107246086 0.0010270857 0.1984475
0003e0 ad 93 2d bd 55 53 a1 ba 43 a5 fc bb 05 b7 00 be
       -0.042377163 -0.001230816 -0.0077101304 -0.12569816
0003f0 2f ed 84 3d e5 15 d8 bd f5 f0 76 3d a7 28 9f bd
       0.06490552 -0.10551051 0.06028839 -0.07771426

weights f4 [6, 1, 3, 1]
000000 ae b5 86 3f 5e 43 7b 3f 67 1d 5a bd 66 cf 82 3f
       1.0524194 0.9814967 -0.053250697 1.0219543
000010 a8 51 80 3f a9 30 08 3c 0c a2 7e 3f 46 4d 70 3f
       1.002492 0.008312383 0.99466014 0.9386791
000020 32 c9 19 bd a6 31 6e 3f d4 8b 7f 3f c5 2e bf bc
       -0.03754539 0.9304451 0.99822736 -0.023337731
000030 41 63 78 3f fd c6 72 3f e5 2f f9 bc 5c d5 85 3f
       0.9702645 0.9483488 -0.030418346 1.0455737
000040 83 87 86 3f e5 d9 c7 3d
       1.0510105 0.09758357

running_cov f4 [1, 6, 2, 2]
000000 61 51 d3 3f 58 74 01 3e 58 74 01 3e 62 0f 4d 3f
       1.650921 0.12642038 0.12642038 0.801016
000010 08 3c 71 3f 7a be 93 3d 7a be 93 3d 3e 75 32 3f
       0.94232225 0.07214065 0.07214065 0.6971015
000020 b0 98 a3 3f d8 e6 41 bd d8 e6 41 bd 1e 91 67 3f
       1.2780972 -0.04733929 -0.04733929 0.90455806
000030 97 11 ad 3f 82 c8 bf be 82 c8 bf be 1e f0 ea 3f
       1.3520993 -0.37457663 -0.37457663 1.8354528
000040 43 50 53 3f a0 45 8f bc a0 45 8f bc 70 01 84 3f
       0.82544345 -0.017489254 -0.017489254 1.0312939
000050 a6 44 c5 3f 0f 22 83 3e 0f 22 83 3e 04 86 1e 3f
       1.5411575 0.25611922 0.25611922 0.6192324

weight f4 [6, 6, 5]
000000 17 11 9e bd 24 87 c1 bd 8d 2d 55 bd 2a 79 b1 bd
       -0.077181034 -0.09449604 -0.052045394 -0.08665688
000010 0f e7 0d be d3 5e 2f be 48 a0 01 3e 2a f5 11 3e
       -0.13857673 -0.17126016 0.12658799 0.14253679
000020 f4 ce 36 be 93 d1 f4 3d a1 d7 2e be 50 4f d7 bd
       -0.17852384 0.119540356 -0.17074443 -0.105131745
000030 a4 b1 aa 3d db cb e9 bd 58 5f de 3c 0d f5 43 bd
       0.083346635 -0.114158355 0.027145073 -0.04784112
000040 07 49 c6 3d 5a b6 c4 3d 46 6c 14 be f0 0a 4c bd
       0.096818976 0.09605093 -0.14494428 -0.04981512
000050 38 4c 88 3d ff e5 d4 bd 7c 20 28 be b1 ed ed bd
       0.066551626 -0.10395431 -0.16418642 -0.11617602
000060 09 d9 b0 bd 88 94 a9 bd e0 cc c3 bd 09 ba 2a bd
       -0.08635146 -0.08280283 -0.09560561 -0.041681323
000070 50 9f 2d 3e cf 23 f2 bb ec 37 11 3d db 28 0f bd
       0.16955304 -0.0073895226 0.035453722 -0.034951072
000080 c3 0f a8 3d 8a d2 96 3d bd b4 0a 3d 8d 47 39 3d
       0.08206131 0.07364376 0.03386377 0.04523425
000090 a2 df 9a 3c 60 e3 07 be 56 0c fc 3d dd 12 a5 bd
       0.018905465 -0.1327033 0.123070404 -0.080602385
0000a0 1a 0f 36 3e 3e e9 64 3c 57 39 2f bd 85 df 0e be
       0.17779198 0.013971625 -0.042779293 -0.13952453
0000b0 79 96 51 be 65 2b 00 bd b2 67 03 3e 75 5e ba 3d
       -0.20467557 -0.031291384 0.12832525 0.091000475
0000c0 10 25 1e be cb 2f 24 be ad b5 c7 bd 73 2a 6b 3d
       -0.15443826 -0.16033857 -0.09751449 0.05741353
0000d0 bd ed 07 bc 32 7e 29 3d d8 ce 0c 3e 96 85 c3 3d
       -0.008296427 0.041380115 0.1375078 0.09546964
0000e0 62 57 10 be e1 2a 99 3d 9f e5 b7 3d 23 08 98 3d
       -0.14095834 0.074788816 0.089793436 0.07423427
0000f0 25 4e e2 bd db a4 e9 bb ef 49 ac 3d ba b2 d9 3d
       -0.11050061 -0.007130248 0.08412539 0.106297925
000100 53 11 db 3d f4 7b 2e 3c 12 bf 6b 3e a0 e4 fe 3d
       0.10696664 0.01064967 0.23022106 0.124459505
000110 bf 98 1d 3e dc 9c 49 3e 69 21 cf 3d c1 56 d4 3d
       0.153903 0.19688743 0.10113794 0.103681095
000120 76 0d e9 3c d6 b7 8c bd 56 94 9a bd b2 fb 5e 3d
       0.028448801 -0.068710014 -0.07547824 0.054439254
000130 e5 be 02 be 05 04 61 be 74 77 8b 3d c7 10 76 be
       -0.12768133 -0.2197419 0.06809893 -0.24029838
000140 8f 4d 50 3e 12 8d 65 3d 6a fc b3 bd e1 c1 f3 bd
       0.20342086 0.05604274 -0.087883785 -0.11902214
000150 16 9e ca bd c0 5a 62 3e f3 86 9b bd a0 19 09 be
       -0.09893434 0.22104931 -0.07594099 -0.13388681
000160 5a 51 44 3e f3 b2 68 3e e5 c6 b3 bd 24 0b fc bd
       0.19171658 0.22724514 -0.087781705 -0.123068124
000170 cd b4 15 bd 6c d8 25 bd a6 ea ab bc 96 9c 0c 3e
       -0.03654938 -0.0404896 -0.020985913 0.13731608
000180 18 43 02 3e cf e4 3d 3e f4 31 34 3e 4f 94 12 3e
       0.12720907 0.18544315 0.1759718 0.14314388
000190 9e 26 90 3d 70 25 29 3e 80 78 c6 3d d2 82 5f 3e
       0.07038616 0.16518188 0.09690952 0.21827248
0001a0 b5 f1 0d be 5b e6 27 bc 75 ae 6d bd 17 f6 49 3e
       -0.13861735 -0.010247792 -0.058027703 0.19722782
0001b0 58 02 e0 bd 06 aa 8c bb 16 10 f6 bd ca 79 65 3d
       -0.10937947 -0.0042927293 -0.12014787 0.05602435
0001c0 85 60 ac 3d c8 e6 8f 3c 5f a0 82 3d fe 67 36 be
       0.08416847 0.0175661 0.063782446 -0.17813107
0001d0 bc ec 02 3e ff de 30 3e fc a8 bb 3d 1e 2b e6 3d
       0.1278562 0.17272566 0.091630906 0.11238693
0001e0 9c d3 25 be 73 7c 34 be 45 d2 fc bc 8d 2a 4c 3d
       -0.16194004 -0.17625599 -0.030861983 0.049845267
0001f0 2a 6c 45 bc ef 2b 25 be e5 34 24 3e 9b c2 93 3d
       -0.012049714 -0.1613004 0.16035803 0.072148524
000200 2d 53 25 3e 3c 6c 18 be ff fa 23 be 93 4f 33 3e
       0.1614501 -0.14885038 -0.16013716 0.17510824
000210 4d 70 cc bd 6d 1d 09 3e b9 93 a1 bd 36 e3 c1 3d
       -0.09982357 0.13390131 -0.07889504 0.09467165
000220 a5 ce 71 3d d7 64 1b be 72 0c cc bd b4 80 26 3e
       0.059034962 -0.15175186 -0.09963311 0.16260034
000230 d9 d1 f4 3d 75 8a 29 be 21 74 b8 bd 26 88 ee 3c
       0.11954088 -0.16556723 -0.09006525 0.029117655
000240 b2 2f 5f 3c 37 43 ee 3d 38 76 49 be 22 44 11 3e
       0.013622211 0.11633914 -0.19674003 0.14186147
000250 97 20 cb bd 88 4d 20 be e0 65 4b 3c 76 32 fb 3d
       -0.099183254 -0.15654576 0.012414426 0.12265484
000260 e3 73 11 bd db 3e 0a 3d 2e 7a d8 3d 19 00 65 3e
       -0.03551091 0.03375135 0.10570179 0.22363319
000270 e7 aa 38 3e f8 c4 23 3d 96 8b bd 3d 85 ea cb 3d
       0.18033944 0.039982766 0.092551395 0.099568404
000280 13 0c 68 be ea d1 bd 3c c6 db 16 be 1b e3 22 3e
       -0.22660856 0.023171384 -0.14732274 0.15906946
000290 cd 41 09 3e 7f 64 59 be f1 15 43 be 1b 2c 4b 3d
       0.13404007 -0.21229742 -0.19051339 0.04960261
0002a0 4a 32 97 bd 5f 00 0a 3e 45 84 98 3d 40 c1 23 3e
       -0.07382639 0.13476704 0.074471034 0.15991688
0002b0 59 a3 ac bc 96 69 30 3e 9c 7d c6 3d 67 fe 0e be
       -0.021073984 0.17227778 0.09691927 -0.13964234
0002c0 42 c5 99 3d 70 7b 50 bc f0 ec 9e bc fd 93 ea 3d
       0.07508327 -0.012724742 -0.01940009 0.11454008

weight f4 [6, 6, 5]
000000 46 62 b2 bd c8 52 02 3d 23 e0 0b 3e 59 b3 22 be
       -0.087101504 0.031817228 0.1365972 -0.15888728
000010 43 9e 85 3c c2 c3 a4 3d 47 09 f5 3c 5a 69 00 3e
       0.016310817 0.0804515 0.02991165 0.12540188
000020 b2 7e 20 3e d3 10 82 3c 19 31 b2 bd da f6 c5 3d
       0.1567333 0.015877163 -0.08700771 0.09666224
000030 29 69 89 3e c2 65 25 3e 36 cb 34 3e a9 a3 18 be
       0.26838043 0.16152099 0.17655644 -0.14906181
000040 67 ce 53 3c 22 51 39 be 43 8b 38 be d6 0e 65 3e
       0.012927628 -0.18097356 -0.18021874 0.2236894
000050 17 65 b6 3d 13 aa 4a be b3 2e 76 be 37 fb 5c be
       0.08906 -0.1979144 -0.24041252 -0.21580206
000060 b3 fc ce bd 9f 20 cf 3d 8a 6b fb bc 2a 09 9b bd
       -0.10106792 0.10113644 -0.030690927 -0.07570107
000070 83 b0 3c 3e 4d 02 13 bd a7 d4 f0 bd da e2 c1 3d
       0.18426709 -0.035890866 -0.1175931 0.094670966
000080 d3 63 a2 bd 9b 13 93 bd 25 f6 94 bd dc c6 2d 3e
       -0.07929196 -0.07181474 -0.07273511 0.1697039
000090 92 ee fa 3d 20 e9 a8 3d 44 82 da 3c 3f d1 d1 bd
       0.12252535 0.0824759 0.026673444 -0.10244989
0000a0 b6 6d 1c 3d 4b 5c 1b 3e 03 8a f7 3b 28 f0 9b 3e
       0.038190566 0.15171926 0.007554294 0.30456662
0000b0 ef 25 91 3e 2b ec 30 3d 7c eb ba 3c cf f7 82 3d
       0.28349254 0.043193977 0.022817366 0.06394922
0000c0 7b 3c 7a 3d 10 9b 13 bd 2e db 3c 3e 70 2d e4 bd
       0.061092835 -0.03603655 0.18442985 -0.11141479
0000d0 22 6f 40 3e 1b b6 c3 bd 79 af 1e be 5a 3f f7 3d
       0.18792394 -0.09556218 -0.15496625 0.1207263
0000e0 d9 2e 2e 3e 0c bf eb bc 13 2e 10 3e 1f 86 48 3d
       0.17010058 -0.028777622 0.14080076 0.048956033
0000f0 47 4a 13 be 49 77 e4 bd ed 2f 1d be 51 0e e3 3b
       -0.14383803 -0.11155564 -0.15350313 0.006929197
000100 5e e8 69 3d f4 8a 3d 3e 08 ad 38 bd c1 7c 05 bd
       0.05710637 0.18510038 -0.04508689 -0.032589678
000110 a8 f1 3b 3d 42 31 05 3e ba e0 c0 3c 56 21 5b bd
       0.04588476 0.13007072 0.023544658 -0.05349859
000120 8c 57 c6 bd b7 c5 86 bc 62 8d 13 be 36 a1 1f be
       -0.09684667 -0.0164517 -0.14409402 -0.15588841
000130 71 d5 24 3d 0b 7d 9a 3d 1e 1e 02 be e0 e2 04 bc
       0.040242616 0.07543381 -0.12706801 -0.008110732
000140 8a ad 96 bd d8 4c 9a 3d 2d fd 10 3e 37 db 32 3e
       -0.07357319 0.07534188 0.14159079 0.17466436
000150 84 25 b6 bd e6 bc 51 bc c5 70 95 bd 70 a3 2d 3e
       -0.08893874 -0.012801385 -0.072969 0.16956878
000160 a0 eb 5b 3d 8d 94 3b bd e2 ab 47 3e 2e 00 d7 3c
       0.053691506 -0.045795966 0.19499162 0.026245203
000170 56 16 cb 3d 38 ef 2d 3e f3 6f c0 3d 83 52 8e 3d
       0.099163696 0.16985786 0.093963526 0.069493316
000180 ba ec db bd 55 08 5b bc 79 3a e6 bd 07 32 2d 3c
       -0.107385114 -0.013368686 -0.112416215 0.0105710095
000190 46 bb a5 3d cc 1a c7 3d 61 dd bd bd e0 2c 94 3d
       0.0809236 0.09721908 -0.0927074 0.07235122
0001a0 10 62 09 bd 6c f9 30 bd 9f 23 87 3d 10 a5 84 3e
       -0.033540785 -0.043206617 0.06598591 0.25907183
0001b0 02 4a fa 3d 9b 8f ab 3d be a0 13 3c 64 cf 6a bb
       0.12221147 0.08377 0.009010492 -0.003582918
0001c0 18 5f 4e be 56 7f 1d 3d bb 20 03 be 5f f6 75 3d
       -0.20153463 0.038451515 -0.12805454 0.06004941
0001d0 47 fc 8f bd 88 17 9d 3c ba b5 2c bc 7c 45 9f 3d
       -0.0703054 0.01917626 -0.010541374 0.07776925
0001e0 68 fa 3c 3d 55 de 42 be 49 20 24 be 52 a3 1d 3d
       0.046137244 -0.19030125 -0.16027941 0.038485833
0001f0 ce 67 5c bd 3d 6a b4 bd a4 9c be bd 14 62 eb 3b
       -0.053809933 -0.08809326 -0.093072206 0.0071833227
000200 09 3f 9e bd ad bb 4b bd 20 e3 eb 3d 1f b7 43 be
       -0.07726867 -0.04973953 0.1151793 -0.19112824
000210 15 e7 47 be aa f6 47 be bc bc b8 3d 73 47 82 3d
       -0.19521745 -0.19527689 0.09020373 0.06361284
000220 ba cc be 3d 2f 85 0f 3d 9d de e3 3d 9d 46 f5 3c
       0.09316392 0.035039123 0.111264445 0.029940898
000230 ad 9d f4 3d 2a 00 7e 3c 72 e9 ac 3d 00 b3 46 be
       0.11944137 0.015502969 0.08442964 -0.1940422
000240 9d 9f 23 3d 31 20 8c bd d6 90 cf 3d 98 50 1d 3e
       0.03994714 -0.068420775 0.10135047 0.15362775
000250 2f c2 8d bd 8a 01 31 3d 32 da 0e be 06 cb be bd
       -0.06921803 0.04321436 -0.13950422 -0.093160674
000260 5c 94 cb 3d 9c 41 88 bd ae 84 ca bd 45 88 47 be
       0.09940407 -0.06653139 -0.09888588 -0.19485576
000270 46 ec d8 3c 21 21 7b be dd bb c5 3c bf 2e de 3d
       0.026479851 -0.24524356 0.024137432 0.1084876
000280 cd 4e aa 3d 36 3b ad 3d b5 0f f8 bd 25 7d ef bd
       0.08315811 0.08458559 -0.12112371 -0.11693791
000290 d9 53 7e 3c c7 4a 46 bd b3 ed 96 3d 57 7a 0c 3d
       0.0155229205 -0.048411157 0.07369556 0.03429636
0002a0 19 51 91 3b 5a 21 d1 bd 91 e2 c3 3d 92 a3 1f be
       0.0044347164 -0.102114394 0.095646985 -0.15589741
0002b0 7e ac 36 be f6 64 4b be 83 52 ee 3d e0 83 84 bb
       -0.17839238 -0.19862732 0.116368316 -0.004044041
0002c0 0c d0 83 3c 29 82 78 bd 32 16 04 3e df 24 0e bd
       0.016090415 -0.060671005 0.12899092 -0.03470313

weights f4 [6, 1, 3, 1]
000000 35 4c 97 3f 56 a7 60 3f 5d 90 02 3d f3 ae 8c 3f
       1.1820132 0.87755334 0.031875957 1.099089
000010 4e 6d 82 3f b0 24 f1 3c 56 b5 83 3f 64 1a 70 3f
       1.0189607 0.02943644 1.0289714 0.9379027
000020 24 d3 a6 3b a1 31 7b 3f 91 85 80 3f ae 02 3d 3c
       0.005091088 0.981226 1.0040761 0.011536283
000030 11 5f 88 3f 7f 8f 88 3f cd 12 08 bc f7 eb 78 3f
       1.0654012 1.0668792 -0.008305264 0.97235054
000040 f9 20 8e 3f 96 87 a3 3c
       1.1103812 0.019962113

running_cov f4 [1, 6, 2, 2]
000000 36 cc b7 3f bf cf 8b bd bf cf 8b bd e3 3f 7b 3f
       1.4359195 -0.06826734 -0.06826734 0.9814436
000010 f4 2c a8 3f 9c 60 95 3d 9c 60 95 3d 10 0c 57 3f
       1.3138719 0.072938174 0.072938174 0.8400278
000020 83 46 9d 3f cf c6 9a be cf c6 9a be b4 c4 d1 3f
       1.2287143 -0.30229804 -0.30229804 1.6388154
000030 5c 7a 85 3f 4e 6a 2e 3d 4e 6a 2e 3d 6b 1e a5 3f
       1.0427966 0.04258185 0.04258185 1.2899908
000040 ba 8a cb 3f a0 49 79 be a0 49 79 be 98 8b ed 3f
       1.5901711 -0.24344492 -0.24344492 1.8558226
000050 1e 6c 96 3f d0 77 1c 3f d0 77 1c 3f b0 7f 00 40
       1.1751745 0.6112032 0.6112032 2.0077934

weight f4 [6, 6, 3]
000000 2d cc fd 3d 5a 24 f6 bc ea 9a 0e be 88 b7 15 3d
       0.12392459 -0.03004663 -0.13926283 0.036551982
000010 92 09 18 3e 00 b3 eb 3d 2e 0b 6e be 7d a1 55 3c
       0.14847401 0.11508751 -0.23246452 0.01303899
000020 de 73 a1 bd 1a ad 2f be a1 c9 2b 3e 15 14 0d 3e
       -0.07883428 -0.17155877 0.16776134 0.13777192
000030 6a 62 e1 bc 98 cc a9 bd 4e 57 35 3e 22 37 01 bd
       -0.027512748 -0.08290976 0.17709085 -0.03154672
000040 4a d6 93 3d 7a 97 cc 3d 39 08 b3 bd 4c 31 98 3e
       0.07218607 0.09989829 -0.08741803 0.2972511
000050 fa 8f 11 3e 75 12 86 bd fc f9 4c 3e 20 8a a2 bb
       0.14215079 -0.06546489 0.20017236 -0.0049603134
000060 7d 95 00 be 25 17 80 3d 43 14 08 3e b3 bc 94 3d
       -0.12557025 0.062544145 0.13288979 0.07262554
000070 a7 8b 5b 3e 1e bc 53 3e 14 f1 61 bd 35 1a 1f 3e
       0.21439992 0.2067723 -0.05516155 0.15537341
000080 79 1a 51 be 53 73 48 3e 03 b5 a6 bd 2f d9 30 3e
       -0.20420255 0.19575243 -0.08139994 0.17270349
000090 2d 9e bf 3c 47 ff 00 be 6e 10 49 be b0 e4 c3 bd
       0.023390854 -0.1259738 -0.19635174 -0.09565103
0000a0 68 1d 8c 3e 88 c5 80 3e 4e 54 29 3e e7 5d af bc
       0.27366185 0.25150704 0.16536066 -0.02140708
0000b0 a5 81 86 3e e4 a3 39 3e d5 4a 08 3e 63 f9 a8 3d
       0.26270786 0.18128926 0.13309796 0.08250692
0000c0 66 96 f0 3d 59 dc 68 3e c9 d7 4e bd 3c 2d 2e 3e
       0.11747436 0.22740306 -0.050498758 0.17009443
0000d0 ab 6b 4d 3d e9 fa 18 3e ff 59 8e 3e 52 da 4c 3d
       0.05015151 0.14939465 0.27803037 0.050012894
0000e0 7f f8 4e 3e 88 58 1d 3e 9a 77 4d be 65 d3 09 be
       0.20211981 0.15365803 -0.20065156 -0.13459547
0000f0 d7 d2 6a 3e 0b b1 13 be a2 9b 48 3e 81 3e 2d 3e
       0.22931992 -0.14423005 0.19590619 0.16918375
000100 f5 bf 81 bd 9b 9f 1a 3e 1a f6 c6 3d 46 f4 e1 3b
       -0.06335441 0.15099947 0.09714909 0.0068955747
000110 ff f8 0d 3e fc a6 23 be 5b 4c c4 3c da 02 a7 3d
       0.13864516 -0.15981668 0.02396219 0.08154841
000120 14 e0 0e 3d ee c9 ee 3d a8 7f e9 bd 3a 25 a9 3d
       0.034881666 0.11659609 -0.114013016 0.082590535
000130 a9 f2 eb bd ad 08 b4 bd 7b 26 26 be d2 ca 5b be
       -0.11520893 -0.08790717 -0.16225617 -0.21464089
000140 e9 d6 83 bd df 20 21 3d 57 dd 1a be 7c 19 35 3e
       -0.06437475 0.03933799 -0.15123497 0.17685503
000150 1e b8 85 ba 5b 36 c7 bd 20 0f ff 3d 9b 8a 69 3d
       -0.0010201966 -0.09727164 0.12454057 0.05701695
000160 41 d4 21 be f6 c0 9e 3d c9 55 af bd 2c 0b 49 3e
       -0.15803625 0.07751648 -0.08561284 0.19633168
000170 e0 b5 cb bd 11 28 7f 3d f9 44 9c 3d 0f 27 73 3e
       -0.09946799 0.06229407 0.07630343 0.23745368
000180 bd 75 5a 3e 4e ee b9 3d be 98 76 3e 2d f8 d8 be
       0.21333976 0.09078656 0.24081704 -0.42376843
000190 61 8f 07 be c7 50 df bd a3 73 1a be 36 f1 82 bc
       -0.13238288 -0.10904079 -0.15083174 -0.015984159
0001a0 10 09 42 3e 94 05 08 be bb 3f b2 3d cb 00 df bd
       0.1894877 -0.13283378 0.08703562 -0.10888823

weight f4 [6, 6, 3]
000000 b6 13 ff 3d 95 3c 03 bd 41 10 95 bd d0 5f 61 3e
       0.124549314 -0.032040197 -0.07278491 0.22009206
000010 28 c5 8a 3d a7 15 ef ba 5c 8a b6 3c 50 c9 a5 3e
       0.06775886 -0.0018240706 0.022282772 0.32380152
000020 d9 9d 91 bc b3 ca 3d 3e d7 5a 51 3e 9c 0a 1d be
       -0.017775463 0.18534355 0.20444809 -0.15336078
000030 60 94 44 3e c0 d7 af bd 6a 12 37 3e dc 1c e6 3d
       0.19197226 -0.08586073 0.17878118 0.11235973
000040 01 1d 11 be b1 6c 14 3e c8 9e e1 3d a3 4a eb bd
       -0.1417122 0.14494587 0.11016613 -0.11488845
000050 bd 46 90 3d 6a 10 be 3d bb 24 4b 3e 89 ae 64 be
       0.07044742 0.092804745 0.1983823 -0.22332205
000060 8c 2a 97 bd e4 ac 78 3e 8e 80 39 bd 9d c5 a7 3d
       -0.07381162 0.24284703 -0.045288615 0.081919886
000070 af 20 24 3e c7 34 36 bd a2 84 98 3d 43 0d 3c be
       0.16028093 -0.044483926 0.07447173 -0.18364434
000080 64 54 16 be dc de 4e 3d 46 1a d7 3d 40 ab a6 bc
       -0.1468063 0.050505504 0.10503058 -0.02034533
000090 f6 28 44 3e 05 db bd 3d 22 ec 8d 3e 07 83 fd 3d
       0.1915625 0.0927029 0.27719218 0.12378507
0000a0 48 c2 d5 3c 54 79 65 3d 6b 64 29 bc 0e 11 b9 3c
       0.026093617 0.05602391 -0.010338883 0.02259114
0000b0 a4 a8 da bd 2d ab 0b 3e 94 16 b1 3d 7c 08 76 3c
       -0.10676697 0.13639517 0.086468846 0.015016671
0000c0 7b c4 ee bc f5 27 a1 3d b2 22 c4 3d 40 fa 2e 3e
       -0.029146424 0.07868949 0.0957693 0.1708765
0000d0 09 bd 1f 3e 69 93 a0 3d 92 1d b3 bd b0 43 64 3e
       0.15599455 0.07840616 -0.087458745 0.22291446
0000e0 75 5e 86 3d 7a d7 37 3e 1c 46 b7 3c 7c 9d 03 be
       0.06560985 0.17953292 0.022372298 -0.12853044
0000f0 64 6a 5a bd 91 b3 59 bd 53 97 de bd 0d 1e 42 bd
       -0.05332412 -0.053149763 -0.108687066 -0.04739194
000100 75 2a 97 3e ee e8 45 3e 82 4e 90 be 3f cd df 3d
       0.2952458 0.19327137 -0.28184897 0.109278195
000110 d1 5d 89 be ad 30 06 be a8 b5 10 be 3d bf 75 3e
       -0.2682939 -0.13104506 -0.14131796 0.23998733
000120 e1 c8 10 be d5 05 97 3c a1 a5 20 bd f4 e5 1c be
       -0.14139129 0.018435398 -0.039220456 -0.15322095
000130 3b d4 74 be 09 bd 41 3e 22 28 37 be 89 00 af bd
       -0.23909084 0.18919767 -0.17886403 -0.08545024
000140 f0 be 91 be 4c 50 cf bd 37 2a b6 bd 53 93 26 bd
       -0.28465986 -0.10122737 -0.088947706 -0.040667843
000150 5e 4c 86 bd 8c d6 2b 3d 5d 40 14 be 9d de 13 be
       -0.06557535 0.041952655 -0.14477678 -0.14440389
000160 11 3f 20 bd ae 12 cf bd e6 9a cd bd 23 b9 bb bd
       -0.039122645 -0.10110985 -0.1003931 -0.091661714
000170 51 25 b4 bd 69 40 29 be 32 b1 04 bd d6 99 bd bc
       -0.0879618 -0.16528477 -0.03239555 -0.023144644
000180 a2 1a c0 bd f0 6a 0f bc b5 da 4d 3d f5 b8 9a bc
       -0.0938008 -0.008753523 0.050257403 -0.018887023
000190 3b 2a bd 3c 4f 61 e2 3d 2f de 44 3d 38 2c 58 3c
       0.023091426 0.110537164 0.048063453 0.013194136
0001a0 43 45 37 3d c4 db 2c 3e 93 01 60 bd f4 24 5c bd
       0.044743787 0.16880709 -0.054689 -0.05374618

weights f4 [6, 1, 3, 1]
000000 50 b0 6d 3f d7 05 84 3f 82 8b b2 bd eb e5 61 3f
       0.92847157 1.0314282 -0.08718015 0.8824145
000010 03 f8 83 3f 13 c9 c9 bc 61 08 80 3f 49 0b 7f 3f
       1.0310062 -0.024632012 1.0002557 0.99626595
000020 17 d8 8d 3a 70 cd 7b 3f 22 46 7c 3f 11 4e 17 3d
       0.0010821846 0.9836035 0.98544514 0.036939684
000030 b7 a9 81 3f a8 89 77 3f aa b0 4f bd 3a 53 52 3f
       1.0129918 0.9669442 -0.05070559 0.82158244
000040 18 22 90 3f 39 00 7a 3d
       1.1260405 0.06103537

running_cov f4 [1, 6, 2, 2]
000000 09 e3 06 40 d0 44 a3 be d0 44 a3 be 44 64 aa 3f
       2.1076071 -0.31888437 -0.31888437 1.3311849
000010 2f 9c f6 3f 31 af 88 be 31 af 88 be f5 b0 05 40
       1.9266413 -0.2669616 -0.2669616 2.0889256
000020 77 86 d3 3f 6a 15 27 bf 6a 15 27 bf ea fa c0 3f
       1.652541 -0.6526705 -0.6526705 1.5076573
000030 df e5 dd 3f a8 83 12 3e a8 83 12 3e ca 8a b3 3f
       1.7335776 0.14308035 0.14308035 1.402673
000040 45 2f c6 3f 38 e9 30 bc 38 e9 30 bc d0 65 8e 3f
       1.5483176 -0.010797791 -0.010797791 1.1124821
000050 4c 61 bf 3f ae 33 fb 3d ae 33 fb 3d 92 d7 e1 3f
       1.4951568 0.122657165 0.122657165 1.7643912

weight f4 [1, 6, 1]
000000 f0 7c a4 3d d6 11 e4 bd f9 eb d2 3e b5 e9 dc bd
       0.080316424 -0.111362144 0.41195658 -0.107867636
000010 dc d5 ce bd d2 ac 03 bf
       -0.10099384 -0.5143558

weight f4 [1, 6, 1]
000000 6b a9 af 3e 14 23 aa 3e ba 57 88 3e 66 ff aa be
       0.34308943 0.33229887 0.2662943 -0.3339798
000010 31 6b d4 be 63 9e d1 bd
       -0.4148803 -0.10235288

weights f4 [1, 1, 3, 1]
000000 c9 a9 41 3f f2 17 a7 3f e7 5f 2c 3e
       0.75649697 1.3054183 0.16833459

running_cov f4 [1, 1, 2, 2]
000000 b2 ad 3a 3f 51 47 d2 bd 51 47 d2 bd d7 78 48 3f
       0.7292129 -0.10267509 -0.10267509 0.78309387

weight f4 [6, 6, 7]
000000 da 0f ee bc c3 52 cc 3d e4 e3 17 3d df 97 83 3d
       -0.029060293 0.09976723 0.037082568 0.064254515
000010 c0 72 48 3d 8e 65 7f bd 7c 2d 96 bd d5 62 a9 bd
       0.04893756 -0.06235271 -0.07332894 -0.08270804
000020 83 39 01 3e d1 ba d6 3d 71 eb cb bd a1 26 3c 3d
       0.12619595 0.10484851 -0.09957016 0.045935277
000030 9b 50 a0 bd 80 8c 28 be b9 ad 1b be 39 35 57 be
       -0.07827874 -0.16459846 -0.15202989 -0.21016397
000040 2e d8 16 be 92 b9 56 bd 93 6d 15 3d 49 80 b5 3c
       -0.14730904 -0.052423067 0.03648145 0.022155898
000050 a9 06 4e 3d 7c 52 34 be bc dc e1 3d 9b b4 52 be
       0.05029932 -0.1760959 0.1102843 -0.20576708
000060 79 74 9d bd e9 5c db 3d ec 66 eb 3d 0c 29 27 be
       -0.07688231 0.107110806 0.1149424 -0.16324252
000070 7c c5 9a 3d 3c 99 78 3d 10 f0 ef bd 40 b4 fd bd
       0.075571984 0.06069301 -0.1171571 -0.123878956
000080 ff 43 d7 bd 65 af f7 bd 67 a3 bd bd a8 f9 e2 3d
       -0.10511016 -0.12094001 -0.09259682 0.110827744
000090 9a 8f 15 be a1 f8 cb 3c 9a 50 01 3e 85 d6 90 bd
       -0.14605561 0.024898829 0.12628403 -0.07072166
0000a0 c4 ee cf bd 45 d6 ef 3d 80 08 d0 3c ec 44 86 bc
       -0.10152963 0.117107905 0.025394678 -0.016390286
0000b0 65 35 13 be 9a ef 9f bd 7a 80 2c 3d 0f 62 b5 3d
       -0.14375837 -0.07809372 0.042114712 0.08856594
0000c0 4e a8 1b bd 67 39 14 be 14 97 9f 39 88 83 a7 bd
       -0.038002305 -0.14475022 0.00030439405 -0.081793845
0000d0 1d a6 63 3e 05 05 9b 3d e7 09 85 3d d4 f3 50 be
       0.22231336 0.07569317 0.06496029 -0.20405513
0000e0 21 3c 52 be 9d 30 03 be 30 13 a1 3d 05 66 47 3c
       -0.2053075 -0.12811513 0.07864988 0.012170319
0000f0 46 59 72 bd f0 c4 ad 3c ca 87 7c be 09 08 9f bd
       -0.05916717 0.021212071 -0.24661174 -0.077652045
000100 ef 45 cb 3d 45 b0 91 bc 6e 6a 97 3d 43 01 43 bd
       0.09925448 -0.017784247 0.07393347 -0.047608625
000110 79 f7 3e be a7 34 dd 3c be 7e fb 3d b0 62 06 be
       -0.18649091 0.027002646 0.122800335 -0.13123584
000120 07 ac 0e be 0d b2 f5 bc df 5f a8 bd ba c0 8d 3c
       -0.1393281 -0.029992128 -0.08221411 0.017303813
000130 d0 10 0b 3e 36 c9 6c 3c f6 3a 0b be b4 59 83 3d
       0.13580632 0.014452269 -0.1359671 0.06413594
000140 86 57 cf 3d 18 50 b9 3d 87 ed 20 3d af b9 dc bd
       0.10124116 0.0904848 0.039289024 -0.10777604
000150 20 f1 a6 bd 94 b5 21 bd 23 05 07 bd 64 17 ba bd
       -0.0815146 -0.039479807 -0.032963883 -0.09086493
000160 7a 13 43 be b6 ed d3 3d 9c be 07 be 0b 64 7f 3d
       -0.19050398 0.10348074 -0.13256305 0.062351268
000170 64 54 7b bc f7 87 ca be 38 fa 12 3e 94 8d 9c 3d
       -0.0153399445 -0.39556858 0.14353263 0.076441914
000180 4b 3a a1 3c 98 49 96 be b0 b2 0a be 1e eb 74 3c
       0.019681117 -0.29353023 -0.13544726 0.014948634
000190 1f dc 17 bd ed e6 5c be 6d a1 03 3e e8 6f 92 bd
       -0.03707516 -0.21572466 0.12854548 -0.07150251
0001a0 5b ca 5c be f5 84 d8 3d 25 a5 99 bd c2 ae 18 3e
       -0.21561567 0.105722345 -0.07502202 0.14910415
0001b0 4a 4d 0d be c7 2a c0 3d 12 a9 34 be 34 3a 1f 3c
       -0.13799015 0.09383159 -0.1764262 0.009718467
0001c0 b1 87 5d bd 2c 84 f4 bd 14 38 29 be 46 bb fe 3d
       -0.054084484 -0.11939272 -0.16525298 0.12438063
0001d0 a4 dc bf ba dc 1b 36 be aa 37 51 bd ed ea 23 be
       -0.00146379 -0.17784065 -0.051078476 -0.16007586
0001e0 15 4c eb 3d 6a 51 88 3c b4 4a b5 bd 28 0c cc 3c
       0.11489121 0.016640384 -0.08852139 0.02490814
0001f0 c6 c9 af 3d 5e f1 f2 bd 8b f4 4c be f0 23 b8 3d
       0.08583407 -0.118624434 -0.2001516 0.089912295
000200 64 4b 68 bb ee 0d e8 3d b4 b8 04 3e 98 b6 b6 3d
       -0.0035445327 0.11330782 0.12961084 0.08921546
000210 1a 55 51 3e 4d 25 1d 3e f6 79 78 3d 2d 73 e5 bd
       0.2044262 0.1534626 0.060663186 -0.11203609
000220 5b 8f 03 be 21 29 81 3d 2a 3b 7b bd 30 21 93 3e
       -0.12847655 0.06306673 -0.06133572 0.28736258
000230 fd 08 8b bd bb 89 78 3e a6 f6 f1 3d 3c 5a 1e bd
       -0.06788824 0.2427129 0.118146226 -0.038660273
000240 af c2 dc 3d de 51 9a bc 92 fd b3 bd ef 65 1f 3e
       0.107793204 -0.018837865 -0.08788599 0.15566228
000250 a9 6d 2b 3e a2 22 1c be c2 17 34 3d 29 75 d1 3d
       0.16741051 -0.15247586 0.04396797 0.10227425
000260 97 fd ee bd db 8c 09 bd 83 19 19 bd 06 5d 94 bd
       -0.11669462 -0.033581596 -0.037377845 -0.07244305
000270 8d 4b c8 bd 68 26 d4 bd 7a 33 3f be 43 28 8b 3d
       -0.09780035 -0.10358888 -0.1867198 0.06794789
000280 de 13 18 3e 45 50 a5 3c d5 eb e3 3d f6 90 be bd
       0.14851329 0.020179877 0.11128966 -0.09304993
000290 1d 99 df 3d be 99 9c bb c9 6c b5 3d 3a e1 08 3e
       0.10917876 -0.0047790697 0.0885864 0.13367167
0002a0 45 42 d3 3d 9b d2 3f 3e c4 f9 a0 bd 19 65 cd 3c
       0.10315374 0.18732683 -0.07860139 0.025072621
0002b0 dd 82 9c 3d 46 09 08 3d ec 36 55 be da a5 3f be
       0.07642148 0.03321197 -0.20821732 -0.18715611
0002c0 6d 02 ab 3c ad 09 52 bc 49 e8 60 bd cd 91 74 bd
       0.02087518 -0.01281969 -0.054909024 -0.05970936
0002d0 b5 82 2b 3e 20 20 2b be ea f1 b2 3b 9d 10 5d 3e
       0.1674908 -0.16711473 0.0054609673 0.21588369
0002e0 b8 3c 6a 3e 2c b4 ab bd ea ba 19 be 0d 9b 25 3d
       0.22874725 -0.083839744 -0.15012708 0.04043107
0002f0 41 5e 0e 3e 4d 79 13 3d 3f 4d 02 bd de 4b 7f bd
       0.13903143 0.036004353 -0.03181195 -0.062328212
000300 b8 9e bc 3d c8 71 0c 3d 66 cb 0b 3e 4b 7a 85 3d
       0.09209961 0.034288198 0.13651809 0.06517466
000310 52 3e 9b bd d4 b2 84 bd f2 b0 3f 3e c4 ac f2 3d
       -0.07580246 -0.06479421 0.18719843 0.11849359
000320 95 85 b1 bd 53 61 df 3d 52 83 24 3e e6 99 b8 3d
       -0.08668057 0.10907235 0.1606572 0.09013729
000330 28 dc c5 bd 76 f0 21 3c a1 df a4 3d fd 20 c1 bd
       -0.09661132 0.0098839905 0.08050466 -0.0943012
000340 a1 6a f4 bd c9 de ba bd bb 11 67 3d 7f 93 c0 3d
       -0.119344 -0.09124524 0.056413393 0.09403133
000350 36 07 7d 3d ca a3 d3 3c d7 8e 23 3d 98 d8 0c 3e
       0.061774455 0.025834937 0.039931145 0.13754499
000360 4e ed 28 3e 03 a0 87 bc 78 f5 0f 3e 19 17 f3 3d
       0.16496775 -0.016555792 0.14058483 0.1186964
000370 00 d0 49 3e fc 70 3b be 33 5e 78 bb 6f 1e 9c bd
       0.19708252 -0.18304819 -0.0037897944 -0.07622992
000380 8a 96 54 3e e1 01 13 be 9c ec 4e 3e f9 51 40 be
       0.20760551 -0.14356185 0.20207447 -0.1878127
000390 d5 93 f5 3d 8a cb ce 3d c8 a4 28 3e 17 60 29 be
       0.11991087 0.10097416 0.16469109 -0.16540562
0003a0 04 3d 97 3d 29 7a 04 be 40 9b 06 3e c6 1b 04 be
       0.07384685 -0.12937225 0.1314516 -0.1290122
0003b0 ed b6 b6 3d f3 0a a6 3d fd 83 96 bb ca 19 20 be
       0.08921609 0.08107557 -0.004593371 -0.15634838
0003c0 21 f9 05 be be 4e 0c be 1e 43 15 3c 33 bb 99 bd
       -0.13083316 -0.13701913 0.00911024 -0.075064085
0003d0 1a 44 af bd f4 a5 88 bc f2 c3 eb bc 68 06 5d 3d
       -0.08557911 -0.016680695 -0.028779957 0.053961188
0003e0 f3 98 fd bd ab ef 7b 3b ca 05 1b be 86 40 11 be
       -0.123826884 0.0038442414 -0.15138927 -0.1418477
