Homography_Trained_Model/E2EMP_UL2_10.pth (torch, 885388 bytes, 291 tensors)

weight f4 [1, 1, 1, 7]
00000000: 0839 d83e 22b3 413d 13e1 043e 73c6 ed3d
00000010: fce6 0dbe c26e dabd bb17 ddbd
0.4223101 0.047289975 0.12976484 0.11610117 -0.13857645 -0.106656566 -0.10795542

weight f4 [1, 1, 1, 7]
00000000: 0fe7 c83c ed9f 03be c52d 993e f559 393e
00000010: 8244 f53e 358f a93e ef58 153e
0.02452424 -0.12853976 0.29917732 0.18100722 0.4790383 0.3311707 0.14584707

weight f4 [1, 3]
00000000: 0345 a63f 451e c43f a4fd 91bd
1.2989811 1.5321738 -0.07128456

bias f4 [1, 2]
00000000: 16ad 863d c842 c2b9
0.06575982 -0.0003705232

running_covar f4 [1, 3]
00000000: e8f1 143d 88b3 f63c 2a7e 79ba
0.036363512 0.030114904 -0.0009517396

weight f4 [1, 1, 5, 1]
00000000: 4338 eebc d821 3fbe 91b7 46be 3ab0 b0be
00000010: e5cd bf3e
-0.029079562 -0.18665254 -0.19405963 -0.3450945 0.37461773

weight f4 [1, 1, 5, 1]
00000000: 7221 6bbe cd23 fb3e fbcf ccbe 7555 02be
00000010: e6e8 9d3e
-0.22961977 0.4905075 -0.40002427 -0.12727912 0.3084175

weight f4 [1, 3]
00000000: d6c3 b83f ff48 ba3f 1f97 8fbd
1.4434764 1.4553527 -0.07011246

bias f4 [1, 2]
00000000: 50be 1fbd 8b26 2f3d
-0.038999856 0.042761367

running_covar f4 [1, 3]
00000000: c6a1 a83e 7c3a 8a3e b749 913d
0.32935923 0.26997745 0.07094138

weight f4 [1, 1, 5, 1]
00000000: 3d4f aa3d 0e7f e43e ce6f a7bd b133 013f
00000010: 635f a23d
0.08315895 0.44628185 -0.08175622 0.504695 0.0792835

weight f4 [1, 1, 5, 1]
00000000: b2ee 9c3d a89a f2bd a0fd 353e 7176 863e
00000010: 6ddb 1f3d
0.07662715 -0.118459046 0.17772532 0.2626224 0.03902762

weight f4 [1, 3]
00000000: d9c2 c03f 7b9a a93f ddeb a73d
1.5059463 1.3250269 0.08199284

bias f4 [1, 2]
00000000: 7a46 feba 07ed e9bd
-0.0019399666 -0.114221625

running_covar f4 [1, 3]
00000000: b88d fe3b d933 4b3c d634 7a3b
0.007768359 0.012402498 0.0038178465

weight f4 [1, 1, 1, 7]
00000000: add3 473e 5050 4b3e 4805 52be 9300 4d3e
00000010: 2efc f3bd d341 c7bd 7cab 203d
0.19514342 0.19854856 -0.20509827 0.2001975 -0.11913334 -0.09729352 0.03922604

weight f4 [1, 1, 1, 7]
00000000: 0dc2 d53e d935 61bd a464 ccbe c758 9e3e
00000010: ee01 42be e542 913e db50 e33d
0.41749611 -0.054982994 -0.39920533 0.30927107 -0.18946049 0.2837135 0.11099406

weight f4 [1, 3]
00000000: 00dc c73f 6cf8 d23f 0f0f 6a3e
1.5614014 1.6482062 0.22857307

bias f4 [1, 2]
00000000: f712 483e 3038 983e
0.19538485 0.29730368

running_covar f4 [1, 3]
00000000: 04fd f63d f5b7 143e 334b 1b3c
0.12059978 0.14523299 0.009478378

weight f4 [1, 1, 3, 3]
00000000: 8565 4e3e 7cdd c73d 73fd 8fbe 8ee2 bf3e
00000010: 541c 133e 4f9a f9bd 8c48 473d 7d3f 78be
00000020: 146e 5e3d
0.20155914 0.09759042 -0.28123054 0.37477535 0.14366275 -0.12187635 0.04865317 -0.24242969
0.054304197

weight f4 [1, 1, 3, 3]
00000000: d29e 8bbd 9753 3abc 4ed4 17be caae f23d
00000010: 7c7d 67bd d8c0 5b3e 050e 703e c65c 94bc
00000020: 9916 86bd
-0.06817402 -0.011372468 -0.14827082 0.118497446 -0.056516156 0.21460283 0.23442848 -0.018110644
-0.06547279

weight f4 [1, 3]
00000000: 6c30 ac3f f6f6 bd3f 6a5e adbd
1.3452277 1.4840991 -0.08465274

bias f4 [1, 2]
00000000: b0d8 2f3d 8eb5 913d
0.04293126 0.07114707

running_covar f4 [1, 3]
00000000: 6ecc e03b 806b 0e3c d417 a43a
0.0068603074 0.008692622 0.0012519308

weight f4 [1, 1, 3, 3]
00000000: 027d 9fbd d7e7 ac3e 97eb 81be 8ddb 35be
00000010: 1d0b b93e fae8 2b3e d2c2 a83d 0259 c3bd
00000020: f2e0 55be
-0.07787515 0.3377063 -0.25375053 -0.17759533 0.3614129 0.16788092 0.08240284 -0.09538461
-0.20886591

weight f4 [1, 1, 3, 3]
00000000: 6a53 e43d 2dbd 60bd f942 debd 57b0 9bbe
00000010: 9582 1cbe 0244 97bd acb9 9c3d 279b ed3d
00000020: 9942 a43d
0.111487225 -0.054867912 -0.10852618 -0.30407974 -0.15284188 -0.07386018 0.076526016 0.116018586
0.08020515

weight f4 [1, 3]
00000000: ba76 9e3f f3e1 b03f e8b4 3bbd
1.2379982 1.3818954 -0.045826823

bias f4 [1, 2]
00000000: 659f 22bd 8fba 6f3d
-0.03970279 0.058527526

running_covar f4 [1, 3]
00000000: 7187 eb3e 3ac9 213f c0b0 103d
0.4600177 0.6319767 0.035324812

weight f4 [1, 1, 1, 7]
00000000: b68f d23d 2384 49be 2cc2 5ebe 498c 07bd
00000010: bd32 443e 1f1c 58be 6dc1 4ebe
0.10281317 -0.19679312 -0.21753758 -0.03309277 0.1915998 -0.21104477 -0.20190974

weight f4 [1, 1, 1, 7]
00000000: 25c9 be3e f336 d6bd 6e7e a4be 65dd 84be
00000010: 6fe8 90bd 81c6 1fbe 3fca edbc
0.37262836 -0.104596995 -0.32127708 -0.2595016 -0.07075583 -0.15603067 -0.029027103

weight f4 [1, 3]
00000000: dcbf c13f 25f7 a73f 4830 b93d
1.5136676 1.3122298 0.09042412

bias f4 [1, 2]
00000000: bcf3 e13c c926 b13d
0.027582042 0.08649976

running_covar f4 [1, 3]
00000000: 559f a93a fb09 823b 4f54 3a39
0.0012941161 0.003968475 0.0001776975

weight f4 [1, 1, 5, 1]
00000000: d2fe 93be fd7b 123e 0091 313d 6df1 703e
00000010: 3ce5 8abe
-0.2890535 0.1430511 0.043351173 0.23529597 -0.27128017

weight f4 [1, 1, 5, 1]
00000000: 7e1d f13c 5a67 8bbe cc35 89bd c0c3 f6bd
00000010: 6d78 c0be
0.029433008 -0.27227288 -0.06699714 -0.12049055 -0.37591878

weight f4 [1, 3]
00000000: b3f5 9f3f 6e43 af3f 9533 413d
1.2496856 1.3692453 0.047168333

bias f4 [1, 2]
00000000: 8dcf f6bd 56a8 cabc
-0.12051306 -0.024738472

running_covar f4 [1, 3]
00000000: 746a 263f ffbe ae3f 6d08 c5be
0.65006185 1.3652037 -0.3848299

weight f4 [1, 1, 5, 1]
00000000: 0f35 0ebe 88e0 023f c177 72be b725 84be
00000010: 1ba2 e8bc
-0.13887428 0.5112386 -0.23678495 -0.25810024 -0.02839761

weight f4 [1, 1, 5, 1]
00000000: b488 9cbe 6dd8 9bbe 7f78 0abe 8a4e acbc
00000010: 16a9 693e
-0.30573046 -0.30438557 -0.13522528 -0.021033544 0.22818407

weight f4 [1, 3]
00000000: 69a8 ae3f a201 ba3f 29eb 99bc
1.3645145 1.4531748 -0.01878889

bias f4 [1, 2]
00000000: 854e 5a3e 18b3 263d
0.21319015 0.04069814

running_covar f4 [1, 3]
00000000: ccb2 253c 71cb 163b 8c5a 20bb
0.010113429 0.0023009444 -0.0024468033

weight f4 [1, 1, 1, 7]
00000000: a106 073e 076d aa3e fb5f 21be 5489 963d
00000010: 23bd 323d 260a afbe 4cb8 74be
0.13186122 0.33286306 -0.1575927 0.07350412 0.043637406 -0.3418743 -0.23898429

weight f4 [1, 1, 1, 7]
00000000: 0ab4 923d 97f2 ae3e dd6d 0a3e 496d 95be
00000010: 6e21 9e3e 346c cf3d dc21 b7be
0.07163246 0.34169456 0.13518472 -0.2918494 0.3088488 0.1012806 -0.3576802

weight f4 [1, 3]
00000000: a0c4 b33f 83d6 a73f 7d01 42bd
1.404438 1.3112339 -0.0473647

bias f4 [1, 2]
00000000: 1131 9dbc bc05 efbc
-0.019188436 -0.029177539

running_covar f4 [1, 3]
00000000: 04db 543e 444a d33d 17a1 d73c
0.20786673 0.103168994 0.02632193

weight f4 [1, 1, 3, 3]
00000000: 111d c1ba 4e64 ba3b 4fe7 70be e4db 37be
00000010: b9c9 3ebe 79ef 9d3e e64f bbbd d38f 8dbe
00000020: 285d b53b
-0.0014733394 0.005688227 -0.23525737 -0.17954975 -0.18631639 0.30846766 -0.09146099 -0.27648792
0.0055347867

weight f4 [1, 1, 3, 3]
00000000: a824 c63d 5a04 933d 8f1b 373e a870 9dbe
00000010: a56b e93c 8125 64be 7213 1ebe dc7c 103e
00000020: cb40 a4be
0.096749604 0.07178564 0.17881607 -0.30750012 0.028493712 -0.22279932 -0.15437105 0.1411013
-0.32080683

weight f4 [1, 3]
00000000: 9e96 b23f 8dca b83f 7faf d63c
1.3952215 1.4436814 0.02620673

bias f4 [1, 2]
00000000: 6636 603d 4d31 183d
0.05473938 0.037156392

running_covar f4 [1, 3]
00000000: de04 593b cf19 b63b 023d 94ba
0.0033114473 0.005557276 -0.0011309686

weight f4 [1, 1, 3, 3]
00000000: 1304 973d 530c 253e a44a 6f3e 7482 993e
00000010: 18b8 2d3d 8955 78bd d00d 8c3c 4d0c 863d
00000020: 992d 2fbc
0.07373824 0.16117983 0.23368317 0.2998234 0.042411894 -0.060628448 0.01709643 0.06545315
-0.010692024

weight f4 [1, 1, 3, 3]
00000000: 2875 94be 554b a7be 64e4 3cbe 9ed0 4d3e
00000010: 04c2 70be 5ff9 b8be 950b 383e 1820 bebe
00000020: 2460 8ebe
-0.28995633 -0.3267466 -0.18446499 0.20099112 -0.23511511 -0.36127755 0.17973168 -0.3713386
-0.27807724

weight f4 [1, 3]
00000000: 3779 9f3f badb a03f 8b38 b7bc
1.2458867 1.2567055 -0.022365829

bias f4 [1, 2]
00000000: e840 bfbd 4c7f 06be
-0.09338552 -0.13134497

running_covar f4 [1, 3]
00000000: c6cc b23f 8a08 a63f 82fa c8be
1.3968742 1.2971356 -0.39253622

weight f4 [6, 6, 9]
00000000: 015a a13d 7d18 1c3e 07e6 773d ca7b 0a3e
00000010: b7d3 b03d 6911 a23c b512 943d 0171 cdbd
00000020: 42f2 783c 2672 563d e2e5 21be 6029 b5bd
00000030: 9c6d 1fbe 57b5 cb3d 8c64 b83d be5b d1bd
00000040: 1624 4dbe a251 56bd caf1 383d 1354 9e3c
00000050: a8b3 843d d5fd 9abd 9d06 073e fb31 063c
00000060: 4689 a6bc 8052 cd3c 61d5 0c3e d405 90bd
00000070: 2903 08bd f563 4c3e b7c6 5fbd 431a 023e
00000080: e4d5 413d c12a 2d3e 0568 043e 2462 04be
00000090: 785c 37be 1051 81bd 675f 5fbd 8e06 28bd
000000a0: 2de6 9cbd 943d 32be 95ea a3bd 51a0 b13d
000000b0: 69d4 01be 83fd 2bbe cfdd 0e3c 52a1 ec3d
000000c0: 7186 db3b 461e 403d 7f20 943c 3bc2 3dbd
000000d0: b2b7 13be 3a46 c8bd 7ca3 acbc c221 c13d
000000e0: fa77 8a3e 12a1 663b ef1c a03d b12e 54bb
000000f0: 34f2 8d3d 8e06 e03d 0607 263e 29ae a5bd
00000100: 8b4d d63c 9bf6 ccbd 77c8 f93c e5f4 acbc
00000110: 4241 1fbe ec58 2bbd 8482 c73c 3348 253d
00000120: 5fc6 303e 77be 81bd 5486 183d ca55 b2bb
00000130: 6a09 4f3d d626 9a3d d68c 103e 268c 503d
00000140: c063 69bd 5753 72bc cd9b 27be 0e89 133e
00000150: bfb2 483d 7d2a 263e 2991 903d e79e 933d
00000160: 6ed3 9cbd fd85 c8bd 5141 fdba da69 36bc
00000170: daef ba3d 9edb e5bd d63a 14bd 6499 f2bd
00000180: 1c56 8abd 2cda 8a3b 5157 3c3d f45f 43be
00000190: c527 1cbe 61d7 2cbe d418 8ebd dc4a 14be
000001a0: 7ee4 a4bd 33cd 1c3d 49ab 9abd 9a56 efbd
000001b0: c295 18be 6f0f 22bd 96ad f13d 2b4b e8b9
000001c0: cec5 333e 9575 373e 333b 3c3d f3ec 243e
000001d0: 8c58 1b3e 9428 c4bd c31e 0ebd f7db 0fbe
000001e0: 555f 47bc f3ea a7bc de19 b83d db8b 463d
000001f0: 50bd 173e e8c3 a83d 6e20 af3d b47d f9bd
00000200: b668 74be eeb9 95be f3be 243b 1f42 82bc
00000210: 8409 58be d6de 85bd dc86 24be 1b4f 07bd
00000220: 6da1 acbb 2dae 98bd 4b1e ed3d 1ac0 edbc
00000230: 8433 8dbc a443 e0bd f35d 09be 53ac bc3c
00000240: 2fc7 23bc 51cf 0cbe 7b7b 5dbd 8e55 c4bd
00000250: b3df 11be 8054 3d3d eced 383b 6e2f 80bd
00000260: ea86 c8bb d682 02be 66d1 c03d b832 52bd
00000270: a9c5 b23d 843c c8bd bbab 1dbe f54f b2bd
00000280: 2df6 77bd 2c4c ffbc f585 173e 87c8 6fbd
00000290: 85ae 73bc 54d6 10be 520a bc3c 1604 323e
000002a0: 2dad 193e c818 933d 476c 0a3e 54a4 6dbd
000002b0: 1739 e93b e14f 773e 86a5 713d dc26 24bb
000002c0: 7687 463e eadb a3ba 654b da3d d608 e03d
000002d0: 7858 c7bd ebda e63a 51a4 8e3d 875f b93d
000002e0: 8c39 85bc 4413 42bd f9ca 27be 785f 1ebe
000002f0: 7895 803d 7495 833e 6b13 d13d 8eb5 813d
00000300: d090 40bd 321d 3dbd 9aa0 52bb 74fc 9cbd
00000310: 9080 01bd ad8d cb3d cd66 c5bd 8ff7 f0bd
00000320: 699d 15be 5046 b7bd 9dcf 12be 8ec2 c23c
00000330: c487 33be 8782 443c 22b1 f63a 5edc 0c3e
00000340: 7283 22bd c8d8 2abc 1644 e33d 2425 063e
00000350: 9f72 5cbc 7a2a 9c3d f350 a6bd 3c63 1e3d
00000360: 3b35 853c a982 d2bc 6c21 0bbe 46f1 ab3d
00000370: cd4f 823c 9451 1a3d 286b 58bd ec37 0bbe
00000380: 2c28 953b 242e b33d bb4c c2bd 1d50 1b3b
00000390: 1056 f93c 936e 9b3d 7dfb 0bbe b455 1abd
000003a0: fbbb 8abc 2ff9 64bd 78b3 f13c d3ad ed3d
000003b0: 37f3 3d3e 92be 233e 36ba 09bd f5ae abbd
000003c0: 9fee e13d 65da a0bc 9188 e93d 9948 73be
000003d0: c4f5 20bd 480d 8ebd 0dd7 a6bc 34c4 81bd
000003e0: a0bd af3d d103 f43d 0c91 ba3d c280 02be
000003f0: 72ad 08be 8c80 bb3d 3322 2cbd fb22 c43d
0.07878495 0.15243717 0.060522106 0.13523784 0.086341314 0.019783692 0.072301306 -0.100313194
0.0151944775 0.052354954 -0.1581035 -0.08845782 -0.15569156 0.09946697 0.09003553 -0.102225766
-0.20033297 -0.052323945 0.045152463 0.0193272 0.06479579 -0.07567946 0.13186117 0.008190627
-0.020329129 0.025063753 0.13753273 -0.070323616 -0.03320614 0.19960006 -0.05463287 0.1270533
0.047323123 0.1691084 0.12930305 -0.12928063 -0.17906368 -0.063142896 -0.054534342 -0.041021876
-0.0766109 -0.17406303 -0.08003727 0.08673156 -0.12678684 -0.16795926 0.0087198755 0.11554207
0.0066993763 0.04690387 0.018081902 -0.04632781 -0.14425543 -0.0977902 -0.02107405 0.09430267
0.2704466 0.003519122 0.07818019 -0.0032376463 0.06930962 0.1093875 0.16213617 -0.08089859
0.026160022 -0.10007974 0.030491097 -0.021112869 -0.15552238 -0.04183285 0.024354227 0.040352058
0.17263173 -0.063351564 0.03723748 -0.0054423558 0.050546087 0.075269386 0.14116225 0.050914906
-0.056979895 -0.014790378 -0.16368027 0.14407751 0.04899859 0.16227145 0.07058937 0.072080426
-0.076575145 -0.09791181 -0.0019321834 -0.011133635 0.09127779 -0.11223529 -0.036188923 -0.11845663
-0.06754705 0.004237434 0.04598171 -0.19079572 -0.15249546 -0.16879036 -0.06938329 -0.14481682
-0.08051394 0.03828163 -0.07552201 -0.1168644 -0.14900878 -0.0395655 0.11800687 -0.00044306493
0.17555925 0.17915948 0.045954894 0.16106014 0.15170497 -0.09578052 -0.034697305 -0.14048754
-0.012168725 -0.020497775 0.08989309 0.04847322 0.1481831 0.08240491 0.08551107 -0.12182179
-0.23868069 -0.29243416 0.0025138229 -0.01590067 -0.2109738 -0.06536643 -0.1606707 -0.033034425
-0.005268267 -0.074550964 0.115780436 -0.029022265 -0.017236479 -0.109504014 -0.13414745 0.02303139
-0.00999622 -0.1375096 -0.05407284 -0.09586631 -0.1424549 0.046223164 0.0028217984 -0.062590465
-0.0061195986 -0.12745222 0.094149396 -0.0513179 0.08729107 -0.097771674 -0.15397541 -0.08706657
-0.060537506 -0.031164251 0.14797194 -0.058540847 -0.014873152 -0.1414426 0.02295414 0.17384371
0.15007468 0.07182461 0.13517867 -0.058018044 0.0071174013 0.24151565 0.058995746 -0.0025047576
0.19387612 -0.0012501453 0.106589116 0.10939185 -0.09733671 0.001761285 0.069649346 0.090514235
-0.016262792 -0.047381654 -0.16386022 -0.15466106 0.06278509 0.2569996 0.10208782 0.06333457
-0.047013104 -0.04617042 -0.0032139183 -0.07665339 -0.031616747 0.09939132 -0.09638748 -0.11765968
-0.14610828 -0.08948958 -0.1433701 0.023774412 -0.17532259 0.011994011 0.00188211 0.13755938
-0.039676137 -0.010427661 0.11096971 0.13100106 -0.013455062 0.07625289 -0.081209086 0.038668856
0.016260734 -0.02569707 -0.13586968 0.08395629 0.015907193 0.037675455 -0.052836567 -0.13595551
0.004551908 0.08749035 -0.094872914 0.0023698874 0.030436546 0.0758945 -0.13670154 -0.03767939
-0.01693534 -0.055901702 0.029504523 0.1160542 0.1854981 0.15990666 -0.03362485 -0.0838298
0.110318415 -0.019635389 0.11403001 -0.23758163 -0.03929688 -0.06936127 -0.020366216 -0.06336251
0.0858109 0.119147904 0.09109697 -0.1274443 -0.13347414 0.09155378 -0.042024802 0.095769845

weight f4 [6, 6, 9]
00000000: acc8 07bd 5bd1 acbc 8175 bfbc 2a88 0a3d
00000010: 35a5 15be f768 ab3d 32ef 463e 4822 853e
00000020: c565 ac3e 0627 a4bc 6374 f23d ecfc 523e
00000030: 537c a13d faae 06bd 84de 22bc dd3d b6bc
00000040: 41a2 8a3d 1581 39bb e457 493e d07d d33d
00000050: 022b 253e fd8e 2b3e afd1 c23d 09a7 f8bc
00000060: 73b3 92bd ca07 e7bd 862c 80bd 5063 89bc
00000070: 309a 80bd ba8c 103d e1c4 d53d ac72 ad3d
00000080: 80c4 ebbd 51bb 74bd 1d59 88bd a8a1 4f3d
00000090: 508a 65bd cb05 423d 7b4a 08be 7e24 013d
000000a0: cf13 eb3c b7d4 f0bd a1bd 27bd 3a73 e03d
000000b0: 5a9d aa3d 2259 963d bca6 0dbc f51a 903d
000000c0: 1e6d da3b 8dec ebbc 6fe9 c53d b89d cbbd
000000d0: 7f92 893d 87a1 a8bd b004 b1bc 937e 04bd
000000e0: c112 303d 8aae 993d b6e3 dbbd 7a88 873d
000000f0: 26d4 e83d f02a 1f3e cf6e 123e a17a 6f3e
00000100: 6cb1 7e3d 2794 69bd 3e60 73bb 8975 2bbd
00000110: 2d17 29bd b2de 15be b440 eebd 4d29 39be
00000120: cc01 19be 47d6 3a3d 7a84 b5bc 4cbc 133e
00000130: afd8 be3c 6f7f 02be 8400 a7bd 0f0c dd3c
00000140: 8ad2 7dba 75f1 19bd 502f b0bc 9bb6 fb3d
00000150: d1d5 083e 424d 3abd 3ace 023d 67bc 6b3d
00000160: fd5b 843d 2191 9e3d 2456 1d3e 31a0 573e
00000170: 9fa1 ff3c 6487 0abc db79 fe3d b12c bbbc
00000180: 558b 42bc d4e4 203c 8989 fdbb 04c3 efbc
00000190: 45bc a03d 7e8d 133c d19e f3bb e38a e0bc
000001a0: d71c f23d cfed 283e a43d 863d 4bf4 cf3d
000001b0: 11e6 383d 2eb7 133e 463d c63d 0a41 6b3d
000001c0: 9d40 6abb 4e17 e2bd 62d5 71bc e29b 67be
000001d0: 804d 35be df97 143e ae9e b2bc d0ed 0dbe
000001e0: 731f 11be 680b 23bc 4d7b b13c 9a41 8f3c
000001f0: 68c1 8ebd 30a3 2ebe f3a7 41bd b59a 063e
00000200: 01e2 1d3d 9100 503c 231c 6d3c 0e0d 8abd
00000210: 32ca a03d 6304 1bbd fa90 193e 31df ca39
00000220: e81f bb3c 5771 33bc 9fc4 133d 211c a9bd
00000230: 18a6 cb3c 342a e1bc 7d54 e33b 86bd 4abd
00000240: 2ec5 ce3a eba9 663e f14f 0f3d b152 083e
00000250: ca9a 303e 0497 123d 63c4 123e b808 913d
00000260: d004 49bd eb52 823d b102 463d 430f 26be
00000270: 5609 143d 897d 9ebd 5f85 d0bd 8352 7938
00000280: be09 783d e00c d5bd 9ff0 55bd 2cf1 b83c
00000290: ebdf e93d 54e9 e73b 7ea1 24be c2d0 c23d
000002a0: f61b 583d af96 833e 1e4f 203e 7976 88bd
000002b0: 46b6 80bd 127b a7bc 3369 c23c 25d3 1a3e
000002c0: c7d4 a3bd c7c3 203d 71e3 2bbd dbcc f8bd
000002d0: fc57 be3d 1e1d 133e aa04 273e 879d 943d
000002e0: 3e5f a4bd 9c89 27bd 8eae 1cbc 9744 09bd
000002f0: 7e3b bfbd 7894 533d 4a28 fabd baae 163e
00000300: 992c dd3d 61a3 153e 82d0 16be bad7 a2bd
00000310: 66f5 94bd e345 02bd 745d b8bd 0a33 73bd
00000320: f40d ce3d e5a4 04be 34d0 02be 1bd1 193d
00000330: 5b22 37be 3b43 9dbb 661b 3a3d 2618 1fbe
00000340: ea0d 3c3c db77 163d c48e 44be 00a8 3c3d
00000350: c126 1fbe 3b67 2cbc 05c7 8bbc 34c6 10be
00000360: 8639 393d 59f8 e4b9 0e02 59be 4d3f cbbd
00000370: 4b97 dbbc be80 64bb 77ad c13d 85a7 263e
00000380: 01fc 843e ef9b 60bd 801d 49bd 35cb 623e
00000390: 1bd4 863e c2f1 263e e665 0cbe ddc9 edbd
000003a0: d1ec d63c ef62 88bd 8de8 513e 6afc bf3d
000003b0: cc15 003c caf5 843d e820 553d 7f1c a63d
000003c0: 5943 733c 925f b3bd 62a9 463d e058 f03d
000003d0: ee29 13bd 8662 bfbd 93ba c6bd 0066 12be
000003e0: f11c c9bd 10b6 d73a 4709 e5bd 7e06 c43d
000003f0: 4bbb 3dbd 4562 9abd d2b1 fb3d 73da 893d
-0.03315036 -0.021095922 -0.02337146 0.033821262 -0.14613803 0.0836963 0.19427183 0.26002717
0.33671394 -0.02003814 0.11838605 0.20604295 0.07885041 -0.032881714 -0.009940747 -0.022246296
0.06769229 -0.0028305699 0.19662434 0.10326731 0.16129687 0.16753764 0.0951265 -0.030353086
-0.071631335 -0.112807825 -0.06258492 -0.016770989 -0.06279409 0.035290457 0.10437942 0.084691375
-0.11512089 -0.05974895 -0.06657622 0.050691277 -0.05604011 0.047368806 -0.13309662 0.031528942
0.028695969 -0.11759322 -0.04095233 0.10959478 0.08330794 0.073412195 -0.00864571 0.07036392
0.00666584 -0.02879932 0.096636645 -0.09942192 0.06717395 -0.08233934 -0.02160868 -0.032347273
0.042986635 0.07503994 -0.10736792 0.06617828 0.11368589 0.15543723 0.14300083 0.23386623
0.06218092 -0.057026055 -0.0037136222 -0.041860137 -0.041281868 -0.14635733 -0.11633435 -0.18082161
-0.14942092 0.045614507 -0.022157896 0.14427298 0.023296682 -0.12743925 -0.08154395 0.026983289
-0.0009682557 -0.037583787 -0.021506935 0.122906886 0.13362814 -0.045483835 0.031934954 0.05755272
0.06462858 0.07742525 0.15364891 0.21057202 0.031204997 -0.008455131 0.12425586 -0.022848459
-0.01187404 0.009820182 -0.0077373427 -0.029267795 0.078484096 0.009005902 -0.007434704 -0.027409976
0.11821907 0.16496967 0.06554726 0.10154017 0.045141283 0.14425346 0.09679656 0.057435073
-0.003574408 -0.11039601 -0.014760347 -0.22618058 -0.17705345 0.14511059 -0.02180418 -0.1386025
-0.14172153 -0.00995145 0.02166524 0.017487336 -0.06970483 -0.17054439 -0.04727931 0.13144954
0.038545612 0.012695448 0.01447204 -0.06740771 0.07851066 -0.03784598 0.1499671 0.00038694733
0.022842363 -0.010952315 0.036076184 -0.08257318 0.024859473 -0.027485944 0.006937562 -0.04949715
0.0015775317 0.22525756 0.034988347 0.13312794 0.17246547 0.03578855 0.14332728 0.07081741
-0.049076855 0.063634716 0.04834241 -0.1621676 0.036141716 -0.07738788 -0.101816885 5.944307e-05
0.060556166 -0.10402846 -0.052231427 0.022575937 0.11419662 0.0070773754 -0.1607723 0.09512474
0.05276104 0.257009 0.15655181 -0.06663222 -0.06284766 -0.020444427 0.023731804 0.15119608
-0.079995684 0.039249208 -0.041964952 -0.12148448 0.092941254 0.14366576 0.16310373 0.072566085
-0.080259785 -0.04090272 -0.009563101 -0.033512678 -0.09337519 0.051655263 -0.12214716 0.1471509
0.10799522 0.14613105 -0.14727977 -0.07951303 -0.072733685 -0.03180493 -0.090022 -0.059374847
0.10061255 -0.12953527 -0.12774736 0.037552934 -0.178842 -0.0047992743 0.045436285 -0.15536556
0.011477927 0.036735397 -0.19195086 0.046058655 -0.15542127 -0.010522659 -0.017062673 -0.14138108
0.045220874 -0.00043672582 -0.2119219 -0.09924183 -0.02680554 -0.0034866775 0.09456914 0.16274841
0.25973514 -0.05483621 -0.0491004 0.2214783 0.263337 0.16303161 -0.13710746 -0.11610768
0.02623597 -0.06659495 0.20498867 0.09374316 0.007817697 0.06492193 0.052033335 0.08110904
0.0148476 -0.08758463 0.04850138 0.117357016 -0.03592866 -0.09344964 -0.09703555 -0.14296722
-0.09819973 0.0016457457 -0.1118341 0.09571551 -0.046321195 -0.07538275 0.12289776 0.06731119

weights f4 [6, 1, 3, 1]
00000000: c55e 723f 580c 8f3f 5277 103e 5b03 763f
00000010: a465 853f 81a5 623c 9ff8 863f 2050 7d3f
00000020: 3e74 35be 46ab 813f 8df6 7e3f 1f95 04be
00000030: a824 7e3f 3e77 7c3f 8512 c63d 9166 803f
00000040: f057 8f3f 975d 9bbd
0.94675857 1.1175642 0.14108017 0.9609887 1.0421643 0.0138334045 1.0544623 0.98950386
-0.17720124 1.0130394 0.99594957 -0.1294751 0.99274683 0.9861945 0.09671501 1.0031301
1.1198711 -0.0758621

running_cov f4 [1, 6, 2, 2]
00000000: 227f 223f 31bc f13b 31bc f13b d676 2e3f
00000010: 8674 233f c0c1 f73b c0c1 f73b 870e 423f
00000020: 428a 333f efc5 d1bd efc5 d1bd 800e 463f
00000030: 7ad9 7a3f 35d3 2d3e 35d3 2d3e 56bd 793f
00000040: 82ef 683f b35a af3d b35a af3d a0ff 613f
00000050: a24a 343f d606 7abd d606 7abd c2cf 6e3f
0.6347524 0.0073771705 0.0073771705 0.6815008 0.63849676 0.0075609386 0.0075609386 0.75803417
0.7013284 -0.10242831 -0.10242831 0.77365875 0.9798809 0.169751 0.169751 0.9755453
0.9099046 0.085622214 0.085622214 0.8828068 0.7042638 -0.061041676 -0.061041676 0.93285763

weight f4 [6, 6, 5]
00000000: 1967 7e3d 870d 323e 0bed 3a3e 541d 193e
00000010: d5d1 853d 57ce 813c 407c 4fbe 71a8 9b3d
00000020: 04d5 6f3d 42cf d9bb 77af e5bc 51be cc3d
00000030: 1abd d4bd cdf8 6a3b 0487 c83d bbec 663d
00000040: 473d 80be 3ed4 16be 055a e23b dfb0 c83d
00000050: d635 e63d eb7d e8bd 0f21 f33d c813 cabd
00000060: ce70 313e 88bf afbd 2a96 133d c402 903d
00000070: fc6f 13be 2f83 7fbe 9537 b13e 7118 873e
00000080: 7919 443e 3a3c 05bd d4ba f6bd 85b3 33bd
00000090: 6999 143d 1322 35be 827d 54be 04e8 0cbe
000000a0: b9d0 d4bd 9105 a23c 089e 193e 27d5 d23d
000000b0: bea3 a83d 9cb6 b63c 6745 c7bd 3037 1f3e
000000c0: a778 2d3e 57d6 023e 0f74 97bd 00e9 c63d
000000d0: 5734 eabb 5754 1dbe efbd 193e 780f 80bc
000000e0: ce12 863d c48f 3dbd eefc 3dbe 701a 9f3c
000000f0: 3d70 db3d 4201 1dbd 7f9b a03b a4ab f0bd
00000100: 0d0d 6f3e d789 ecbc ef91 edbd 4e6b 2ebe
00000110: d9b0 a4bd f7ad 03be 3ab8 1dbe c1dd 0abd
00000120: 9de5 dc3d a448 a7bd d044 783d ae85 21be
00000130: 3db5 0b3d 5c9c f6bb 6502 513d 0700 b7bd
00000140: 05c6 9b3d 867c 993d 1334 d1ba 00f6 dcbb
00000150: 818e 96bc dc73 f33d 621c 7f3d f902 023e
00000160: 024b bebd 8706 6b3d 0a4a 20be c1a8 973b
00000170: 4e8f 2b3e b15c 513e d85b 613c b82f 7a3e
00000180: f779 f5bc 3955 233e 2ea5 4a3d fb9e 8f3d
00000190: a4a6 8a3d 4183 9abc 352c 19be 7f00 373e
000001a0: 7a2b 313c 476f 713d 635c 01be efd9 ab3d
000001b0: 7134 0f3d 5e19 853d 8489 f5bd 5c54 2b3d
000001c0: 14a0 0fbe d4d4 5e3d 15b7 02be ec58 053e
000001d0: 5ba7 1d3e a7f6 f23d 90b5 1c3e 6a94 053e
000001e0: 212f cabd fd52 e2bd b3fa dfbd 0ab2 73bb
000001f0: b477 9abc 9cc3 36be 62ce 15bd 61ac dcbc
00000200: 2182 04bd d0e9 14bc 499b b13d 2984 3f3e
00000210: 0e78 d6bc 52c9 07bd 7151 a2ba 989d b33d
00000220: ff7c 99bd eb34 d63c 1496 09be 9941 e6bd
00000230: c863 ed3d 82ba 33be 033c 0bbd 5bbc 3bbd
00000240: ff7a 5e3d 3bc9 9a3b 343d 32be 9355 efbd
00000250: 21a9 413b f588 00be f24b 063e 731f 52bb
00000260: c81b 21be b9c0 003e cbf9 c03d b0df ffbc
00000270: 5110 29bd 158a bebd 3908 dabd 1646 193d
00000280: 80fd 193d 9165 7abd b671 273d 2f31 3b3e
00000290: 2baf f0ba 0a9e 92bc a38d a0bd 9c40 8dbd
000002a0: c679 efbd 65be 643d fbd4 5abd 9acf 243d
000002b0: 436f 673d 04b3 dd3d 80e2 563d a880 2abd
000002c0: 2835 90bc b08e 723c b2e6 acbd 3586 6bbe
0.06211004 0.17387973 0.18254487 0.14952594 0.06534163 0.01584546 -0.20262241 0.07600487
0.058552757 -0.0066470215 -0.02803777 0.099972375 -0.10387631 0.0035853863 0.09791377 0.056378108
-0.2504675 -0.14729401 0.006907704 0.097993605 0.11240737 -0.11352142 0.1187154 -0.09867054
0.17328188 -0.085814536 0.03603188 0.070317775 -0.14398187 -0.24952386 0.34612718 0.26385835
0.19150342 -0.03252814 -0.120473534 -0.043872375 0.036279116 -0.1768878 -0.20751002 -0.13760382
-0.10391373 0.019778045 0.1500169 0.10294562 0.08234356 0.022303872 -0.09730034 0.15548396
0.16940556 0.12777077 -0.07395183 0.0971241 -0.0071473527 -0.15364204 0.1501386 -0.015632376
0.065465555 -0.046279684 -0.18553516 0.019421786 0.10714767 -0.038331278 0.004901349 -0.11751488
0.23344822 -0.02887432 -0.116001 -0.17033121 -0.080415435 -0.12859331 -0.15402308 -0.033902887
0.10785983 -0.08168152 0.0606125 -0.15773651 0.03410839 -0.0075259637 0.051027674 -0.08935552
0.076061286 0.07494454 -0.0015960954 -0.0067431927 -0.018378498 0.11887333 0.062282927 0.12696446
-0.0929165 0.05737927 -0.15653244 0.0046282713 0.16753885 0.20445515 0.013754807 0.24432266
-0.029965384 0.15950479 0.049473934 0.07012745 0.067700654 -0.018861415 -0.1495827 0.17871283
0.010813588 0.058944013 -0.12632899 0.08391177 0.03496212 0.06498979 -0.1198912 0.0418285
-0.14025909 0.054402187 -0.12765153 0.13022202 0.15395872 0.118634515 0.15303636 0.13044897
-0.098722704 -0.11050985 -0.10936489 -0.0037184977 -0.018855907 -0.17848057 -0.036573775 -0.026937665
-0.032350663 -0.009088948 0.086721964 0.18702759 -0.026180293 -0.03315098 -0.001238389 0.08770293
-0.07494544 0.02614828 -0.13436157 -0.112429805 0.115912974 -0.17551616 -0.03399278 -0.045833927
0.054316517 0.0047236956 -0.1740616 -0.11686244 0.0029550272 -0.12552245 0.13114908 -0.0032062202
-0.15733254 0.12573518 0.09422644 -0.031234592 -0.041275326 -0.09303681 -0.106460996 0.037420355
0.037595272 -0.061132018 0.040879928 0.18280481 -0.0018362751 -0.017897625 -0.07839515 -0.06897089
-0.11693148 0.055845637 -0.05342577 0.040237047 0.05650259 0.1082516 0.0524621 -0.041626602
-0.017603472 0.014804527 -0.08442439 -0.23000415

weight f4 [6, 6, 5]
00000000: cf20 81be 0bb0 9a3c d072 183e eae5 3c3e
00000010: ed39 8f3e e674 3d3e d47d 46bd ccbd edbd
00000020: 8813 f3bd 67ba 44bd 078b 7e3e 5c95 68bd
00000030: 8159 89bd bd69 6d3d 2a83 63be ee7f 1f3e
00000040: ff9c 4d3c 66df 003e 3f03 2ebe 0017 91bd
00000050: 98a5 7e3e e3b5 443c 121e 8a3e 4247 b63d
00000060: 60f4 6c3e 92bf 8ebc 4667 5b3d 45d5 b7bd
00000070: ac92 e23d 4356 d0bd 148c 49bd 99e1 03be
00000080: 7b12 23be 7b3b e23d cc16 243e cc9d 30be
00000090: e9e1 23be 7882 9d3d b7ea 0e3e 0b59 32be
000000a0: 9ab4 ddbb bce7 a53d a250 08be 7097 f83d
000000b0: b478 80bb d292 bbbd fe96 99bd 3e7d f03d
000000c0: 4929 463e e2a7 dfbd eadd 9a3d cd9a 803e
000000d0: ae30 283d 6de7 3a3e 619e 233d b7f2 b93d
000000e0: 0bb6 16bb 29dc 1f3e 3621 673c 1bf2 d53d
000000f0: bcab a0bd ab8f 4cbe 279e bebc 8005 53be
00000100: 1bf9 c4be e71e 88be cc01 233d cc53 58be
00000110: d51e 40be fa55 58be a5e9 67bd c997 3a3e
00000120: d508 a63d 4aca 0d3e 0d5b f03a 26fd 543e
00000130: 9ba4 db3c 3a60 5cbc e856 0f3e 24e9 2a3d
00000140: 9c5b b03d 1212 ad3d f34d 4c3c 8517 c1bd
00000150: 1629 7b3d eae6 c73b 1cc9 793d 4ab6 f9bd
00000160: a207 3f3c b180 3ebd 986d dfbc d7ea 65bd
00000170: 1461 20bd 64a0 a6bd 3c9a 3d3e e923 2ebe
00000180: 474f f93d ac57 6fbb b778 993d d3b2 0fbd
00000190: 64ef 173e 0c73 763d 6a67 e43c 509f 1c3e
000001a0: bd14 fbba 4d83 f83d 1fe0 f73d 10ef 4d3e
000001b0: 85fd 063e b137 923d 7f93 bbbc 5b10 203d
000001c0: 144b 40be 3adf 873d 324a 7ebe b48b 97bd
000001d0: 71fb 36be 56e1 2bbe 92a2 663a 6acd 44bd
000001e0: 9239 61be 95af a0bd 2c46 c03d b3e4 883e
000001f0: e977 593e e2cc 5e3d 0257 073e a5ad c83d
00000200: 2f0a e43d f1b5 cf3d da5a 17bd 8dac ea3d
00000210: f783 2d3e acc9 00be 3f92 5d3d f2a0 193d
00000220: b0f5 f3bd 900a f73d 3a41 2ebe d92b 24be
00000230: c5be 423e 7a0f c13c dfbb 4bbc 0a34 8c3c
00000240: 8cda cf3d 9ee6 4dbe e0cd dcbd b98c 1ebe
00000250: ee05 8cbc 8fec 963c 78b4 4cbd 66fe a6bd
00000260: 1247 03be 387f d13c b489 a8bd 1d50 c4be
00000270: e0bf b0bd 4f0f b23c 076b 46be 7de9 34be
00000280: 91e1 54bd 1e34 7cbd 64e4 063e 51eb f63d
00000290: c32b 823d 3059 593e c99e 8e3b 6d5f 433e
000002a0: 598c 2f3e 0cf0 7dbd 4b55 5e3e 10c8 053c
000002b0: dc7d cc3d 4a10 1a3e febd 27be 4147 00bd
000002c0: e3b5 5dbe eaec 0abe e54d 10be 80ef c93d
-0.25220343 0.018882772 0.14887547 0.1844708 0.2797388 0.18501624 -0.048459843 -0.116084665
-0.1186896 -0.04802933 0.24857722 -0.056783065 -0.06706525 0.057962168 -0.22218004 0.15576145
0.012549638 0.1258522 -0.16993426 -0.07084465 0.24867857 0.012006256 0.26976067 0.0890031
0.23140097 -0.017425332 0.053565286 -0.08976225 0.11063132 -0.10172703 -0.049205855 -0.12879027
-0.15925018 0.11046501 0.16024321 -0.17247695 -0.16004147 0.076909006 0.13956724 -0.1741678
-0.006765914 0.081008404 -0.13312009 0.121382594 -0.003920639 -0.09158863 -0.074995026 0.11742638
0.19351687 -0.10920693 0.07561858 0.25118104 0.04106205 0.18252344 0.039945964 0.09079497
-0.002299669 0.15611328 0.014107039 0.104465686 -0.07845256 -0.1997668 -0.023268772 -0.20607567
-0.38471302 -0.26586077 0.039796636 -0.21125716 -0.18761761 -0.21126547 -0.056619305 0.18221964
0.08107153 0.13846698 0.0018337682 0.20799693 0.026811888 -0.013450677 0.13997996 0.041726246
0.08611223 0.08450712 0.012469756 -0.09428314 0.06131848 0.006100525 0.06098281 -0.12192972
0.011659535 -0.04650945 -0.027273938 -0.056132164 -0.03915508 -0.08136061 0.18515867 -0.17005886
0.12173324 -0.0036520762 0.07493728 -0.03508265 0.14837414 0.06016831 0.027881343 0.15295148
-0.0019155961 0.12134419 0.121032946 0.20110726 0.13182648 0.071395285 -0.02289748 0.039078098
-0.1877864 0.06634374 -0.24832991 -0.07399693 -0.17869355 -0.16785178 0.00087980286 -0.04804746
-0.21994618 -0.078459896 0.09388384 0.26736984 0.21237148 0.05439461 0.13216785 0.09798745
0.11134755 0.101421244 -0.036951877 0.11458693 0.16944872 -0.12576932 0.05409455 0.037507005
-0.119120955 0.120625615 -0.1701707 -0.16032352 0.19018085 0.02356695 -0.012434929 0.017114658
0.101491064 -0.20107505 -0.10781455 -0.15483369 -0.017092671 0.018423347 -0.049976796 -0.081539914
-0.1282008 0.025573358 -0.0822939 -0.38342372 -0.08630347 0.021735815 -0.19376765 -0.17667194
-0.05197293 -0.06157314 0.13173062 0.12056602 0.06356003 0.21225429 0.0043524248 0.19079371
0.17143382 -0.061996505 0.21712224 0.008165374 0.09984943 0.15045276 -0.1638107 -0.031317953
-0.21651416 -0.13566938 -0.14092214 0.09860134

weights f4 [6, 1, 3, 1]
00000000: b1e7 583f 4e97 8e3f 5f71 de3d 1521 713f
00000010: 0dff 853f 87ca 1b3d 3e0d 853f d257 8f3f
00000020: 89e4 653d b04e 833f f5d2 7d3f 98f5 39bd
00000030: c200 813f ba29 823f 95e7 313d ce64 633f
00000040: de1e 703f c37b 363c
0.84728533 1.1139925 0.108614676 0.94191104 1.046846 0.038034942 1.0394666 1.1198676
0.05612615 1.0258389 0.9915002 -0.045400232 1.0078356 1.0168984 0.043433744 0.8882569
0.937971 0.0111379055

running_cov f4 [1, 6, 2, 2]
00000000: c035 533f ca90 203d ca90 203d 44dc a53f
00000010: 582b 693f 11b4 9e3b 11b4 9e3b 0aa3 683f
00000020: 649f 9f3f d6ef 113e d6ef 113e 6e10 663f
00000030: e545 6d3f bc23 bb3d bc23 bb3d fc54 983f
00000040: 0c3e 823f 72d0 babd 72d0 babd c654 933f
00000050: 7718 903f 6d76 1f3e 6d76 1f3e dc22 983f
0.8250389 0.03920058 0.03920058 1.2957845 0.9108176 0.004843243 0.004843243 0.9087378
1.2470517 0.14251646 0.14251646 0.8986882 0.92684776 0.09137675 0.09137675 1.1900935
1.0175185 -0.09121789 -0.09121789 1.1510246 1.1257466 0.1557252 0.1557252 1.1885638

weight f4 [6, 6, 3]
00000000: 41f8 423e 7ab2 f2bd 5a27 fb3d 5f9b 173e
00000010: 337e 92be 583c a1be e788 173e bc97 203e
00000020: df00 e6bc 9d2f 33bd fba1 953c cb91 bb3d
00000030: b3e9 a1be 2248 e03c d63a 90be f6b7 91be
00000040: 111c fe3d c6d2 ca3d 52ad 423e 89ca 4c3e
00000050: 8306 083e 1b56 e9bd 2d21 8a3d e2b5 093e
00000060: 0141 d73d 824d 4c3d cdc4 54be 2e6d cc3d
00000070: 5192 a83c fcc2 00be a729 38be 9ff5 5bbe
00000080: 336e e63d 1f41 2ebe 99f4 ea3d 7bec 063e
00000090: b1d5 26bd c108 7abd ab4e 58be ed39 d9bd
000000a0: eea4 93be 24c0 b4bc 2c2e 58be 61bc 9cbb
000000b0: 6bfd b9be fe6d b2ba 6696 213e 36fd 58bb
000000c0: 8974 d2bd 6981 46be 035d 73bd 15a8 fabd
000000d0: 7cc5 5abe 6075 05be d245 483e c012 8d3e
000000e0: 673a 95bc 30c2 d2bd 59f5 9e3d 0c57 a43d
000000f0: 0739 05bd 7dd5 c8bd 3a87 3a3e b655 903e
00000100: c1d6 8dbd 1b43 2d3d 8128 e3bd 4957 e4bd
00000110: 8b73 27bd d269 113e 5287 523d 2897 0c3e
00000120: e162 30be 0385 fd3d 91b8 d1bd fcc5 6fbe
00000130: 2618 3e3e 3acc 3abe 0680 853e dcff 10be
00000140: 9d40 2a3e 4713 91bb 80e4 a43d 4dec 38be
00000150: 872f 12be 9b20 b43d c912 60be c34c 1ebe
00000160: a074 e03d f947 2f3e 7f8a bbbd 5dee d5bd
00000170: 4891 ef3d c4d1 1e3e c4ef 443c 1e29 963d
00000180: 91f8 4a3e 0319 dfbb fa9c 903b 09d9 f43d
00000190: 5295 4a3e 978f 76bc 36f4 9abe fdb7 35be
000001a0: 3bc9 3fbe 27fd 45be abdb 06bd 57af 303e
0.19040014 -0.11850448 0.12263365 0.14805363 -0.28611907 -0.3149135 0.14798318 0.15682882
-0.028076587 -0.04374658 0.018265715 0.09158667 -0.3162361 0.027378146 -0.28169888 -0.28460664
0.12407697 0.09903483 0.19011429 0.19999136 0.13283734 -0.113933764 0.06744609 0.13448289
0.105104454 0.049878605 -0.20778199 0.09981762 0.020577582 -0.1257438 -0.17984639 -0.21480416
0.112514876 -0.17017029 0.114724346 0.13176148 -0.040731136 -0.061043505 -0.2112376 -0.106067516
-0.2883677 -0.022064276 -0.21111363 -0.0047831987 -0.36326155 -0.0013613102 0.15780029 -0.003310991
-0.102761336 -0.19385304 -0.059414875 -0.1223909 -0.21364397 -0.13033056 0.19557884 0.27553368
-0.018216325 -0.102909446 0.0776164 0.080244154 -0.03252509 -0.09806345 0.18215647 0.28190392
-0.06925727 0.042300325 -0.1109171 -0.11149461 -0.040881675 0.14200523 0.051398583 0.13729537
-0.1722522 0.123788856 -0.102402814 -0.23415369 0.185639 -0.18241969 0.26074237 -0.14160103
0.1662621 -0.004427347 0.080513954 -0.18058892 -0.14275943 0.087952815 -0.21882166 -0.1545897
0.109597445 0.17117299 -0.091572754 -0.10445855 0.11697632 0.15509707 0.012020055 0.07332061
0.19821383 -0.0068084016 0.0044132443 0.11955459 0.19783524 -0.015048883 -0.30264443 -0.17745967
-0.18729107 -0.19334851 -0.032924335 0.17254387

weight f4 [6, 6, 3]
00000000: 72db 7ebe 130a 8d3c 2b20 afbd 06da 2a3e
00000010: 73f5 923d 362f 523d bf67 3bbd 8e5b ba3d
00000020: f0cb f7bd e7a7 00be 03f1 adbd 9eb0 9c3c
00000030: 7b3b a1bd b5e5 443e bbfe 9a3d 5459 c23d
00000040: 2240 11be 1776 353e 22c5 7dbe b9bf 49be
00000050: b925 d73c 30fb 75be 1953 81be e6e5 853d
00000060: 609b 893e 8270 50be 8f0f 65be d87a 3cbe
00000070: a021 5c3e 33a3 45bd f7e6 49bd 1687 a43d
00000080: 03bc 07bd bc9e 2d3e 7374 50be 6b12 31be
00000090: 2b96 14be b5e8 de3d ae02 0c3e 5a22 863c
000000a0: 3e81 9cbe 5501 733d b23f 6b3d a972 1cbd
000000b0: 535e cebd 801b 74be 2f25 93be a689 34be
000000c0: 1b5b 4c3e 671d 94bb 91e7 2e3e 7bc8 4e3b
000000d0: 1068 aebd 9d92 6dbe 44a6 1b3d b233 2bba
000000e0: 20ef 67be e584 073d a1c7 053e ce60 89bb
000000f0: 8286 e63b 7e2f 05be c223 c3bd 2d3e bfbe
00000100: 58db 64be 5b7a 3e3d c262 03be cf93 c63b
00000110: dff2 ecbb d3f5 b8bd ee4f 223d f7e3 2b3e
00000120: 4433 8dbe 8235 c33d 6c42 9e3e ee8a 89bc
00000130: 74e3 293e 506d 3cbe f094 d3bc b660 61be
00000140: f4d9 353e a638 333e 41e6 c8bd 3dd9 5ebc
00000150: 9417 673e 0ec2 6c3e 992f 5abe 3bac d13d
00000160: 8146 23be 09cf ab3d 65e9 763e 1bde 313e
00000170: 2ea6 aebe 0724 aa3d df4a 033e 37c5 413e
00000180: 63e0 3fbb ce63 08be e8f6 cabd ef60 35bd
00000190: 6ea5 913c 1aad ad3c c25d 8c3e 39b0 023e
000001a0: 003b 33be 1f6f 15bc eafe d5bd 7752 94be
-0.24888399 0.017216718 -0.085510574 0.16684732 0.07175722 0.051314555 -0.045753237 0.09099494
-0.12099445 -0.1256405 -0.08493235 0.019127186 -0.07872673 0.19228251 0.07568117 0.09489694
-0.14184621 0.17720829 -0.24782231 -0.19702043 0.026263105 -0.24021602 -0.2525871 0.0653799
0.26876354 -0.20355418 -0.22369216 -0.18406236 0.21497202 -0.048251342 -0.04929253 0.08033578
-0.033138286 0.16955084 -0.20356922 -0.17292182 -0.1451041 0.10884229 0.13672897 0.016373802
-0.30567354 0.059327442 0.05743379 -0.038195286 -0.10076585 -0.23838615 -0.28739306 -0.17630634
0.19956629 -0.0045201066 0.17080523 0.00315526 -0.08515942 -0.2320046 0.03800036 -0.00065308355
-0.22649813 0.033085722 0.13064434 -0.004192448 0.0070350775 -0.13006398 -0.09528305 -0.37352124
-0.22349298 0.046503406 -0.12830642 0.0060601006 -0.007231101 -0.09031262 0.03962701 0.1678618
-0.27578175 0.0953169 0.3091005 -0.01678988 0.16590673 -0.18401074 -0.025827855 -0.22009549
0.17758924 0.17502078 -0.098095424 -0.013601598 0.22567588 0.23120901 -0.2130722 0.102379285
-0.15944864 0.08389098 0.2411247 0.17369883 -0.3411116 0.08307653 0.1282153 0.18922888
-0.0029278032 -0.13319322 -0.09910375 -0.044281896 0.017779078 0.021200705 0.27415282 0.12762536
-0.17502975 -0.009120732 -0.104490116 -0.28969166

weights f4 [6, 1, 3, 1]
00000000: fbdc 803f a834 763f dc0f 3a3d 3ee6 7d3f
00000010: 7607 763f 84bc 3a3d efb9 7b3f 9990 6a3f
00000020: 2bb4 1fbd 8643 7c3f a47a 593f 01c9 c13d
00000030: f72c 6c3f 3259 8c3f 92b3 293d 91ca 843f
00000040: b95d 773f fcaf 3ebd
1.0067438 0.961741 0.04542528 0.99179447 0.96105134 0.04558994 0.9833059 0.9162689
-0.03899018 0.9854053 0.8495276 0.094621666 0.9225611 1.096472 0.041431017 1.0374318
0.96627384 -0.04655455

running_cov f4 [1, 6, 2, 2]
00000000: 9af2 883f ae1a 92bd ae1a 92bd 3e65 873f
00000010: 2e7f cf3f f8ae 933e f8ae 933e 0ef1 c43f
00000020: c60f 893f aeaf 25be aeaf 25be 5363 443f
00000030: f156 bc3f a2ea 533e a2ea 533e b806 b93f
00000040: c432 f33f 9644 10be 9644 10be 48f7 0340
00000050: 7041 af3f baae 223d baae 223d faf1 5a3f
1.0699036 -0.07133995 -0.07133995 1.0577772 1.6210687 0.28844428 0.28844428 1.5386064
1.0707939 -0.16180298 -0.16180298 0.76714057 1.4714032 0.20694974 0.20694974 1.4455175
1.8999867 -0.14088663 -0.14088663 2.0619678 1.3691845 0.039717413 0.039717413 0.85525477

weight f4 [1, 6, 1]
00000000: 39e2 c8be 65d0 50be ee9a 563e 677b 883c
00000010: d23f 6dbe 33a9 843e
-0.39235094 -0.20391996 0.20957538 0.016660405 -0.23168877 0.2591034

weight f4 [1, 6, 1]
00000000: ac32 3e3d 3cb9 ca3e c6a2 b43e e894 60be
00000010: f628 84be 2f50 e4bd
0.046435043 0.39594448 0.35280436 -0.21931803 -0.258125 -0.11148106

weights f4 [1, 1, 3, 1]
00000000: 8562 8e3f 9f06 8e3f d172 3e3d
1.1123816 1.1095771 0.046496216

running_cov f4 [1, 1, 2, 2]
00000000: e5bd 313f 9813 27bd 9813 27bd 4d15 0b3f
0.6943038 -0.04079017 -0.04079017 0.5432938

weight f4 [6, 6, 7]
00000000: 0055 12be 5333 6dbd 11d3 2bbe a948 1f3e
00000010: 588b 0ebe 1e97 333e a36b eebd 7b6e 02bc
00000020: 0ca8 d33c 4739 ab3d 9f31 123e 2457 53be
00000030: f655 c1bd 0470 eebc 50ca 74bc f754 923e
00000040: 2b0a 9a3d 54d3 31be dc5d 3fbd 587a 133e
00000050: 135f f03d de3f 8ebd 0812 893d a951 c93c
00000060: bf01 cbbd 4481 77be 2dfd 333e 1ce9 8abd
00000070: ea21 39bd 2d36 5b3a ac70 c43d 39a3 a93c
00000080: 5938 1dbe 390b 403d 4ee6 58be 00a4 72bd
00000090: 75ef ae3a d0cd 073e 8afb 5ebd 0a9f e2bd
000000a0: fd42 183d 2aa1 763e e672 a2bd 88d9 493e
000000b0: a0bc 00be 17ad babd e1b9 91be dd1b 5f3d
000000c0: f778 b6bd efdc cebd 4e87 b2bd b6cd 313d
000000d0: 6c92 e7bd 4a64 94bd 3d81 0a3c 7420 9fbd
000000e0: 649f a4bc cdc3 873d 972f 583e 00a3 5bbe
000000f0: 4132 0bbe ac6b 913d e793 833e 5e8c f53d
00000100: 8525 ae3c 41da f83d 94e5 0d3c 4ba0 42bd
00000110: 788c 6e3d 5f0f 26be 04a6 b83b 7500 aebd
00000120: 508d fcbd 1abc 42be 226d 193d a266 84bd
00000130: 79d5 49bd af77 adbb 2fd2 0cbe 2760 2abe
00000140: 208c 103d dd7f 9e3c d7e7 aa3d 5147 81be
00000150: 5d12 0cbd 0ac7 96bd c844 ab3d 70e5 c53c
00000160: 6098 183e 86fe 60bd 59b5 74be 9716 02bd
00000170: 28fd ecbd 5790 9ebc 201c 1fbb 2cb2 5f3d
00000180: 4f2a f83c ff8a 00bd 69af aa3d 9c11 15be
00000190: 3ac2 c8bb 8333 96bd 099a 473d d604 2a3d
000001a0: 5dfd a0be 4afa 08be 52ec b73d d4a1 7cbd
000001b0: 0911 033e 7c1d 9b3c d42c e0bd 5618 153d
000001c0: 211c bcbc 3833 1c3d 420e d6bd 2489 e8bb
000001d0: a5e5 3dbd a618 16be 7312 2abe f715 50be
000001e0: 8104 85bd c3ac 6ebd fdb9 633d 4f9b 3f3d
000001f0: 6be0 6cbe 5904 ecbb 8aa5 123c 9845 89bd
00000200: 36a6 5a3d b369 89bd 3717 00be e5d0 f73d
00000210: ae1a d2bd 3bf8 883b 2a9d 37be 8bf0 2b3d
00000220: 8e3d 3ebe c58c dd3c 0670 673e c25d a13d
00000230: 1904 663e c75c 8abd 0729 e0bc f618 81bd
00000240: 395e e1bd 7d9e af3d 72a0 653e d6df babb
00000250: f487 47bd bf2b e5bd 16a1 d63c bd9f 7cbd
00000260: 9ffb 47bd 287e b13d c105 7dbd 4744 f0bd
00000270: 4378 a8bc a84d db3d 2bb6 bcbd cb61 f53d
00000280: 5ba4 15be 8266 5f3d d344 0b3e d680 1fbe
00000290: d219 59be dd51 4abe e66b ce3d dd73 b1bd
000002a0: d9e7 9abd 783e 44bd 42eb c2bc fbd9 43be
000002b0: ad8b 1e3e 56b6 85be 56e9 563e 26f8 373e
000002c0: 30d2 d03d fed0 01be 639e a7bd 1f4e f3bd
000002d0: 169a 1cbd 3440 073e 5d16 353e 70b1 ef3c
000002e0: dd6f 02bd 2b41 e63d a7e7 063e 8ef7 2c3d
000002f0: 08ab f5bd eadd 053e ef24 82bc c662 1a3e
00000300: a99b 023c 689d 0a3e 3fbe 923d 6d14 68bd
00000310: c150 4d3d 6f97 ffbd d818 8bbd 2a23 473d
00000320: 7985 8ebd 9dd3 6cbd ea55 94bc e6e9 23be
00000330: b9be 1fbe e068 c0bd f16a ffbc 22d4 d93d
00000340: 21e2 193d 0f36 32bd cf17 4fbd d506 67be
00000350: 06a4 3dbe b581 afbd 71de 193d a057 0b3d
00000360: 9e64 18be 8bbe 263d c0d7 503e 9fd7 ccbd
00000370: 3445 58be 5bc2 43bd 7386 8fbc 96c5 adbd
00000380: 862f fc3d 91be 063e 9806 f43d b5f4 bf3c
00000390: e18c ca3d aee5 823d 5794 a8be 2268 9cbc
000003a0: 4241 5d3c b384 25be 5463 813d 6f88 5d3d
000003b0: 98e3 82bd d00a 313c f151 bfbd a02c 3ebb
000003c0: 9092 ed3c c5c1 383d 090e ed3d a278 62bd
000003d0: a91e abbc 93a3 d93c 91e2 53bd ae5c a93d
000003e0: ddec 4bbd f010 46bc e88b 8fbd db0f febd
-0.14290237 -0.057910275 -0.16779734 0.15555061 -0.13920343 0.17538115 -0.11641624 -0.007960911
0.025836967 0.08360534 0.14276741 -0.2063871 -0.09440224 -0.029106148 -0.014940813 0.28580448
0.07521471 -0.17365772 -0.04672037 0.14402139 0.11736884 -0.069457754 0.06692892 0.024575071
-0.099124424 -0.24170405 0.17577048 -0.06782743 -0.04519836 0.000836226 0.09591803 0.020707713
-0.15353526 0.046885703 -0.21181604 -0.059238434 0.001334651 0.13262105 -0.054439105 -0.110654905
0.03717326 0.24084917 -0.079320714 0.19711888 -0.12571955 -0.091150455 -0.28462127 0.054469932
-0.08909791 -0.101007335 -0.087172136 0.043409072 -0.11307225 -0.07245691 0.008453664 -0.07769862
-0.020095535 0.06629143 0.21111904 -0.21448898 -0.13593389 0.07100615 0.25698778 0.119896635
0.021258125 0.12151004 0.008660693 -0.04751615 0.05823943 -0.16216801 0.005635025 -0.08496181
-0.12331641 -0.19017068 0.037457593 -0.06464888 -0.04927585 -0.0052938084 -0.13752054 -0.16638242
0.035289884 0.01934808 0.08345001 -0.25249723 -0.0341972 -0.073621824 0.08362728 0.024157256
0.14901876 -0.054930232 -0.23897304 -0.031759825 -0.11571723 -0.019355936 -0.0024278238 0.054613277
0.030293612 -0.031382557 0.08334238 -0.14557499 -0.0061266692 -0.07334044 0.048730884 0.04150852
-0.314433 -0.13376728 0.089806214 -0.06167777 0.12799467 0.018934958 -0.1094605 0.03640016
-0.022962632 0.038134784 -0.10451938 -0.0070964266 -0.046361584 -0.1465784 -0.166086 -0.20320879
-0.06495 -0.058270227 0.055597294 0.046778973 -0.23132484 -0.0072026667 0.0089506 -0.06702727
0.053381167 -0.06709614 -0.12508856 0.1210039 -0.10258995 0.004179982 -0.17931047 0.041977447
-0.18578169 0.027044663 0.22601327 0.07879211 0.224625 -0.06755977 -0.027363313 -0.06303589
-0.110043 0.08575151 0.22424486 -0.005702953 -0.04871364 -0.111899845 0.026199859 -0.061675776
-0.04882395 0.086666405 -0.061773065 -0.11731773 -0.020565158 0.10708171 -0.09214433 0.11981543
-0.14613478 0.05454112 0.13600473 -0.15576491 -0.21201256 -0.19757791 0.10079174 -0.08664677
-0.07563753 -0.047911137 -0.02379382 -0.19126122 0.1548297 -0.26115674 0.20987448 0.17965755
0.1019634 -0.1267738 -0.08184507 -0.11880135 -0.038232885 0.13208085 0.17684312 0.029259413
-0.031844962 0.112428986 0.13174306 0.042228274 -0.11995512 0.13072935 -0.015886752 0.15076742
0.007971683 0.13536608 0.07165193 -0.056660105 0.05012584 -0.124800555 -0.06791848 0.04861752
-0.06959052 -0.057818998 -0.018107373 -0.16007194 -0.15600099 -0.09395003 -0.031178923 0.10636164
0.03756917 -0.043508586 -0.050559815 -0.225612 -0.18519601 -0.085696615 0.037565652 0.034019113
-0.14882132 0.04070906 0.20394802 -0.10002064 -0.21120149 -0.047792774 -0.017520165 -0.08484952
0.12313752 0.13158633 0.1191532 0.023432115 0.09890152 0.06391464 -0.32925674 -0.019092623
0.013504328 -0.16163902 0.063177735 0.05408519 -0.06391066 0.010805801 -0.09341801 -0.0029018298
0.02900055 0.045106668 0.115749426 -0.055290826 -0.020888643 0.026567256 -0.051729742 0.0826963
-0.049786437 -0.012088999 -0.07009107 -0.12405368

weight f4 [6, 6, 7]
00000000: a85a b4bd 8831 01be 2e75 423d 5231 323e
00000010: 737d 303e 540d 9fba 1920 e63d 27df b23d
00000020: 0d33 613e bcb6 9ebc fb93 5c3d 3608 4b3e
00000030: 0225 fc3d 4f82 0a3e 72bd d2bd 4f69 c8bd
00000040: afa1 dc3c fcb5 ea3d 7a7b 4b3d b547 233c
00000050: b464 72bd 3efc e63c 2b66 e73c 244b d33c
00000060: fe18 3ebc 588d d2bc 4edf 56bd 2b71 afbd
00000070: 4257 d3bd f973 e43c 4bac 083d 3870 30be
00000080: dbe0 f6bc 1341 893d 2d4f 8abd 4a87 fcbd
00000090: afb3 463c c69d 05be e558 dd3d d77e c5bd
000000a0: 2449 033d a3e6 95bd 22d5 79bd b26f 54be
000000b0: 9ce2 d1bd 2d35 a6bd 9927 ffbd 9497 a53d
000000c0: cd7d 39bd 51fc ca3d 3eea 5b3d 606f 44be
000000d0: ebcc 9ebc 3cdd 4fbc e802 da3c 68ee e6bd
000000e0: 717f 623c 26ea 1b3e 714e 3cbd 248e 563d
000000f0: 6fd2 f43d 847b a7bd 537b 0dbe 9ec9 3dbe
00000100: d69a 2f3d e78a 9aba 7352 e4bd 51db 7cbd
00000110: 9966 a33d 09e5 a5bc 8f72 033e 6c8c e03c
00000120: 6bc8 41bc e50d 183c 6c82 2c3d 71c4 2d3e
00000130: 0c1c 973a 1e35 8c3d f7fd b5bd 4d2e 69bd
00000140: 265d 903c dae2 d4bc 12fa 103c d891 04be
00000150: 7e66 f7bd 99c4 68bd a40d 8e3d 528e ccbd
00000160: 7ad3 0ebe 8ee7 4e3c 63f6 53bb 7856 113c
00000170: 03da 69be 45d1 8c3e 8983 b53d 5aae 6e3e
00000180: 02a8 0fbe b6f5 74bd 894e 203d 0784 2abe
00000190: fe48 ef3c 725f fabd 6e78 483d 4255 cb3c
000001a0: 40ee 373d 67c0 cfbd 1137 153d b96e f73c
000001b0: ebe3 4c3e 12a0 a93c 47d5 8ebd cfd6 f9bc
000001c0: a23f 11be 9b30 08ba 3e57 103e 75ce 66bd
000001d0: b1b4 01be d308 21bd d3ff a8bd e270 bcbd
000001e0: e2dd 0b3e 682c 30be bd61 a03c c48d 2c3c
000001f0: b256 1cbc 2533 ee3c 4300 8fbd 14b1 3dbe
00000200: 687c 17be c190 49bc d49f 9cbd 909e 223d
00000210: 4c02 1abd f055 5bbc 41e7 d2bc cfba f8bd
00000220: 62c6 643e a3c5 0bbd 65c9 f43d 8e83 31be
00000230: ad69 c73c 4e90 8b3e 0164 a2bd 9db7 723d
00000240: 49de 173d a193 e7bd 8c73 87be 7623 8b3d
00000250: 6502 6bbe e7cf 02bd e74d 20bc a702 01be
00000260: 0b64 203e 49c1 8a3d e9ea 37bc 4c57 c5bc
00000270: 26c8 d2bd cbdd 05be 1655 b13d 26eb dc3d
00000280: 7e65 abbd 488d a93d 4f9b 3cbd 3056 6abd
00000290: 5941 80bd 3f1c 0e3e e716 ed3d 6c03 843c
000002a0: 65a3 42bd 2221 e93d c2c3 1c3d a7ef 713d
000002b0: a6a0 87bd fe68 b23d 748e b1bc 8f62 953d
000002c0: 7716 893d 830f 043e 37e2 0abd be85 6b3e
000002d0: b85a 293e c22a 623d 75d1 863e 71d2 31be
000002e0: 17b4 1f3d 8cdd be3d 1e30 2b3e 58ee da3d
000002f0: ea19 273e c5e7 563c 3b1c 803d 3d02 8c3c
00000300: 3519 d43d 7bfd dd3d cd23 373d cb4e eebb
00000310: 4852 9cbd b324 093e b05b f93b ab73 60be
00000320: ac05 d63d 596a f43c b459 71bc d5a9 52be
00000330: ed56 9fbd ff2d 7f3b e59a a83c 1fd4 583d
00000340: 6e65 623e 11d2 4f3b 0843 fa3d 78c2 8f3d
00000350: 02c7 0b3e 7839 01be 443e 17be 976c 793e
00000360: 5cd1 87bc c505 b2bd 7076 9abd f34d fe3d
00000370: 5a31 8b3d f1ec 9d3d 13f3 8abe 89f5 37be
00000380: d0f2 183e 876c 9abd 4ba8 83bd 93ff c53d
00000390: c22b 33bd 6575 a3bd 18fa 0d3d 5906 e13c
000003a0: 6d4b d83d c5ed dc3d db77 a3bd fa12 33bd
000003b0: a833 433e a802 203d 1757 d83d 72d7 a03d
000003c0: e4a2 5ebd 849d a0bb 6dfc d6bc 84c1 41bd
000003d0: 1e3d 143d 9087 143e f909 583d dd3f 7abc
000003e0: 1a3a 10bd c21f c5bd 8b95 053e 0900 0b3d
-0.08806354 -0.12616551 0.047475033 0.17401627 0.17235355 -0.0012134709 0.11236591 0.08733969
0.2199213 -0.019374244 0.053852063 0.19827351 0.12311746 0.13526271 -0.1029004 -0.09785711
0.026932565 0.11460492 0.049678303 0.009965827 -0.05917807 0.02819645 0.02824696 0.025792666
-0.011602638 -0.025702164 -0.052459054 -0.08566507 -0.103193775 0.027887331 0.033367436 -0.17230308
-0.030136516 0.06701865 -0.06753383 -0.12330492 0.012127801 -0.13048467 0.10807971 -0.096433334
0.032052174 -0.07319381 -0.060994275 -0.20745733 -0.102483004 -0.08115611 -0.124587245 0.08085552
-0.04528599 0.09911407 0.053690188 -0.19183111 -0.019384822 -0.012687024 0.026612714 -0.11275941
0.01382433 0.1522604 -0.045973245 0.05238165 0.119541995 -0.081778556 -0.13816576 -0.18533942
0.042872272 -0.0011790664 -0.111485384 -0.061732594 0.07978553 -0.020250814 0.1283667 0.027410708
-0.0118275685 0.009280656 0.042116567 0.16969468 0.0011528744 0.06846069 -0.088863306 -0.05692892
0.017622542 -0.025987078 0.008848684 -0.1294626 -0.12080096 -0.056828115 0.069361955 -0.09988083
-0.1394786 0.012628449 -0.0032342903 0.008870713 -0.22837071 0.2750341 0.08862979 0.23308697
-0.14028934 -0.05980464 0.039137397 -0.16651927 0.02920961 -0.12225236 0.048942976 0.024820928
0.044904947 -0.1014412 0.03642947 0.030204164 0.20008819 0.02070621 -0.06974273 -0.030497937
-0.1418443 -0.0005195231 0.1409578 -0.056349237 -0.12666585 -0.039315056 -0.082519196 -0.09201218
0.1365886 -0.1720444 0.019577855 0.010531846 -0.009542154 0.029077122 -0.06982472 -0.18524581
-0.14793551 -0.012302578 -0.07647672 0.039702 -0.037599847 -0.013387188 -0.025745036 -0.12145006
0.22341302 -0.034124028 0.119524755 -0.1733534 0.024342382 0.27258533 -0.079292305 0.05925714
0.037077222 -0.11307455 -0.26455343 0.06793873 -0.22950132 -0.031936552 -0.009784198 -0.12598668
0.15663163 0.067751475 -0.011225441 -0.024089478 -0.102920815 -0.13072889 0.08658807 0.107870385
-0.083689675 0.082789004 -0.04604655 -0.0572111 -0.06262464 0.13877963 0.11576634 0.016114913
-0.047519106 0.11383273 0.038272627 0.05906644 -0.06622438 0.08711432 -0.021674372 0.07294189
0.06693738 0.12896542 -0.03390714 0.23000237 0.16538513 0.05521656 0.26331678 -0.17365433
0.038990106 0.093196005 0.16717574 0.10689992 0.16318479 0.013116782 0.062553845 0.017090911
0.1035637 0.10839363 0.044711877 -0.0072725764 -0.076328814 0.13392906 0.007609807 -0.21919124
0.104503006 0.029835867 -0.01473086 -0.20572598 -0.07780252 0.0038937328 0.020581672 0.05293667
0.22109005 0.0031710903 0.122198164 0.07019514 0.13650134 -0.12619579 -0.14769846 0.2435783
-0.016579323 -0.08692507 -0.075421214 0.124172114 0.067965224 0.077112086 -0.27138576 -0.17964758
0.14936376 -0.07540231 -0.06428584 0.096678875 -0.043742903 -0.079813756 0.034662336 0.027468847
0.10561261 0.107875384 -0.07981845 -0.04371927 0.19062674 0.039065033 0.10563486 0.07853593
-0.054354563 -0.00490159 -0.026243413 -0.04730369 0.0361911 0.14504838 0.052743886 -0.015274015
-0.03521166 -0.09625198 0.13045327 0.03393558

weights f4 [6, 1, 3, 1]
00000000: c4a0 6d3f a047 863f 1caa ce3c 2e15 803f
00000010: c60d 8c3f 5b33 ae3d 49d8 823f a5e3 843f
00000020: 87bd 9d3c d213 853f 49b0 883f 6b7a 43be
00000030: 1028 813f 5013 663f 8554 483e 31e4 943f
00000040: a6d3 7e3f a560 8e3d
0.92823434 1.0490608 0.025227599 1.0006464 1.0941703 0.08505889 1.0222255 1.0381972
0.019255413 1.0396674 1.0678798 -0.19089667 1.0090351 0.8987322 0.19563492 1.1632138
0.995417 0.06952027

running_cov f4 [1, 6, 2, 2]
00000000: 4276 903f 4286 8fbd 4286 8fbd 98c6 8c3f
00000010: f45e 9f3f 86fb 6cbd 86fb 6cbd 98a9 933f
00000020: b235 8c3f 9b52 81bd 9b52 81bd 98b0 953f
00000030: e35b 813f 9849 b2bd 9849 b2bd d66e 8a3f
00000040: 4685 8c3f 80bc 0f3e 80bc 0f3e c807 8f3f
00000050: eea3 a43f 063e 013d 063e 013d fc0f a93f
1.128609 -0.070080295 -0.070080295 1.0998106 1.2450852 -0.05785706 -0.05785706 1.1536131
1.0953887 -0.06314584 -0.06314584 1.1694517 1.0106167 -0.08705443 -0.08705443 1.0815074
1.0978172 0.14036751 0.14036751 1.117425 1.2862527 0.03155329 0.03155329 1.3208003
