Homography_Trained_Model/E2EMP_UL1_10.pth (torch, 885260 bytes, 291 tensors)

weight f4 [1, 1, 1, 7]
000000 85 95 cf bd 5b 2a 6f be f5 d4 ec 3d 00 ea 04 3c
       -0.101359405 -0.23356001 0.11564056 0.008112431
000010 59 61 00 3d 7d 29 37 3e a4 54 aa 3e
       0.031342838 0.1788692 0.332677

weight f4 [1, 1, 1, 7]
000000 2f 1a 9d be 36 c5 f1 3d 0d 15 63 be 35 7f 1a be
       -0.3068404 0.11805193 -0.22175999 -0.15087588
000010 b6 d3 5e be e4 8f 95 bd 07 ec c5 3e
       -0.21760449 -0.073028356 0.38656637

weight f4 [1, 3]
000000 27 5a be 3f cf 0e aa 3f 11 4f b0 bd
       1.4871262 1.3285769 -0.08608831

bias f4 [1, 2]
000000 8b 92 d1 bc 90 c0 3e 3e
       -0.025582572 0.18628144

running_covar f4 [1, 3]
000000 54 4b 56 3b b4 22 3d 3c 58 b6 89 3a
       0.0032698708 0.011543918 0.0010506613

weight f4 [1, 1, 5, 1]
000000 3a 87 ba 3e 2b 93 20 be e2 a0 e5 be 60 fe c3 bd
       0.36431295 -0.1568114 -0.44849306 -0.095700026
000010 08 0b c0 3e
       0.37508416

weight f4 [1, 1, 5, 1]
000000 3f 7d 0f 3d 81 63 52 3c 82 90 1a be d2 92 d7 3e
       0.035031553 0.012841106 -0.15094188 0.42104203
000010 fa 8d d9 be
       -0.42491132

weight f4 [1, 3]
000000 41 55 ac 3f a6 1e c3 3f 56 10 b9 3d
       1.3463517 1.5243728 0.09036319

bias f4 [1, 2]
000000 4c 0c cb 3d 85 fe 63 3e
       0.09914455 0.2226506

running_covar f4 [1, 3]
000000 9c ad 76 3e 16 65 b2 3e d5 f6 25 bd
       0.24089664 0.34842747 -0.0405186

weight f4 [1, 1, 5, 1]
000000 80 6a 3e 3d b4 60 fd be c4 28 f9 be eb 4c 33 be
       0.046488285 -0.4948784 -0.48663914 -0.1750981
000010 99 a1 01 be
       -0.12659301

weight f4 [1, 1, 5, 1]
000000 8c 63 5a 3d 5c 26 e0 bd 40 63 8f 3e d9 ac 8c bd
       0.05331759 -0.109448165 0.2800541 -0.068689056
000010 55 d0 10 bf
       -0.5656789

weight f4 [1, 3]
000000 dc f3 c5 3f da ca 93 3f 65 c0 bd bc
       1.5465045 1.154628 -0.02316303

bias f4 [1, 2]
000000 2e de 30 3d f9 4b aa 3e
       0.043180637 0.33261088

running_covar f4 [1, 3]
000000 c9 5d cb 3b 83 a9 6a 3c 54 9e 4b bb
       0.0062062484 0.014322641 -0.0031069713

weight f4 [1, 1, 1, 7]
000000 37 b3 59 be f6 32 61 be c7 25 69 3e d1 28 63 be
       -0.21259771 -0.21992096 0.22768317 -0.22183539
000010 64 e1 b1 3e e5 8f af be 3e 53 56 bd
       0.34742272 -0.3428947 -0.05232548

weight f4 [1, 1, 1, 7]
000000 7f 62 61 3e bd b3 2b be 67 c3 c2 bd 10 70 c0 be
       0.2201023 -0.16767783 -0.09509926 -0.37585497
000010 a9 6d 7a 3e 92 30 ee bd a5 01 c5 be
       0.24455895 -0.11630358 -0.38477817

weight f4 [1, 3]
000000 4c 4a ab 3f 33 57 bf 3f 3c a2 b7 3d
       1.3382049 1.4948486 0.089664906

bias f4 [1, 2]
000000 ec 29 f7 3d 57 4c 91 3d
       0.12068543 0.07094639

running_covar f4 [1, 3]
000000 c6 ba 04 3f 77 ff 7d 3f a9 e6 bf bd
       0.51847494 0.99217933 -0.09370167

weight f4 [1, 1, 3, 3]
000000 0f 95 0f 3e ef c9 f8 bd 19 6c 87 3e d5 03 ff bd
       0.14021705 -0.12147891 0.2644966 -0.12451903
000010 16 a1 9a 3e cc b1 54 3e 2f 5b db bd af 77 a9 3d
       0.30201024 0.20770949 -0.10710751 0.08274781
000020 6d f6 4e bd
       -0.05052798

weight f4 [1, 1, 3, 3]
000000 53 06 21 bd f3 17 1f be 7f b3 9b 3e 81 44 b4 3e
       -0.039312672 -0.1553648 0.30410382 0.35208514
000010 be 4e b1 be 05 f4 2b be 4f 9f 45 3d 0d 6d 7b be
       -0.34630388 -0.16792305 0.04824763 -0.24553318
000020 e8 de 90 3d
       0.07073766

weight f4 [1, 3]
000000 e6 33 9f 3f 69 e6 cc 3f c8 dd 64 bd
       1.2437713 1.6007816 -0.05587557

bias f4 [1, 2]
000000 ef cf d0 bd 02 2e fd 3b
       -0.1019591 0.007726432

running_covar f4 [1, 3]
000000 c2 48 1e 3b 57 63 8d 3b 0b 2b fb 39
       0.0024152254 0.0043148207 0.0004790652

weight f4 [1, 1, 3, 3]
000000 b8 84 62 bc 03 d7 e5 be d4 f9 c1 be f3 7a e2 3d
       -0.013825588 -0.44890603 -0.37885916 0.11058607
000010 f7 13 d5 bc d0 9e 63 3e d6 d7 71 bd b1 85 c7 bd
       -0.026010497 0.22228551 -0.059043728 -0.097422965
000020 45 57 8a 3e
       0.27019706

weight f4 [1, 1, 3, 3]
000000 b2 43 95 be c3 32 d4 bd bd c4 5d 3e 78 b0 62 be
       -0.2915321 -0.103612445 0.21657081 -0.2213763
000010 df ab ac 3d 67 94 96 bd 4b 72 b5 3d 2d f6 a4 3d
       0.08431219 -0.07352524 0.0885969 0.08054767
000020 96 93 39 be
       -0.18122706

weight f4 [1, 3]
000000 e1 e1 af 3f 8d f7 d1 3f f7 7b 6f bc
       1.3740808 1.6403672 -0.014616958

bias f4 [1, 2]
000000 37 1e 98 bd 7d a1 40 3e
       -0.07427638 0.18811603

running_covar f4 [1, 3]
000000 20 27 a0 3e 0a 5e 9f 3e bf d6 8a bd
       0.3127985 0.31126434 -0.06779241

weight f4 [1, 1, 1, 7]
000000 6d dc a2 3e 07 e4 6a 3d 42 31 88 3e e9 35 00 3e
       0.31808797 0.05734637 0.2660008 0.12520565
000010 e5 04 f1 3d 5e ed 98 be 60 a6 a5 be
       0.11768512 -0.29868597 -0.32353497

weight f4 [1, 1, 1, 7]
000000 d3 62 5e be cd a1 b2 bd 45 e7 44 3e 54 9d 7b 3d
       -0.21717386 -0.08722267 0.19228847 0.061429337
000010 52 07 96 be 55 8d ca be 83 c4 8b 3e
       -0.2930246 -0.39560953 0.27298364

weight f4 [1, 3]
000000 6e ae be 3f 4a 66 a8 3f 4e 2e 70 bd
       1.4896982 1.3156216 -0.05863791

bias f4 [1, 2]
000000 31 3a 28 3e d0 63 2b 3d
       0.16428448 0.041843235

running_covar f4 [1, 3]
000000 b9 ef f5 3b b2 5e d7 3b 8b de 7f 3b
       0.007505384 0.006572568 0.0039042558

weight f4 [1, 1, 5, 1]
000000 eb 7f a4 3e e2 95 ee be f1 86 9c be fe a4 a8 3e
       0.32128844 -0.46598727 -0.30571702 0.3293838
000010 13 b5 bf 3e
       0.37442836

weight f4 [1, 1, 5, 1]
000000 16 85 ec be 3e 0a 7d 3e d3 72 a6 3c 58 86 3f bc
       -0.46195287 0.24710938 0.020318424 -0.011689745
000010 18 37 86 be
       -0.26213908

weight f4 [1, 3]
000000 ee cd 8b 3f f7 fb a8 3f c5 50 76 bd
       1.092222 1.3201894 -0.06013562

bias f4 [1, 2]
000000 a3 dc b1 be 8a 68 8d 3d
       -0.34738645 0.06904705

running_covar f4 [1, 3]
000000 3a 06 bc 3e a7 54 4c 3e d9 a3 9c 3d
       0.367235 0.19954167 0.07648439

weight f4 [1, 1, 5, 1]
000000 a7 e7 92 be fa 66 7c 3d 00 1f 90 3e 28 d8 be be
       -0.28692362 0.061621644 0.2814865 -0.3727429
000010 e8 76 8f 3e
       0.28020406

weight f4 [1, 1, 5, 1]
000000 f2 20 19 3e fe 02 f7 3e ee 99 4a 3d d2 c8 11 3e
       0.14953974 0.4824447 0.049463205 0.14236763
000010 07 7e ea 3c
       0.028624548

weight f4 [1, 3]
000000 35 46 bc 3f 75 3b b1 3f 74 9b a6 3c
       1.4708925 1.384627 0.020337798

bias f4 [1, 2]
000000 8e 70 8c bc 6a 1d 5f bb
       -0.017143514 -0.0034044632

running_covar f4 [1, 3]
000000 77 e7 00 3c f4 14 0c 3b ee fc d1 ba
       0.0078676855 0.0021374794 -0.0016020813

weight f4 [1, 1, 1, 7]
000000 26 19 85 3e 98 88 c2 be 9d 20 be be 44 6e 8e 3e
       0.2599575 -0.37994838 -0.37134257 0.278185
000010 18 27 7b 3d 58 3f 16 be 8d 69 26 be
       0.06131658 -0.14672601 -0.16251202

weight f4 [1, 1, 1, 7]
000000 d8 f1 05 3e f7 c9 c1 3e 4e ea 05 be 61 f5 8e 3e
       0.13080537 0.378494 -0.13077661 0.27921584
000010 1a de 93 be bf 3d 70 3b 08 75 63 3e
       -0.28880388 0.0036657897 0.22212613

weight f4 [1, 3]
000000 45 dd a5 3f 20 c9 ae 3f 15 d3 e4 bc
       1.2958151 1.3655128 -0.027932683

bias f4 [1, 2]
000000 d8 95 31 bd ae ff 00 bd
       -0.043355793 -0.031493835

running_covar f4 [1, 3]
000000 f3 34 18 3f 33 e7 e8 3e 13 14 be be
       0.59455794 0.4548889 -0.3712469

weight f4 [1, 1, 3, 3]
000000 1e 53 0c 3e a4 1d 94 3d 1f a8 8b bd ac ed d8 bd
       0.13703582 0.07232216 -0.06819176 -0.10592207
000010 ea 3e 93 be be 71 9c be 8d 06 b2 3e 33 45 9b 3e
       -0.28758937 -0.30555528 0.34770623 0.30326232
000020 66 29 f3 bd
       -0.118731305

weight f4 [1, 1, 3, 3]
000000 6c 3a a5 bd 0c ee 1f be 96 d2 c8 be 7b 92 14 bc
       -0.08067784 -0.15618151 -0.39223164 -0.009068127
000010 24 ff ef 3c 1b 57 3e 3e 23 b6 57 be 1c b4 b8 bd
       0.029296465 0.18587916 -0.21065573 -0.09018728
000020 8e 40 f0 3d
       0.11731063

weight f4 [1, 3]
000000 9d 00 ba 3f 1d 89 b1 3f 6c eb 6d bc
       1.4531437 1.3869969 -0.014521461

bias f4 [1, 2]
000000 1b 5b 37 3d 7b 2e 3a bc
       0.04476462 -0.011363621

running_covar f4 [1, 3]
000000 ae 8a 29 3c 67 21 85 3b c0 93 58 39
       0.010348005 0.0040628198 0.00020654406

weight f4 [1, 1, 3, 3]
000000 ce a7 09 3e 0d 08 dc 3d b3 0a 37 be ba d3 00 bd
       0.13442919 0.10743723 -0.17875175 -0.03145192
000010 81 07 01 be f3 be 87 be 03 82 22 3e 3c 1a 18 be
       -0.12600519 -0.2651287 0.15869908 -0.14853758
000020 60 86 4d be
       -0.20070791

weight f4 [1, 1, 3, 3]
000000 bd 53 48 3e 5d 81 11 3e 93 2a 28 3e 05 3c 7f 3e
       0.19563194 0.14209504 0.16422491 0.2492524
000010 d3 f4 65 be 46 99 9c be 67 76 42 be 72 c4 4c bd
       -0.22456674 -0.30585688 -0.1899048 -0.049992032
000020 2b cb bf bd
       -0.09364923

weight f4 [1, 3]
000000 17 93 b0 3f bf 42 ab 3f e1 fd 73 3b
       1.3794888 1.3379744 0.003723018

bias f4 [1, 2]
000000 d0 07 38 3d 1c 6b 83 bd
       0.044929326 -0.06416914

running_covar f4 [1, 3]
000000 8b d8 a2 3e 47 97 f4 3e 55 5f f3 bd
       0.31805834 0.47771665 -0.118834175

weight f4 [6, 6, 9]
000000 da f2 22 3d be d9 44 bd 76 a2 32 be 73 2c de bb
       0.039782383 -0.048059218 -0.17444786 -0.006780201
000010 d7 ba 22 be 81 7c 21 be 11 64 1d be ee fd 05 bd
       -0.15891586 -0.1577015 -0.15370204 -0.03271287
000020 60 6f c4 3d ba 3a 09 bd fb 5f 8a bc 35 15 d0 bd
       0.095915556 -0.03350327 -0.01689147 -0.10160295
000030 09 ce 71 3b 4c 1f bf 3c 89 70 a8 3d e5 f3 c6 bd
       0.0036896488 0.023330353 0.082245894 -0.09714488
000040 97 ad 17 be 38 05 9b bd 5a b9 55 3e 4e c7 c3 3c
       -0.14812313 -0.07569355 0.20871487 0.023898747
000050 f2 9c 26 3e 95 2d 0b 3e 3c e1 17 bc dc 03 c3 3d
       0.16270807 0.13591607 -0.009270009 0.095222205
000060 10 a0 07 3a 02 92 90 3d ed 27 ef bc 78 6e 66 bd
       0.00051736925 0.07059099 -0.029193843 -0.056257695
000070 5e ce 0d bd e3 16 2a bd fd 86 2e 3d 33 31 09 3e
       -0.034620635 -0.041525733 0.042609204 0.13397674
000080 ca f2 52 3d f2 d1 f6 3d a6 c3 bb bd f1 9e 1d 3e
       0.051501073 0.12051763 -0.09168176 0.15392663
000090 90 33 6f bc 5c 60 d6 3d 2c e9 11 3e 16 bf 14 3e
       -0.014599696 0.10467598 0.14249104 0.14526019
0000a0 15 15 b7 3d ed b6 9b 3d e2 d0 d9 3d 34 5f e6 3d
       0.08939568 0.0760325 0.10635544 0.11248627
0000b0 7e 3a 58 bb f6 9a b5 bd 6e ed db bd 60 05 f1 bd
       -0.0032993848 -0.08867447 -0.107386455 -0.11768603
0000c0 32 4e d0 bc bd 6f b8 bd f2 59 74 3c f0 b0 86 bd
       -0.025427911 -0.090056874 0.014914023 -0.06576717
0000d0 8c 8e 10 be eb e3 b1 bd e1 a4 52 3d de f3 84 3d
       -0.14116877 -0.0868605 0.051426772 0.064918265
0000e0 dc c6 1a be 7c fb 3b bd d0 be c2 bd cc 54 fd 3c
       -0.15114921 -0.04589413 -0.09509051 0.030924223
0000f0 66 bf d7 3d 6c ff a1 bd 43 e4 29 3d 41 70 45 bd
       0.10534553 -0.07910046 0.041477453 -0.048202757
000100 2f bc 28 be 14 f0 bc 3d c2 7e 31 3e b0 78 73 3e
       -0.16478036 0.09225479 0.1733351 0.23776507
000110 f0 8a 42 3e 05 e4 a6 3d bf 80 20 3d 80 54 50 3e
       0.18998313 0.0814896 0.03918528 0.20344734
000120 c1 9c 5c 3d 56 c3 a3 3d a0 8b 10 3c 64 d0 04 3e
       0.05386043 0.07996242 0.008822352 0.1297012
000130 b8 a5 89 3e 79 49 6d 3e 92 a1 86 bd e8 8e 8e 3d
       0.26884246 0.23172559 -0.06573786 0.06960851
000140 e1 9d 03 be 32 c2 bd 3d a6 28 0e be 5b 81 bf 3c
       -0.12853195 0.092655554 -0.13882694 0.023377111
000150 f7 d0 9c 3d 51 d1 21 3d af 92 dc bd 6c cd b7 3d
       0.076570444 0.03950626 -0.10770165 0.08974728
000160 70 c4 8c bd 35 e5 d3 3d 1b 1c f0 bd 52 22 66 bd
       -0.06873405 0.10346452 -0.11724111 -0.056185074
000170 73 c8 8e 3d c2 3a e6 bd 64 57 de bd c0 12 24 be
       0.069718264 -0.11241676 -0.10856512 -0.16022778
000180 66 49 82 bc 3b 61 19 3d fc 81 a2 3d 3f 09 0a 3d
       -0.01590414 0.03744624 0.07934949 0.033700224
000190 4a f9 28 3c d8 82 77 bc 36 1d 5d bd e4 45 a3 3d
       0.010313341 -0.015106879 -0.053982936 0.07972315
0001a0 51 5e 82 3d 72 f3 b6 bd 3e d0 9a 39 32 40 5f 3b
       0.06365646 -0.08933152 0.00029528321 0.0034065363
0001b0 66 03 95 3d 2c 38 03 be 71 78 b9 bd a1 9f cd bb
       0.07276039 -0.12814397 -0.090561755 -0.0062751328
0001c0 9e 7c 96 bc 44 4c 88 3c d6 a6 35 3d cf fb 02 3e
       -0.018369969 0.016637929 0.04434856 0.1279137
0001d0 fe 1d b3 3d c8 29 fc 3c e0 14 ee 3c 82 b3 20 3e
       0.08745955 0.030781642 0.029062688 0.15693477
0001e0 3c 0b 15 3e 2e f4 30 3e 93 9f 8e 3e 35 bf f5 3d
       0.14555067 0.17280647 0.2785612 0.119993605
0001f0 b9 79 5c 3e 31 7b d6 3d 03 7b 22 3c 2a d5 67 3d
       0.21530809 0.10472716 0.009917024 0.056599773
000200 e0 2e 87 3d d0 22 f7 3d 17 a9 82 bc 18 45 6d bd
       0.066007376 0.12067187 -0.015949769 -0.05792722
000210 f6 06 9e bd 59 12 ad 3c b9 45 43 bd 17 ff 03 bc
       -0.077161714 0.021126913 -0.047673915 -0.008056424
000220 dd 75 d0 bc 9b b0 20 be 58 6b 4c bd 19 0c bb 3d
       -0.025446827 -0.1569237 -0.04990706 0.09133167
000230 0c 10 14 bd eb 9d 81 3d e7 de f2 3b 03 ee 2d be
       -0.036148116 0.063289486 0.007411826 -0.16985326
000240 03 1e 2f be 32 ec 91 bc 8e a8 db 3c c9 f2 0b 3d
       -0.17101292 -0.017812822 0.026813772 0.034167085
000250 72 f1 b7 bb 64 cd 96 bd 07 79 c7 bd e6 98 96 bd
       -0.0056134993 -0.07363394 -0.09739881 -0.07353382
000260 fe ca c7 3d b5 fd 73 be 00 7a 06 be 68 fc 94 be
       0.097555146 -0.2382725 -0.13132477 -0.2909882
000270 02 39 72 bc 59 cb 50 be 50 e0 99 bc b4 18 5d be
       -0.0147840995 -0.20390071 -0.018783718 -0.21591455
000280 28 dd 3a bd 60 64 3d be fb eb cd bd c7 8c 00 be
       -0.045621067 -0.18495321 -0.10054775 -0.12553702
000290 98 5a 97 3d 8a e0 fb 3d fb a4 d4 3d de 1e 96 bd
       0.07390326 0.12298687 0.1038303 -0.07330106
0002a0 9e 2e 17 be ba fa 28 be 33 2f 4b be c8 23 56 3d
       -0.14763877 -0.16501895 -0.19842224 0.052280217
0002b0 66 25 d9 3c ac 1a 0a be 70 68 2b be a7 92 a4 3b
       0.02650709 -0.13486737 -0.16739058 0.005022365
0002c0 68 59 48 3d d4 7b cf bd fb 4d 9f bd 36 9e c5 3d
       0.04891339 -0.1013104 -0.077785455 0.09649317
0002d0 4d c8 8c bd 9f f0 0d be 57 b7 52 3d 49 f0 23 3e
       -0.06874142 -0.13861321 0.051444378 0.1600963
0002e0 06 40 32 3c 11 70 b4 3d 40 55 18 bd 8b 54 b4 3d
       0.010879522 0.088104375 -0.037190676 0.08805188
0002f0 4c 38 89 bc 43 c3 bd bd dd dd 20 3e 3b f9 2f 3c
       -0.016750477 -0.09265759 0.15709634 0.0107405735
000300 d8 7b 45 bd 54 fc 35 be 45 7b 3b bd 89 d1 16 3e
       -0.04821381 -0.17772037 -0.045771856 0.14728369
000310 46 25 23 bd 7a 57 aa 3d 59 69 c3 3c b7 f4 0a 3d
       -0.03983047 0.08317466 0.023853945 0.033924785
000320 18 05 86 b9 fb a9 65 3c 25 37 74 bd 92 4a ca 3c
       -0.00025562267 0.014017577 -0.059622902 0.024693761
000330 0c 06 01 be 6e ad 07 be db ad 03 be f1 20 29 3a
       -0.12599963 -0.13249752 -0.1285929 0.0006451747
000340 4c a1 89 bd 9b 3a 10 be 09 33 db bd 81 24 fe bd
       -0.06720218 -0.14084856 -0.107030936 -0.12409306
000350 67 3b 0d be 3a b6 2c be 93 c6 8d 3d 9b 91 4d be
       -0.13792191 -0.16866389 0.06922641 -0.20075075
000360 ba aa 24 3e a8 6a a0 bd c3 24 e0 3c 4e b8 c6 bd
       0.16080752 -0.07832843 0.02736128 -0.09703122
000370 14 41 ab 3d 66 29 4b 3d 67 9c 2e 3c 63 ea 9a bd
       0.08362022 0.049600028 0.010657406 -0.07564237
000380 3a dc f3 3b c9 d8 45 3e ec c9 2d 3e 54 03 2c 3e
       0.0074420245 0.19320978 0.16971558 0.16798145
000390 b1 54 64 3d d8 b5 dc 3c 5b af 46 3e b8 c2 75 bd
       0.05574483 0.026942179 0.1940283 -0.06000015
0003a0 81 84 40 3e 68 68 25 3c 9b 92 42 3e 04 08 b8 3d
       0.18800546 0.010095693 0.19001238 0.08985904
0003b0 fb 69 0a bc e9 e6 33 3c 2a d6 0e 3d 61 aa 44 3d
       -0.008448119 0.010980346 0.03487221 0.04801405
0003c0 17 b2 cb 3c 7d e1 d5 3d c7 fa 63 bd 83 9c 01 be
       0.024865193 0.10443399 -0.05565908 -0.1265736
0003d0 41 aa a4 bd b4 b9 ec 3d 4d 41 16 be 5f c6 07 bd
       -0.08040286 0.115588576 -0.14673348 -0.033148166
0003e0 74 08 62 3d c9 2d d3 3d d7 a3 c3 3d 81 6b f3 3d
       0.055183843 0.10311467 0.09552734 0.11885739
0003f0 d2 30 9b bc f6 c9 0d 3e ef f0 2d 3e 26 3d c2 3d
       -0.018944178 0.13846573 0.1698644 0.094843194

weight f4 [6, 6, 9]
000000 56 12 19 3e 63 99 ab bc 90 0c 8a 3d 60 77 10 3e
       0.14948401 -0.020947164 0.06740677 0.14108038
000010 5b 45 ac bd 4b b6 9b 3d 1d eb f7 3d 62 9f 02 3e
       -0.08411666 0.07603129 0.12105391 0.12756112
000020 c9 5b 28 3d 88 4a 51 3e c5 19 c7 3d e3 d4 26 bd
       0.04110316 0.20438588 0.09721712 -0.04073037
000030 5e 8e 0d 3e e3 2f f4 3d 47 ca 8f bd fd fe d9 bc
       0.1382384 0.11923196 -0.07021003 -0.026610846
000040 11 a2 e7 3d 67 fc a1 3d 83 bd 45 3e 3a 80 82 3d
       0.113102086 0.0790947 0.19310574 0.063721135
000050 ee 67 83 3d f3 4b de 3d e3 c9 83 3e a8 c9 e2 3d
       0.064163074 0.1085433 0.25739965 0.11073619
000060 43 6a be 3c 09 b3 a1 3d 10 22 28 bd 00 ae c8 3d
       0.023244029 0.07895476 -0.04104811 0.09798813
000070 5b b4 db 3d fe 64 b5 bd 6f 95 29 3b a4 00 f2 3d
       0.107277595 -0.08857153 0.0025876423 0.118165284
000080 29 07 eb bb f5 60 19 3e 17 73 5e 3d 49 b2 38 be
       -0.0071724844 0.14978392 0.054308977 -0.1803676
000090 12 3f 09 3e 05 33 40 3d 71 40 ae bb c1 4d 16 3e
       0.13402966 0.046923656 -0.0053177406 0.14678098
0000a0 62 2d 37 bd 32 13 0b 3e 52 12 1d 3d 84 36 b2 3c
       -0.044721015 0.13581541 0.03834755 0.02175451
0000b0 36 72 a1 3c 17 a8 93 3d 8d 0c d7 3d cf 4c 0a 3e
       0.01970778 0.07209795 0.10500441 0.13505863
0000c0 8b ae 0b bd ef 37 e2 3d 7c 55 d9 3d 2a 32 8c bd
       -0.034102004 0.11045825 0.10612008 -0.068455055
0000d0 38 3a 3c 3d 07 a6 13 3e 88 47 49 3e 17 83 4c 3e
       0.04595396 0.14418803 0.19656193 0.19971882
0000e0 2d 8e f5 3c 9c 55 87 bd 4f b9 7d bd a4 25 6a bc
       0.029975021 -0.066081256 -0.061944302 -0.014291201
0000f0 6c b7 29 be c0 b1 e9 bd 07 24 4a 3d 7b 7c 21 3e
       -0.16573876 -0.11410856 0.049350765 0.15770142
000100 5b b2 2e 3d 5e 12 aa bd e6 fb 66 bd 3b 57 3b be
       0.04265056 -0.083042845 -0.056392573 -0.18294995
000110 5a c6 20 be 69 c9 21 be 41 34 43 be 8f bc 28 be
       -0.15700665 -0.15799488 -0.19062902 -0.1647818
000120 98 34 9b 3c 8b 67 44 bd 81 d9 1a be d9 08 9d 3a
       0.018945977 -0.04795031 -0.15122034 0.0011980786
000130 f6 dc 42 be c0 66 35 be 14 45 1f bd e5 b8 c5 3c
       -0.19029602 -0.17714977 -0.038884237 0.024136016
000140 71 e1 51 3e f0 c6 3e be 35 30 16 be d3 2c 2d be
       0.20496155 -0.18630576 -0.14666827 -0.1691163
000150 e7 03 10 3d 9a 73 ff 3d 1a f8 a0 3b 34 5b 87 bb
       0.03515997 0.12473221 0.0049123885 -0.0041307453
000160 84 f0 4f 3d ff 08 20 3d f9 97 92 bc 40 d5 2d be
       0.050766483 0.03907108 -0.017894732 -0.1697588
000170 19 0c 0b be fa d3 93 3b 12 6b f1 3a 56 15 af 3d
       -0.13578834 0.0045113536 0.001841875 0.085489914
000180 f0 1f 0b be 0a c4 e1 3c 4e c7 d4 bd aa cf 0b bd
       -0.13586402 0.027559299 -0.10389577 -0.03413359
000190 68 8d 0e be 92 9f 7a 39 cd a6 4a bd 09 88 c2 3d
       -0.1392113 0.00023901302 -0.04947548 0.09498603
0001a0 82 ee fb bd 10 0c 00 be 9d fa 58 3d f5 1a bc 3d
       -0.12301351 -0.12504601 0.05297338 0.09184829
0001b0 6d 65 4c 3e 8c 3c 0b 3e e1 5a f8 3b 9b 4e bb 3d
       0.19960566 0.13597316 0.007579193 0.09145852
0001c0 89 f0 7b 3d 65 07 87 bd 20 2b 0e bd 9e b3 46 bd
       0.06150869 -0.06593207 -0.034709096 -0.04851114
0001d0 1e 22 d1 3c 1c be ad bd 33 75 89 bd d4 d4 11 bc
       0.025528964 -0.08483526 -0.06711807 -0.00890084
0001e0 fb 6d 19 3e 0e 9c 1d 3e ec 61 cb 3d 6d 3a 5e 3d
       0.1498336 0.15391561 0.099307865 0.054254938
0001f0 9c 1e 10 3e 31 c7 38 3e 54 87 26 3e 9e 5d 2e 3e
       0.14074177 0.18044735 0.16262561 0.170279
000200 3f 0e f4 3c 75 78 8b 3d a3 2b f6 3d 0b 98 21 bd
       0.02979195 0.06810085 0.12020042 -0.03945164
000210 37 74 02 3e c9 22 76 bd 2f d8 74 3c 00 48 51 bd
       0.12739645 -0.060091767 0.01494412 -0.051094055
000220 3e 96 71 bd b8 ed 69 bc 5c 65 57 bd 81 48 e0 3b
       -0.058981173 -0.014277868 -0.0525869 0.0068445806
000230 2d b6 2a 3e 80 b5 b3 bd 54 73 10 3c 47 34 1d 3c
       0.16671057 -0.08774853 0.008816559 0.009594983
000240 75 6d f3 3d b5 c8 77 3d 9c e2 89 3d 97 41 31 3e
       0.11886112 0.060494144 0.067326754 0.17310177
000250 f5 80 3d 3e 07 c6 fd 3d ca 1d 1e 3e a8 a8 d7 3d
       0.18506224 0.12391286 0.15441051 0.105302155
000260 23 f0 5d 3e e8 b8 6c be 5a 12 4a be 1f 2b e1 3d
       0.21673636 -0.23117411 -0.19733563 0.10994553
000270 8d cb 7f bd 1e d4 a3 3d 4e 8f cb ba 4c 1c 99 3c
       -0.06244998 0.079994425 -0.0015530379 0.01869025
000280 ae b3 13 bb f6 27 40 3d 50 4b ad 3d 2b 8f 61 bd
       -0.0022537517 0.04691311 0.0846163 -0.055068176
000290 e6 2a e8 bc c7 f6 33 3d 3c 09 26 bd b8 ed e1 b9
       -0.028340768 0.043936517 -0.04053615 -0.00043092459
0002a0 81 0b 10 be 63 aa 0e be bd 78 dd bd 28 ab 53 be
       -0.14066888 -0.13932185 -0.108140446 -0.2067076
0002b0 ee 09 13 be 95 ed 45 3d 64 c0 be bd 67 33 24 be
       -0.14359257 0.04832228 -0.09314039 -0.16035233
0002c0 f6 5e 99 bd 54 2c 05 bd c3 be cc bd 78 5d 06 be
       -0.074888155 -0.032512978 -0.099973224 -0.13121593
0002d0 6d f1 1c 3d c0 6c fe bc 20 68 51 bd 2f 4f 6d 3e
       0.03831618 -0.031057715 -0.051124692 0.23174737
0002e0 f6 5c e2 bb 54 bc 40 3e 56 22 fd 3c 16 1e f3 bd
       -0.0069080545 0.18821841 0.030900162 -0.11870973
0002f0 b7 ec 0a bd 0f c4 c7 bb 08 ba 22 3e 37 54 37 be
       -0.033917155 -0.00609637 0.15891278 -0.17903219
000300 ad 75 d1 bd b4 17 8b bb b6 e5 b3 3c 53 e0 d5 3d
       -0.10227523 -0.004244769 0.02196012 0.10443177
000310 c7 2b 1f be 37 a8 9d bd e0 9c 0d 3e ea 6e d3 3d
       -0.15544043 -0.076981 0.13829374 0.103238896
000320 46 65 e1 bc b3 a7 e2 3d 6f 8a 27 3d e6 f2 0d 3e
       -0.027514111 0.11067142 0.040903505 0.1386219
000330 b2 84 40 3e fb 32 62 3e 39 a1 50 3e 30 34 05 3c
       0.18800619 0.2208976 0.20374002 0.008130118
000340 6b 79 15 bc fb c7 87 3c c3 7c 40 bd ef e1 6a be
       -0.009123187 0.01657485 -0.046993982 -0.2293775
000350 66 69 95 bd 4e 8a 05 3e 93 90 85 3b 72 a0 e5 bd
       -0.07295494 0.1304104 0.0040760725 -0.11212243
000360 a4 0d ca 3c f0 15 2e 3d 17 3f 89 3d a8 4c db 3d
       0.024664707 0.04250139 0.067014866 0.107079804
000370 99 b2 8d bd ae b7 09 be a3 55 c0 3c 42 fd b1 3d
       -0.069188304 -0.13448974 0.023478335 0.08690883
000380 0a d4 80 3e e9 e9 a9 bc fb 1d 0e bd 62 cc 94 3d
       0.25161773 -0.02074142 -0.03469656 0.072655454
000390 e0 0c 02 3d 12 1e 8f 3d d3 b9 95 3c bf d5 df 3d
       0.03175056 0.06988157 0.018277084 0.10929441
0003a0 26 0c 80 bd cb 1f ae bd b9 f1 8c 3d a8 c6 7c 3d
       -0.06252317 -0.08502158 0.068820424 0.06171289
0003b0 ec 0c a0 bd bc 16 a6 bd 36 5c bc 3b bc 7d 04 be
       -0.07814965 -0.08109805 0.005748297 -0.12938589
0003c0 fc 66 f6 bc d0 95 96 bd ae 28 bf 3d 84 ee 71 be
       -0.030078404 -0.07352793 0.09333931 -0.23626143
0003d0 ab b0 91 bd 0c 76 1e 39 ab 6d 0e be 8b 95 31 be
       -0.07113775 0.0001511203 -0.13909023 -0.17342202
0003e0 79 e9 d5 bd 37 ab 7b bd 9d 42 26 bd 47 8a fa bd
       -0.10444922 -0.06144258 -0.04059087 -0.122334056
0003f0 17 4a b5 bc 5e 40 a8 bd b1 35 21 3c 47 2a 13 3e
       -0.022130055 -0.08215402 0.009839461 0.14371596

weights f4 [6, 1, 3, 1]
000000 25 95 83 3f 22 f8 67 3f ed 2d cb bc d2 b7 7e 3f
       1.027989 0.90612996 -0.024802173 0.9949924
000010 d4 bb 9a 3f 2b 12 7c 3e a3 79 5d 3f 05 75 93 3f
       1.208857 0.24616306 0.8651373 1.1520087
000020 0d 1c 46 be bd ec 72 3f f7 04 77 3f e7 89 87 3d
       -0.19346638 0.94892484 0.9649195 0.066181
000030 30 14 80 3f 8a 03 6f 3f 5c 62 82 bd ad 85 7c 3f
       1.0006161 0.93364775 -0.06366417 0.98641473
000040 cb 48 70 3f 09 e6 b7 3b
       0.93861073 0.005612139

running_cov f4 [1, 6, 2, 2]
000000 b7 40 56 3f 64 02 8b 3e 64 02 8b 3e ae c8 18 3f
       0.83692497 0.2715026 0.2715026 0.5968121
000010 a1 6e 66 3f c3 f0 c1 3e c3 f0 c1 3e dd 9c 80 3f
       0.90012556 0.37879 0.37879 1.0047871
000020 cc fe 00 3f de ea c7 be de ea c7 be 1b 60 dc 3f
       0.5038879 -0.39046377 -0.39046377 1.7216829
000030 08 34 07 3f 1a 98 68 be 1a 98 68 be 8e 4a 6c 3f
       0.5281377 -0.22714272 -0.22714272 0.9230126
000040 38 7e 48 3f ee 7e a1 bc ee 7e a1 bc 4e 78 01 3f
       0.78317595 -0.019713845 -0.019713845 0.50574195
000050 2e 57 99 3f 39 59 ca bd 39 59 ca bd 38 c7 30 3f
       1.197973 -0.09880299 -0.09880299 0.69053984

weight f4 [6, 6, 5]
000000 ee a8 88 3d 43 94 db bd a2 46 ba 3d 7e 76 92 bd
       0.06672846 -0.10721638 0.090955034 -0.07151507
000010 7e 8f 6d bd be 5e bf 3d 7b 95 dd 3d 72 ac 84 bd
       -0.057998173 0.093442425 0.10819527 -0.06478204
000020 06 cb 08 bd db b9 01 3e 17 56 96 bc f7 9b 00 3e
       -0.033396743 0.12668554 -0.018351598 0.12559496
000030 79 c9 04 3e 31 e0 59 3c cf 08 91 3d 47 fd 3a 3d
       0.1296748 0.01329808 0.07081758 0.0456517
000040 41 39 d5 3c 74 2f c2 3d 6f 3f ac 3b 65 64 13 be
       0.026028277 0.09481707 0.0052565853 -0.14393766
000050 3e 49 04 3e 80 0f 56 3d dd 71 0f 3e db b5 cb bd
       0.12918565 0.052260876 0.14008279 -0.099467956
000060 25 a2 87 3e 8d f0 b5 3d ff fd 52 3d b5 da 81 3d
       0.26490894 0.08883772 0.05151176 0.06340543
000070 4f 09 c6 bd 81 5b 23 be 84 4b c5 bd 27 56 b3 3d
       -0.09669744 -0.15952875 -0.09633544 0.08756667
000080 42 65 28 3e 85 e6 22 3e 73 30 5f 3d e4 a2 7d bd
       0.16444877 0.15908249 0.054489564 -0.061922923
000090 4a ac 29 bd 42 e2 03 bd dd cc a8 bd e0 43 3c 3d
       -0.041424073 -0.0321982 -0.082421996 0.04596317
0000a0 a0 ee 83 bd 50 d3 40 3e 92 14 5e bc ce f3 14 3e
       -0.064419985 0.1883061 -0.013554709 0.14546129
0000b0 3a 45 36 be 70 67 8c 3c 3f 77 08 bd 5e 7e 8c be
       -0.17799845 0.017139167 -0.033316847 -0.2744016
0000c0 1f e9 ab bd d2 a1 fd 3d f9 ea 58 be fc cf a6 bc
       -0.08394074 0.123843804 -0.21183385 -0.020362847
0000d0 b5 6e 66 bd 36 d4 c2 bd 3a 10 59 be f7 ec cc bd
       -0.056257922 -0.09513132 -0.21197596 -0.10006135
0000e0 4f c8 ce bd d6 e5 57 be 42 ad d5 3d 26 7a 82 be
       -0.100967996 -0.21083769 0.10433437 -0.25483817
0000f0 4a 5d 4e be b9 54 68 be 80 d8 17 be af d3 42 be
       -0.20152774 -0.22688569 -0.14828682 -0.19026063
000100 12 75 d7 3d 22 56 22 be e2 1d a8 bc 63 67 5d bd
       0.10520376 -0.1585317 -0.020522062 -0.054053675
000110 9b a8 0e bd 65 08 2b bc ed c3 a7 bd a8 83 12 3e
       -0.034828763 -0.010439013 -0.08191667 0.14308035
000120 d7 ed dd 3d 69 fa 88 bd 33 76 b4 bd 85 0f f7 bd
       0.1083638 -0.06688387 -0.08811607 -0.12063507
000130 71 cd 49 3e a0 e0 f5 3d ec b9 08 3d 48 48 ba bd
       0.19707276 0.120057344 0.033380434 -0.09095818
000140 b6 cc a2 bc ab 9f 91 bd a5 b9 97 bd f5 9a e6 3c
       -0.019873004 -0.071105324 -0.07408456 0.028150061
000150 12 1b 2c 3d 1f d4 82 bd ec 5d 50 be b2 a3 61 bd
       0.042018004 -0.06388115 -0.20348328 -0.055087753
000160 f7 11 40 3d 97 42 55 be 3e 0e b6 3d 09 87 9b 3d
       0.046892133 -0.20826183 0.08889435 0.07594115
000170 a6 c0 41 3e 81 4b 55 bd ef 44 dc bd c6 da 15 3e
       0.18921146 -0.05207396 -0.107553355 0.14634237
000180 a2 07 58 be d7 ee 1e be d5 c1 f2 3d 3d e7 aa bc
       -0.21096662 -0.15520798 0.11853377 -0.020862216
000190 16 1f 12 bd e0 2b e2 3d 0c 0f bc 3c 87 60 2a 3d
       -0.035674177 0.11043525 0.022956394 0.041595962
0001a0 e8 6b cf bb 70 75 45 bd f8 00 9d 3d 35 78 af bd
       -0.006330002 -0.0482077 0.076662004 -0.085678495
0001b0 a7 b7 1b be ca a9 0a be d9 4d 01 be d2 90 0d 3d
       -0.15206777 -0.13541332 -0.12627353 0.03456194
0001c0 1b 6c 05 bd 2f 17 e9 3d fa 08 d4 bd 2c 07 f8 bd
       -0.0325738 0.11381375 -0.10353275 -0.12110743
0001d0 dc ef 1b 3d 12 82 1f be 09 84 2f bc 5d 7e 2b be
       0.038070545 -0.15576962 -0.010712632 -0.16747423
0001e0 28 64 0b 3e ed 5a 4d 3d 28 4c 03 3e ae 93 2b 3d
       0.13612425 0.05013554 0.1282202 0.041888885
0001f0 98 c1 a7 3c fb 27 86 3d 56 fc b8 3d cd f5 5e bc
       0.020478055 0.065505944 0.09032504 -0.013608408
000200 3f 52 65 bb 23 41 44 3e 25 24 da 3b ae e4 9a 3c
       -0.003499165 0.19165473 0.006657141 0.018907871
000210 29 e7 bc 3d 36 8c c2 3d 68 c6 a4 3d ac 86 7c 3d
       0.09223778 0.09499399 0.080456555 0.06165187
000220 04 a4 57 be 4f a4 8f 3d 67 a6 ec 3d be ff a6 3d
       -0.21058661 0.07013761 0.11555176 0.08154248
000230 13 28 63 bd ff fa db bd 36 68 19 bd e8 b1 fc 3d
       -0.05545814 -0.10741233 -0.0374529 0.123386204
000240 a8 19 94 3d 58 73 73 bd 38 fd 32 be c0 71 46 3c
       0.07231456 -0.059436172 -0.17479408 0.012112081
000250 3e d9 2d be 88 6b 1f bd f4 15 83 3e d4 99 df 3d
       -0.16977403 -0.03892091 0.25602686 0.10918012
000260 a1 4d 08 3e 6c b7 d7 bd 70 a0 ad 3d 54 93 36 3d
       0.13310863 -0.10533032 0.08477867 0.044574097
000270 9e 28 79 be 1f 79 4b bd 5c 30 d4 bd 7f aa f2 bd
       -0.243319 -0.049676057 -0.10360786 -0.11848926
000280 28 bb 95 3d 9c b8 28 be b5 e3 b1 3c 6d b3 16 be
       0.07311088 -0.16476673 0.021715024 -0.14716883
000290 ea 3e 00 be 17 56 79 3d 92 61 3a 3e 4e 34 e0 3b
       -0.12524 0.060873117 0.18201283 0.0068421727
0002a0 a7 d3 74 bd d4 4e a9 3d 23 a1 03 be dc df c4 bd
       -0.05977216 0.082669884 -0.12854438 -0.0961301
0002b0 cc e7 21 3e c8 02 ac 3d 0c 8c 1f 3e 4d 6f 7a be
       0.1581108 0.08398968 0.15580767 -0.2445652
0002c0 98 c4 e4 bd 40 c3 9d bd f3 b4 14 3c 74 76 9c be
       -0.1117031 -0.077032566 0.009076345 -0.30559123

weight f4 [6, 6, 5]
000000 cc 32 94 3b 3d 51 f4 3c 90 f8 21 3e 86 5e 85 3e
       0.004522657 0.029823894 0.15817475 0.26048678
000010 a6 28 ff 3d 2c 7a 9c 3d 6f 0b b1 bb 65 1d 40 3d
       0.12458925 0.0764049 -0.0054029743 0.046903033
000020 72 b5 f4 3d 98 78 0b be c7 99 54 3e 56 e2 9d 3e
       0.119486704 -0.13620222 0.20761786 0.30836743
000030 e8 cc 21 3e 5d e5 34 3e f8 84 f4 3d 99 a6 f8 bd
       0.15800822 0.1766562 0.11939424 -0.12141151
000040 71 6b d3 bd c5 64 83 bd 69 10 eb bd 4e 9a 00 3e
       -0.10323227 -0.06415705 -0.11477739 0.12558863
000050 f6 06 c1 3c 9a 4a 15 3e b8 8d a7 bd 15 2d 96 3c
       0.02356289 0.1457924 -0.081813276 0.018332044
000060 09 57 48 3d 91 6b 3f 3e 69 d8 8c 3e 35 a9 23 3e
       0.04891113 0.18693377 0.27508858 0.15982516
000070 30 5d bf 3d e2 da 2b bb 92 9b a2 bb 8e 83 65 be
       0.09343946 -0.0026222994 -0.004962393 -0.22413465
000080 10 6e 51 bd 68 0f 45 be 9b 4f e4 bd 93 dd 24 3e
       -0.051130354 -0.19244158 -0.11147996 0.16100149
000090 a0 a4 29 be c0 e6 28 be ed ec 2a be 09 30 3e 3d
       -0.16566706 -0.16494274 -0.16691943 0.04643253
0000a0 fe 43 04 be a2 43 61 be b7 0f 32 bd d9 44 4f 3d
       -0.12916562 -0.21998456 -0.043472018 0.050602768
0000b0 65 49 49 3e 7a 9e 4b be 70 57 7d bd 1a 7b ae bd
       0.19656904 -0.19884673 -0.061850965 -0.085195735
0000c0 d3 c6 1f 3e 5f 31 29 3e d9 7a 78 3d 22 82 0a 3e
       0.15603189 0.1652274 0.06066403 0.13526204
0000d0 8d 14 fd 3d 8f 6a a2 3c 93 7d 0c 3c ce 80 2a bb
       0.123574354 0.019826202 0.008574861 -0.0026016715
0000e0 d8 17 5d be 32 31 87 bd 59 fe d7 bd df c7 f6 ba
       -0.21591127 -0.0660118 -0.1054656 -0.0018827877
0000f0 57 ad 85 bd 31 ec 9e bd 90 14 9b 3d 62 9b b0 be
       -0.065272026 -0.07759894 0.07572281 -0.34493548
000100 1c 30 17 3d 77 c9 a9 bd 8d 51 db 3d 9a 7c d6 bd
       0.036911115 -0.082903795 0.10708914 -0.104729846
000110 62 30 1f be d7 28 b4 bd ca 9e 32 3e 6b 2c b4 bd
       -0.155458 -0.08796852 0.17443386 -0.087975346
000120 c5 8c 1d 3e a0 4e d0 3d 2b ea f3 bd 77 61 b3 3d
       0.1538573 0.101712465 -0.11909898 0.08758824
000130 3d 1e 7d be 7f fc 76 bd 4a a4 53 bc ba 47 c6 bd
       -0.24718566 -0.060299393 -0.0129175875 -0.096816495
000140 d5 93 a7 3d fd e7 22 3e 02 21 47 3d 39 fd 04 bd
       0.081824936 0.15908809 0.048615463 -0.032468054
000150 57 27 9b 3d 52 25 18 3e e3 69 20 bd 2a a5 63 3d
       0.07575863 0.14857987 -0.03916348 0.055577435
000160 3a c6 0b bc ba 20 e5 bd a8 51 16 3d 89 28 d1 bd
       -0.008531148 -0.11187883 0.036698967 -0.102128096
000170 e6 80 df 3c 87 7e aa 3d 67 9d 2e be ac 56 21 bd
       0.027283143 0.083249144 -0.17052232 -0.039389297
000180 1f a7 2a be a8 db 23 be 29 39 18 bd b2 1c 43 be
       -0.16665314 -0.16001761 -0.037163887 -0.19053915
000190 44 79 8e 3e fc 0c 51 3e 4f 12 a8 3e 18 8f ae 3d
       0.27826893 0.2041511 0.32826468 0.08523387
0001a0 41 ef f5 bc fd bb 6b bc d5 f4 ab 3d e7 2f 2f 3d
       -0.030021312 -0.014388082 0.083963074 0.042770293
0001b0 1d cd 36 3e 22 6c eb 3d 43 e0 30 3e 55 ef 3a 3e
       0.17851682 0.11495234 0.17273049 0.1825536
0001c0 d3 25 ca bd b8 59 9e bd ce 09 81 3d 1e b0 c3 bd
       -0.09870496 -0.07731956 0.06300698 -0.09555076
0001d0 01 96 35 be 0a 8f c2 bc 91 91 03 bd ae 4d aa bd
       -0.17733003 -0.023749847 -0.032121245 -0.083155975
0001e0 fc 30 97 bd 81 ef a5 bb 3d d1 05 bd 06 e9 08 be
       -0.0738239 -0.0050639515 -0.03267025 -0.13370141
0001f0 a8 7d 9f bd ec 64 88 3e 87 c8 59 3e 35 39 24 3d
       -0.07787639 0.26639497 0.21267901 0.04009362
000200 a6 d1 4f 3e c5 59 8b 3e 45 b7 46 3e 73 b8 80 3d
       0.20294818 0.27216926 0.1940585 0.06285181
000210 89 32 62 3e 0e ae 1a 3e d8 1a c2 bd 34 cf be bc
       0.2208959 0.15105459 -0.09477776 -0.023292162
000220 6a 5f d2 3c d1 a4 02 3d d5 a9 6c 3e 95 52 62 bd
       0.025680263 0.031895462 0.23111661 -0.055254538
000230 e9 ab bb 3c cc ef bb bc 84 35 14 3d cd 1c 33 3d
       0.022909122 -0.022941492 0.03618385 0.04372864
000240 1e 4b 76 3e 17 37 dd 3d 20 5a ee bc 00 3b 12 3e
       0.24052092 0.10801523 -0.02909571 0.14280319
000250 1d 85 20 be e4 3b 69 3d e5 b7 84 bd 9a 5a ef 3c
       -0.15675779 0.05694188 -0.064803876 0.029218007
000260 3a 35 d4 3d 19 84 e5 3d 75 17 c4 3c a4 87 ef 3c
       0.10361715 0.11206836 0.023936966 0.029239483
000270 2c cc ed bc cf db 25 bc 10 df b2 bd b8 2a 55 bd
       -0.02902802 -0.010123207 -0.08733952 -0.052042693
000280 e5 c9 6e be 4b 1c 02 be a8 9d 08 bb e2 90 30 be
       -0.23319204 -0.12706105 -0.0020845924 -0.17242768
000290 9d b0 1d 3c 28 9a 17 be 11 28 d4 bc 49 5c 2d be
       0.009624627 -0.148049 -0.025898011 -0.16929735
0002a0 be a6 88 bd 81 21 03 be ff 59 16 3e 3c d4 8b 3e
       -0.066724285 -0.1280575 0.14682768 0.2731036
0002b0 a2 2f a9 3e 78 ee 16 3d 9b 91 46 3e 08 53 2b be
       0.33044153 0.036848515 0.19391482 -0.16730893
0002c0 fe 68 37 bd 02 18 10 be 9c 58 40 3b 98 15 08 3e
       -0.044777863 -0.14071658 0.002934969 0.13289487

weights f4 [6, 1, 3, 1]
000000 1e 2f 9a 3f d7 bb 6e 3f 0d dc 87 bd a1 52 72 3f
       1.2045629 0.9325537 -0.06633768 0.9465733
000010 fb f9 78 3f ea 88 96 bd 22 c7 7b 3f fa 70 7f 3f
       0.9725644 -0.07350333 0.9835073 0.99781764
000020 13 5b 0a 3d 09 01 80 3f 42 18 7f 3f f6 e3 6b 3d
       0.03377826 1.0000316 0.9964639 0.057590447
000030 91 29 68 3f 52 e6 62 3f 73 0f 08 bc 3c 91 67 3f
       0.90688425 0.8863269 -0.008304465 0.90455985
000040 d7 c6 8a 3f 57 a6 14 3c
       1.0841931 0.009072862

running_cov f4 [1, 6, 2, 2]
000000 7c 86 97 3f 5d d5 25 3e 5d d5 25 3e 7a 0e 49 3f
       1.1837916 0.16194673 0.16194673 0.78537714
000010 a6 59 88 3f ea 23 b8 be ea 23 b8 be 96 e4 70 3f
       1.0652359 -0.359649 -0.359649 0.94098794
000020 ca 11 68 3f b2 cc 29 bd b2 cc 29 bd f1 f0 a1 3f
       0.90652144 -0.04145498 -0.04145498 1.2651654
000030 e9 d1 80 3f 14 48 ae be 14 48 ae be 53 22 ab 3f
       1.006406 -0.34039366 -0.34039366 1.336985
000040 18 ac 7c 3f e9 55 37 bd e9 55 37 bd 26 7b 43 3f
       0.98700094 -0.044759665 -0.044759665 0.76359785
000050 f5 44 0e 3f 06 8c 83 bb 06 8c 83 bb 12 9c 9c 3f
       0.5557397 -0.004014495 -0.004014495 1.2235129

weight f4 [6, 6, 3]
000000 9d 2e 2c bd 10 bd 88 be cb 9f 44 be f6 05 6f 3d
       -0.04203664 -0.26706743 -0.19201581 0.058355294
000010 a2 30 87 be f3 a2 8a be 38 e4 fc 3c fc 3f 7c 3e
       -0.2640429 -0.27077445 0.030870542 0.24633783
000020 fe f5 81 bd f2 9a 4a 3d 5a 44 0b be 86 ad 59 be
       -0.063457474 0.049464174 -0.13600293 -0.212576
000030 06 9a db bd 1b 87 16 be b6 16 6a be 93 9c 2e 3e
       -0.10722737 -0.14699976 -0.22860226 0.17051916
000040 09 72 53 3d cc ed 11 be ec 8b 65 bd c0 e2 54 3e
       0.051622424 -0.14250869 -0.056041643 0.20789623
000050 7f 57 8d be 8f db b4 3b 50 f1 51 be 13 38 e6 3c
       -0.27605817 0.0055193375 -0.2050221 0.02810291
000060 6c 10 4b 3e 8e fc 52 3e f8 69 7e 3d f0 02 6f 3b
       0.19830483 0.20604154 0.06211278 0.0036470257
000070 a7 8d 2c be 5e 9a cf 3d a6 c4 66 3e 9c 4e 57 3e
       -0.16850911 0.10136865 0.22535953 0.21026081
000080 09 ad 6a 3e e7 66 0a be 0e 14 0b 3e 5e ce 3a 3e
       0.2291757 -0.13515817 0.13581869 0.18242785
000090 bb 1a 1a be ea 05 0b 3e fe 39 92 3d 8d 9a 28 3d
       -0.1504926 0.13576475 0.071399674 0.041163016
0000a0 ab aa 30 be ff 72 a9 3c db 96 00 3e ee 81 8c 3d
       -0.17252605 0.020684717 0.12557547 0.068607196
0000b0 20 2b 37 be c5 b4 4d bd ac 92 cc bd a3 d8 dd 3c
       -0.17887545 -0.050221223 -0.09988913 0.02708084
0000c0 62 fe 0d 3d 28 05 0f 3d 9f 8b 34 be bb 88 f3 bd
       0.034666426 0.034917027 -0.17631386 -0.11891314
0000d0 9f 68 8d 3d 20 5d 00 3e e6 fb a0 3d c1 6a 3b 3e
       0.069047205 0.12535524 0.07860546 0.18302442
0000e0 06 f5 05 3d e0 0c dc 3d a8 b9 aa bd 87 81 1f be
       0.032704376 0.10744643 -0.08336192 -0.15576755
0000f0 67 8b 0c 3e 78 44 14 be 80 e0 16 bc a6 13 81 bd
       0.13725053 -0.14479244 -0.009208798 -0.06302576
000100 29 c0 08 bd 97 c8 e8 3d 5b 31 be bd 5d 54 88 3c
       -0.033386383 0.113663845 -0.092867576 0.01664179
000110 50 8e e0 bd 5c 29 f1 bb d8 ef 37 3e 29 42 dd 3d
       -0.10964644 -0.0073596667 0.17962587 0.10803635
000120 2f 8e 12 be 92 f4 0d bd 46 a6 4d be 5d f2 b9 bd
       -0.14312051 -0.03465707 -0.2008296 -0.0907943
000130 d9 b4 8d bd bf 2e 85 3e 78 95 8b bd 5e 38 a4 be
       -0.069192596 0.26012227 -0.06815618 -0.32074255
000140 00 9c 80 be 6e 0c 24 3e 25 ff 0c be 5f 59 03 3e
       -0.2511902 0.16020367 -0.13769205 0.12827061
000150 6b 57 41 be 94 91 5b 3e 30 63 0c 3e 78 a7 74 3e
       -0.18881004 0.21442252 0.13709712 0.2389201
000160 08 df 16 3e 9b 91 b3 bd 07 1a 05 3e a1 53 b3 be
       0.14733517 -0.087680064 0.1299821 -0.3502474
000170 7d 33 27 3e 43 b8 78 3d 07 5a 95 3d 09 4b 89 be
       0.16328235 0.0607226 0.07292562 -0.2681506
000180 51 8f 6b 3e 06 29 fe 3d eb 99 7c 3e e8 6b 32 3e
       0.2300389 0.12410168 0.2466809 0.17423975
000190 f4 5c 4a be 6f 27 8d 3c b4 e6 6b 3e 9a 34 45 3e
       -0.19762021 0.017230717 0.23037225 0.19258347
0001a0 4f 32 57 3e 27 d3 03 be 30 bc 3f 3e d3 36 91 bd
       0.21015285 -0.12873517 0.18724132 -0.07090535

weight f4 [6, 6, 3]
000000 67 0a 31 3d 09 48 16 3e da 86 7d 3d 26 20 1f be
       0.04322281 0.14675917 0.061896183 -0.15539607
000010 1b c4 1a bd 89 62 65 3e 1d c1 c4 3d b0 fc 89 3e
       -0.037784677 0.2240087 0.09607146 0.26950598
000020 07 59 73 3e 37 06 04 be 11 bb dc 3d 1e 75 4a bd
       0.2376443 -0.12892996 0.107778676 -0.049428098
000030 00 c0 41 be dd 3d 70 be 2f 22 f3 3d 2d 72 8c 3c
       -0.18920898 -0.23461099 0.118717544 0.017144287
000040 1a 8f 61 be 93 fb 88 be 26 03 91 bc 30 9e 9d bd
       -0.22027245 -0.26754436 -0.017701697 -0.076961875
000050 dd 8c 0e 3e 5a 1b 84 be 7b 16 c3 bd de 2d 88 be
       0.13920923 -0.25802118 -0.09525772 -0.26597494
000060 8a 7a 84 be 08 ab b7 be a0 a6 61 3d d9 f1 a7 3d
       -0.2587474 -0.35872674 0.055090547 0.08200426
000070 a0 e2 06 bd bd 63 b7 3d f4 e5 a4 3b 6c 1d 1b 3e
       -0.03293097 0.089545704 0.0050322954 0.15147942
000080 16 a5 80 3e b6 4c c3 3c 7d f7 90 3e 5f f9 77 bc
       0.2512595 0.02384029 0.2831382 -0.015135138
000090 33 a2 95 be f7 62 1a 3e d6 73 67 be 77 17 20 be
       -0.2922531 0.15076815 -0.22602782 -0.15633951
0000a0 1e 35 21 be 19 4b 85 bd 11 15 9e bd 50 9b 4d be
       -0.15742919 -0.06508464 -0.07718862 -0.20078778
0000b0 a2 41 dc bc ed 7b 96 be 12 f7 4e be 3c 1f 1f be
       -0.026886765 -0.29391423 -0.20211437 -0.15539259
0000c0 01 9f dc bc c6 91 bb bd b0 5b 0f 3e c4 ac 1c be
       -0.026931288 -0.091586635 0.1399982 -0.1530028
0000d0 f9 5b db bd 04 56 db bb bd 65 8d bd ad 10 e0 3b
       -0.10710902 -0.0066936035 -0.06904171 0.0068379254
0000e0 18 4d e2 bb d0 97 7f 3e 86 ce 93 3e 89 08 68 3e
       -0.006906163 0.24960256 0.28868502 0.22659506
0000f0 4b 20 8d 3e 7d d7 9d 3e a5 a2 84 3e a0 6d d1 3c
       0.275637 0.30828467 0.25905338 0.025564969
000100 78 ed 7e 3d 96 ef f9 3d fc e4 3c 3d 34 6b 9e 3d
       0.062238187 0.122039005 0.046116814 0.07735291
000110 10 6d dc bd e3 4d 59 3d cf 04 02 3e 12 97 69 be
       -0.107629895 0.053052794 0.12697147 -0.22811535
000120 bd 2d 7a 3c c7 23 d4 bd b9 c1 07 3e 12 ef a8 bb
       0.015269694 -0.103583865 0.13257493 -0.0051554525
000130 20 f1 4d bc 1d 2d 17 bd 2c 5f 85 bd 25 0a 19 3e
       -0.012569696 -0.036908258 -0.06512293 0.14945276
000140 82 37 9f 3d ce a2 39 bd 17 3c 4b be 00 98 b6 bd
       0.07774259 -0.04532128 -0.19847141 -0.089157104
000150 81 89 19 be 01 2c 27 be e4 49 ce bd aa 01 ee 3d
       -0.1499386 -0.1632538 -0.10072687 0.11621411
000160 a5 c3 49 be 4f ee 39 3e e1 db 58 3e a2 a5 fa bd
       -0.19703539 0.18157314 0.21177627 -0.12238623
000170 5d 9a 5d bd d6 b1 00 be de 42 be 3c 45 bb 2e be
       -0.05410229 -0.12567839 0.023225244 -0.17063625
000180 8e ac 34 be 87 74 0d bb 63 42 26 3e 95 79 3b be
       -0.1764395 -0.0021584348 0.16236262 -0.18308099
000190 19 d4 bd 3d 39 5e 20 be e6 92 cc bd da e7 06 be
       0.0926897 -0.15660943 -0.09988956 -0.13174382
0001a0 26 5d 2b be be 17 0f 3e 20 cc af bc f4 3d 76 3e
       -0.16734752 0.139739 -0.02145964 0.2404707

weights f4 [6, 1, 3, 1]
000000 a9 60 84 3f 10 b9 7c 3f 4c 37 df 3d 1e b5 97 3f
       1.0341998 0.9871988 0.10899219 1.1852148
000010 ec 3b 69 3f af 13 4e 3e 30 43 95 3f 7d c6 80 3f
       0.9110706 0.20124696 1.1661129 1.0060574
000020 39 fd 76 3d 4b 9d 9e 3f 5b 6c 6d 3f fc 4e 31 3d
       0.060300086 1.2391752 0.9274346 0.043288216
000030 ce 40 6e 3f 52 4b 6d 3f 36 fb 6f bd 4c a9 89 3f
       0.93067634 0.92693055 -0.058589183 1.075479
000040 a0 d9 7d 3f ea 73 e8 bd
       0.99160194 -0.11350234

running_cov f4 [1, 6, 2, 2]
000000 dc c4 92 3f 6f 08 29 3e 6f 08 29 3e 93 51 81 3f
       1.1466327 0.16507123 0.16507123 1.010302
000010 58 1d de 3f 53 40 86 3e 53 40 86 3e 19 d1 62 3f
       1.7352705 0.2622095 0.2622095 0.8860031
000020 8a 75 12 40 f4 9c ac 3b f4 9c ac 3b 7c 8c 9c 3f
       2.288424 0.0052677337 0.0052677337 1.2230372
000030 ee a9 af 3f 7c 90 3e 3e 7c 90 3e 3e e1 37 6d 3f
       1.3723733 0.18609804 0.18609804 0.9266339
000040 b6 de 95 3f 70 79 d5 bd 70 79 d5 bd 04 2c c9 3f
       1.1708591 -0.10423553 -0.10423553 1.5716558
000050 5b 52 2d 40 db 7c 3d bf db 7c 3d bf 98 99 8a 3f
       2.7081516 -0.7401864 -0.7401864 1.0828123

weight f4 [1, 6, 1]
000000 37 85 56 be e8 f2 e7 3d 9a a6 c4 3e 62 6d db 3d
       -0.20949255 0.113256276 0.38408357 0.107142225
000010 d3 44 68 3e be 9a ce bd
       0.22682504 -0.100881085

weight f4 [1, 6, 1]
000000 eb eb 6b bd e7 e0 c3 3e 8e 62 ed 3e 94 1c dd be
       -0.057598036 0.38257524 0.46364254 -0.43185866
000010 4c e0 2a 3e 33 d9 af be
       0.16687125 -0.34345397

weights f4 [1, 1, 3, 1]
000000 68 8c 86 3f 69 4f 93 3f d8 88 02 be
       1.0511599 1.1508609 -0.12747514

running_cov f4 [1, 1, 2, 2]
000000 d4 b7 5b 3f cc fa 2a 3d cc fa 2a 3d a0 a7 4f 3f
       0.85827374 0.041743085 0.041743085 0.8111515

weight f4 [6, 6, 7]
000000 9c 52 1c be 63 62 34 bd 18 40 f6 3c 37 21 58 3d
       -0.15265888 -0.04403914 0.03005986 0.05276605
000010 27 06 eb 3d 3e 81 7b 3d d2 78 02 be 4f 6e 51 3c
       0.11475783 0.06140255 -0.12741402 0.012782647
000020 a2 19 3b 3e de 93 24 3e 54 dc f9 bd 0d 8f 82 bc
       0.18271497 0.16072032 -0.122002274 -0.015937353
000030 72 07 d9 ba 70 3d a1 be 0c c3 eb bc 9f df 21 3e
       -0.0016558005 -0.31492186 -0.028779529 0.15807961
000040 07 61 c7 bc 2c 99 c6 bb 45 05 ab bd 0a 85 a8 bd
       -0.024338258 -0.00606074 -0.083506145 -0.082285
000050 7a 40 a5 3c 61 ea 84 3d e4 c2 db bd e6 29 1c bd
       0.020172346 0.06490017 -0.10730532 -0.038125895
000060 15 76 ab bd 37 3b 4b bd 21 71 f1 3d 9e 09 09 3d
       -0.08372132 -0.04961702 0.11789156 0.033456437
000070 6c 41 24 be e1 53 26 bd 5b 37 77 3d c8 52 08 be
       -0.16040581 -0.040607337 0.060355525 -0.13312829
000080 c8 08 e5 bd 20 c7 84 bd 66 f4 af bd 66 3b 7b 3d
       -0.111833155 -0.064832926 -0.08591537 0.061335944
000090 90 fa aa bd 1e 59 a8 3d 91 44 0a be d2 9c 05 3d
       -0.08348572 0.08220123 -0.13502719 0.03262026
0000a0 2b 62 9e bd 31 dc c8 3d 2e 03 c1 3d 99 61 24 be
       -0.07733568 0.09807623 0.094244346 -0.16052856
0000b0 d0 59 38 be 81 9b cc bd dd 26 f7 bd 1c 37 c6 bd
       -0.18003011 -0.099905975 -0.120679595 -0.0967848
0000c0 58 96 61 bd e3 dd a6 3d b2 d9 2b bc 32 51 ff bd
       -0.05507502 0.0814779 -0.010488914 -0.12466659
0000d0 cd 89 96 bc 85 6e 03 3e 57 5c 5f bd 39 99 08 be
       -0.018376255 0.12835129 -0.05453142 -0.133397
0000e0 ea 66 18 be ea 02 87 3d 6f 4b 6d bd 1f 0c 00 3e
       -0.14883009 0.06592353 -0.057933267 0.12504624
0000f0 e4 7a 02 3e 04 54 fa 3c e1 cf 88 bd 8b 5f 13 3e
       0.12742192 0.03055764 -0.06680275 0.14391916
000100 a6 e5 31 be b3 90 04 bb a7 91 13 be 9b ab 2e be
       -0.1737276 -0.002022785 -0.1441103 -0.1705765
000110 44 99 f1 bd e5 62 1d 3d 55 69 1b be cd 6e a8 3d
       -0.11796811 0.03842439 -0.151769 0.082242586
000120 3d cb 03 3e 6e f5 d3 bd 65 45 1a 3e bf 23 f5 3d
       0.12870498 -0.103495464 0.15065534 0.11969709
000130 2a 88 73 bd ab 8c 15 3e 0a 20 9d bc dd ee 54 3d
       -0.059456028 0.14604442 -0.019180316 0.05198561
000140 f7 52 41 3e d3 a9 e2 3a c0 1f 08 be 17 d4 03 3e
       0.18879305 0.0017293043 -0.13293362 0.12873875
000150 49 f9 0e 3e 26 07 04 be 44 84 f4 3d 16 30 1b bd
       0.13962282 -0.12893352 0.1193929 -0.037887655
000160 f2 6d 10 3e e3 46 33 3d c6 32 09 bb 01 d2 08 be
       0.14104441 0.043768775 -0.0020934804 -0.1336136
000170 3d d3 fc 3d 97 59 3f bd 68 73 fe bc 19 4c 39 3e
       0.12344978 -0.0467163 -0.03106089 0.18095435
000180 93 2a 90 bd 44 25 aa bd b8 0a 42 3e 4a c1 87 3a
       -0.070393704 -0.08307889 0.18949401 0.0010357287
000190 71 64 3f bd 38 72 67 3d 60 2e 08 3e 3a 51 1b 3c
       -0.046726648 0.056505412 0.1329894 0.009479815
0001a0 9b c6 4e 3e 0f f2 9a 3c 33 c7 88 3d 48 cd a0 bd
       0.2019295 0.01891425 0.06678619 -0.07851654
0001b0 1b c3 f0 bb e0 66 c1 bd 39 1a 1e bd 10 44 c6 bd
       -0.007347477 -0.0944345 -0.038599227 -0.09680951
0001c0 7f d0 7d 3d 93 ed b1 bc 28 5a 21 be 61 98 1e be
       0.061966415 -0.02171973 -0.15757048 -0.15487815
0001d0 69 07 e8 bd c8 e3 35 3d a1 5f ab 3d 15 3d b6 bd
       -0.113295384 0.044406682 0.08367849 -0.08898369
0001e0 be 3c 31 3d 83 68 54 3d 9d 0f ef bd c7 1e 29 be
       0.04327082 0.051857483 -0.116729 -0.16515647
0001f0 b1 50 41 be b7 47 5b bd 0d 39 63 3d 9d 2e 06 3e
       -0.18878438 -0.05353519 0.05547433 0.13103719
000200 c7 5f 90 bd 09 96 44 3b cb a4 52 3e 6e 60 bd bc
       -0.07049518 0.0029996654 0.20570676 -0.02311727
000210 2f 7d ab 3c cd 63 cc 3c 4b 36 b0 3c d2 46 39 bc
       0.020933716 0.024949932 0.021510264 -0.011308389
000220 03 74 35 3e c8 e8 7d be 47 b2 1a bd 62 0d 31 bd
       0.17720036 -0.2479583 -0.037767675 -0.043225653
000230 6c b7 da bd ab ae a7 bd 63 0b 61 3c 53 41 f0 3d
       -0.10679516 -0.08187612 0.013735625 0.117312096
000240 5f 60 37 bb 55 da f6 3d e4 51 2a be 92 25 61 3d
       -0.0027981026 0.12053362 -0.16632801 0.05496747
000250 63 5e 0b 3d 48 d7 52 bd bf fd 11 3e 63 49 b4 3d
       0.03402556 -0.05147484 0.14256953 0.0880306
000260 77 2b c7 bd 7d 6a 8d 3d 2b a3 52 be b6 5f 19 bd
       -0.09725087 0.06905077 -0.20570056 -0.037444793
000270 59 c2 24 be ab 48 4c be 14 09 2c be 4f d4 22 be
       -0.16089763 -0.19949596 -0.16800338 -0.15901302
000280 8a 99 f7 bd 7c 25 c8 bd 84 24 9d bd be e7 4d 3d
       -0.12089832 -0.097727746 -0.076729804 0.050269835
000290 dd 6b 4e 3d 6c bb 06 be 33 7e 9d 3d 56 db 46 3e
       0.050395835 -0.13157433 0.07690086 0.19419608
0002a0 25 4b 62 38 ed 88 38 3d 08 59 e0 bd 24 fb d8 3d
       5.3952583e-05 0.045052458 -0.10954481 0.10594776
0002b0 2f 3f 25 bd 2d 32 dc bc b0 66 26 3a 2b c3 ff bd
       -0.04034346 -0.026879394 0.0006347699 -0.12488397
0002c0 03 58 a2 bd 25 b9 b4 3d d4 58 fe bd dc 61 4a 3d
       -0.07926943 0.08824376 -0.12419286 0.049409732
0002d0 7c 8d a6 3d 54 7b 83 be f8 92 6a be fa 17 19 be
       0.08132455 -0.2568003 -0.22907627 -0.14950553
0002e0 96 58 23 be 57 4a 64 bc fd 93 3d bd f8 26 98 3d
       -0.15951762 -0.01393374 -0.04628371 0.07429308
0002f0 75 0e 01 be 72 78 21 3c 99 bc 89 bd 5b e1 5d be
       -0.12603171 0.009855377 -0.06725425 -0.21667998
000300 45 be 4c be ff e8 e4 bd e6 f9 8e bd e4 89 d9 bc
       -0.19994457 -0.11177253 -0.06981258 -0.02655501
000310 81 94 be 3d 56 49 9d 3d 85 b0 92 bc ae 96 af 3d
       0.093056686 0.07680003 -0.017906437 0.08573662
000320 03 30 05 be 8a 8c e1 bd c5 38 2c 3d 36 21 d9 3d
       -0.13006596 -0.11013134 0.042046327 0.106020376
000330 f2 5f 26 3d ec f8 54 be 53 6d 05 3e 2b 28 65 3d
       0.040618844 -0.20798081 0.13029985 0.05594651
000340 5f 69 9c bd fd ed 80 bd c0 66 af 3c fa 97 c2 3c
       -0.076372854 -0.06295393 0.0214113 0.023754109
000350 dc f8 28 3d 7b 1a 5f be d2 32 62 bd 65 e7 06 3e
       0.041252956 -0.21787445 -0.055224247 0.13174208
000360 34 26 bb 3d ac b8 c6 bd 6d dc 16 3e 35 92 ee 3d
       0.09138146 -0.09703192 0.14732523 0.116489805
000370 58 29 9e 3e 8d 5b a7 3d fe 85 19 be 24 94 fe bd
       0.30890918 0.08171759 -0.1499252 -0.12430599
000380 a7 43 80 3d 4c ea 5c bd 8d 53 fe 3d d9 53 45 3c
       0.06262904 -0.05393438 0.1241828 0.012043917
000390 3e a5 15 be 1a f3 a5 3b 27 25 93 bd c9 d5 35 bc
       -0.14613816 0.0050643804 -0.071848206 -0.011098334
0003a0 9f 65 5f bd b3 c3 c6 3b 8a 8c f2 bd 92 86 a1 bc
       -0.054540273 0.0060658096 -0.11843212 -0.019717488
0003b0 08 f4 78 bd 22 af 01 bd 6e 5a 5d 3e fc 02 a8 bd
       -0.0607796 -0.03166116 0.21616527 -0.08203694
0003c0 d5 04 08 bc d1 86 91 3d 61 79 bd 3c a8 5c 99 3d
       -0.008301933 0.07105792 0.023129167 0.07488376
0003d0 f4 22 42 3e 51 e4 08 3e e6 ad ee 3d 6e a7 57 3e
       0.18958646 0.13368346 0.11654262 0.21059963
0003e0 2b c9 e0 3d ab 66 13 3e ee d6 2b bd 9d f6 ec 3c
       0.1097587 0.14394633 -0.04195302 0.028926188
