Homography_Trained_Model/E2EMP_UL2_50.pth (torch, 885388 bytes, 291 tensors)

weight f4 [1, 1, 1, 7]
000000 c6 8e ad be e1 66 c8 be eb 06 b1 bd 54 28 94 3d
       -0.3389799 -0.3914099 -0.086438976 0.072342545
000010 d9 de b1 bd 00 6c e0 3d f7 8f 7f be
       -0.08685083 0.10958099 -0.24957262

weight f4 [1, 1, 1, 7]
000000 a7 50 08 be dd 83 ca be 09 a7 3c bd f9 58 ac 3e
       -0.13312016 -0.3955373 -0.046057735 0.3366163
000010 19 a6 9d bd ef 3b bc be c6 48 56 3e
       -0.07697696 -0.36764476 0.20926198

weight f4 [1, 3]
000000 b1 b2 bd 3f 1b 63 a8 3f 78 76 8d bd
       1.4820157 1.3155245 -0.06907362

bias f4 [1, 2]
000000 8d 26 1f 3e e4 0a 66 bd
       0.1554205 -0.05616273

running_covar f4 [1, 3]
000000 75 f8 03 3c 70 e6 b0 3c 84 24 24 3b
       0.008054842 0.021594256 0.002504618

weight f4 [1, 1, 5, 1]
000000 e5 ae ad be 9f 27 e1 be 0a d2 b9 3e 85 ac f7 be
       -0.33922496 -0.4397554 0.3629306 -0.4837381
000010 e1 fe 0b be
       -0.13671447

weight f4 [1, 1, 5, 1]
000000 fa c6 b6 3d 47 7b 4a 3e 94 d1 c6 bc c6 6c 61 3e
       0.089246705 0.19773589 -0.024269857 0.2201415
000010 33 af d3 3e
       0.41344604

weight f4 [1, 3]
000000 82 e7 b3 3f d0 f4 b0 3f 69 79 53 3c
       1.4055026 1.3824711 0.012907364

bias f4 [1, 2]
000000 8d e7 c7 bc f4 38 46 bd
       -0.024402404 -0.04839416

running_covar f4 [1, 3]
000000 39 91 cc 3f fd 3a 91 3f 9a 50 fe 3e
       1.5981818 1.1346127 0.4967087

weight f4 [1, 1, 5, 1]
000000 45 cf a9 be c0 d9 91 3e 78 df ec 3d 83 5c 57 bd
       -0.33165947 0.28486443 0.11566061 -0.05257846
000010 89 09 b7 3e
       0.35749462

weight f4 [1, 1, 5, 1]
000000 bb 39 05 3e c5 2c 01 3e 6e e0 03 be d3 86 c8 3e
       0.13010304 0.12614734 -0.12878582 0.39165363
000010 d5 d6 af be
       -0.3434359

weight f4 [1, 3]
000000 ac 2d bc 3f 90 da ab 3f ec 1c 26 bc
       1.4701438 1.3426075 -0.010138731

bias f4 [1, 2]
000000 61 8c f4 3d ab a7 11 3d
       0.11940838 0.03556029

running_covar f4 [1, 3]
000000 ef ab 22 3c db 4a 9d 3b fd df 82 3a
       0.0099286875 0.0048001832 0.0009984967

weight f4 [1, 1, 1, 7]
000000 8d dd 8b 3e 33 ef 5d be e7 a8 65 3e d1 b3 b8 bb
       0.27317467 -0.21673279 0.22427712 -0.00563667
000010 be e5 07 be 05 68 2b be 35 3b 3e be
       -0.13271233 -0.16738899 -0.18577273

weight f4 [1, 1, 1, 7]
000000 6d a0 98 3c 16 98 04 be 32 b0 7f bd 28 43 ed bd
       0.018631184 -0.12948641 -0.062423892 -0.11585075
000010 cf 0b 2b 3e ca be cc 3d bf ee 60 3c
       0.16703723 0.099973276 0.0137287965

weight f4 [1, 3]
000000 d6 a7 c0 3f 78 b2 b7 3f 34 bf 21 3d
       1.505122 1.4351339 0.039488986

bias f4 [1, 2]
000000 ae b0 89 3c e2 da 36 3d
       0.01680788 0.044642337

running_covar f4 [1, 3]
000000 21 8e 83 3d 3f 7d b5 3d 97 c3 90 3b
       0.06423593 0.088617794 0.0044178474

weight f4 [1, 1, 3, 3]
000000 7e 06 ea bc 71 0c cd 3e ee d3 49 3e 7e b6 23 3e
       -0.028567549 0.40048555 0.19709751 0.15987584
000010 e6 70 67 be dc 93 36 be 44 4b ce 3d 43 eb 72 bd
       -0.22601661 -0.17829841 0.100729495 -0.059306394
000020 f2 18 44 3e
       0.19150141

weight f4 [1, 1, 3, 3]
000000 ab ac 49 be 9a 7b 84 bd 9b 18 8a 3e 9a eb 96 be
       -0.19694774 -0.064688876 0.26971897 -0.29476625
000010 1e b4 d2 bd 7a 5b dc bc e7 d7 84 bd b9 3a 50 be
       -0.10288261 -0.026899088 -0.064864926 -0.20334901
000020 26 89 a5 3e
       0.32331198

weight f4 [1, 3]
000000 15 fa ba 3f 31 e9 ac 3f 40 a3 db 3c
       1.4607569 1.3508664 0.026811242

bias f4 [1, 2]
000000 2d 78 37 3c f7 ff 2d 3e
       0.011198086 0.16992174

running_covar f4 [1, 3]
000000 88 26 7e 3c 7d 53 81 3c 58 55 40 3a
       0.015512116 0.01578688 0.0007336936

weight f4 [1, 1, 3, 3]
000000 a6 50 aa 3e 01 7b b3 be ce c3 aa be 6b 87 6b bd
       0.33264655 -0.35054782 -0.33352512 -0.05750219
000010 82 01 49 3c ec 3e 91 bd 17 e0 85 3e da fc f0 3c
       0.012268426 -0.070920795 0.2614753 0.029417444
000020 5c d7 0d 3d
       0.03462921

weight f4 [1, 1, 3, 3]
000000 c5 d0 24 be 1a 81 83 3c ea 0a 48 be 97 28 5b 3e
       -0.16095264 0.016052771 -0.19535413 0.21402203
000010 29 6d 97 3e a2 39 14 3e 63 c6 61 be 24 4d fa bd
       0.2957547 0.1447511 -0.22048335 -0.12221745
000020 2a 32 5c be
       -0.21503511

weight f4 [1, 3]
000000 30 df b9 3f b7 bc b5 3f e3 da 30 3c
       1.4521236 1.4198216 0.010794374

bias f4 [1, 2]
000000 f2 a5 a4 3c e1 05 12 ba
       0.02009866 -0.0005570334

running_covar f4 [1, 3]
000000 56 3d 2e 3f 22 a8 25 3f 18 69 68 bb
       0.6806234 0.64709675 -0.0035463031

weight f4 [1, 1, 1, 7]
000000 fd 6b f4 bd b5 7c cc 3d cd 85 61 3d 45 c4 2e bd
       -0.1193466 0.099847235 0.055059243 -0.042667646
000010 f6 a7 c6 bd cb 76 ef 3c e9 2e 73 be
       -0.09700005 0.02923145 -0.23748364

weight f4 [1, 1, 1, 7]
000000 d7 68 84 be 0e 03 a5 3e e7 9a 9d 3d 27 a0 4b 3e
       -0.25861236 0.32228893 0.07695561 0.19885312
000010 56 05 bc 3e 61 e3 9b 3e 1e 1d a5 be
       0.3672282 0.30446914 -0.32248777

weight f4 [1, 3]
000000 49 04 b6 3f 70 17 b4 3f f3 a1 f0 bc
       1.4220058 1.4069653 -0.029374098

bias f4 [1, 2]
000000 67 aa 20 bc 8c 87 7d bd
       -0.009806252 -0.061896846

running_covar f4 [1, 3]
000000 23 14 01 3b a4 0f 09 3b 11 1d f1 b9
       0.001969584 0.0020913864 -0.00045988758

weight f4 [1, 1, 5, 1]
000000 c2 6e b0 3d 7d 88 c2 be 99 a2 da bd ef f9 89 3e
       0.086148754 -0.37994757 -0.10675544 0.26948497
000010 d7 36 9b be
       -0.30315277

weight f4 [1, 1, 5, 1]
000000 38 81 b3 be d9 ee bc 3e b0 23 c4 3e ee c0 5e 3e
       -0.35059524 0.36900976 0.38308477 0.21753284
000010 9b 6a d0 be
       -0.40706334

weight f4 [1, 3]
000000 d7 34 b0 3f 6e cb af 3f 65 4a a9 39
       1.3766125 1.3733957 0.0003228962

bias f4 [1, 2]
000000 8b 4e 0f bd 9c 5e cf bc
       -0.034987014 -0.025313668

running_covar f4 [1, 3]
000000 af d3 ee 3e 9a 13 cf 3e 38 ef 20 bb
       0.46645877 0.40444642 -0.0024556648

weight f4 [1, 1, 5, 1]
000000 a7 0d d1 3e c4 0a b9 bd 12 54 38 3e 9e 8a d0 bd
       0.40830728 -0.090352565 0.1800082 -0.10182689
000010 ee 51 b9 bd
       -0.0904883

weight f4 [1, 1, 5, 1]
000000 01 54 8c be f3 73 3e be 9e e1 ed 3e 9a c8 4d be
       -0.2740784 -0.18598919 0.46461195 -0.20096055
000010 5c f7 a0 bd
       -0.0785968

weight f4 [1, 3]
000000 a3 c3 b0 3f c9 cc b9 3f 2c ff a6 3b
       1.3809704 1.451562 0.005096337

bias f4 [1, 2]
000000 9f cf 9b bb 7a 78 15 3d
       -0.004754975 0.03649185

running_covar f4 [1, 3]
000000 32 ef 00 3c f5 63 0e 3b e4 3d 7a b9
       0.007869529 0.002172706 -0.00023864914

weight f4 [1, 1, 1, 7]
000000 82 a5 4d be 92 47 b7 be c5 5a 06 3e 57 f8 03 bd
       -0.20082667 -0.3579679 0.13120563 -0.032219257
000010 86 f5 4d 3c 23 38 ed bd 4f f1 41 3e
       0.012570744 -0.11582973 0.18939708

weight f4 [1, 1, 1, 7]
000000 e4 73 67 be 36 e5 31 3e 91 98 93 3e df 5c 4e 3e
       -0.22602803 0.17372593 0.28827336 0.20152615
000010 7a fe a6 3e 5f 00 b6 3c de 34 89 3e
       0.32616025 0.022216974 0.26798147

weight f4 [1, 3]
000000 30 57 b0 3f 1c df b1 3f 8d eb be bc
       1.3776608 1.3896213 -0.023305679

bias f4 [1, 2]
000000 c2 59 8c bd 3e f6 95 bc
       -0.068530574 -0.018305894

running_covar f4 [1, 3]
000000 35 71 e8 3f db 58 9d 3e 44 93 33 3f
       1.8159548 0.30731854 0.70146585

weight f4 [1, 1, 3, 3]
000000 e6 78 32 be 90 4e f8 3d 51 9f 98 be 65 ce 75 3e
       -0.17428932 0.121243596 -0.2980905 0.24004515
000010 9f a6 88 be 84 0d 9c be 0e 7a 51 bc 63 93 9c bd
       -0.26689622 -0.30479062 -0.012785448 -0.07645299
000020 2c 0e 90 be
       -0.28135812

weight f4 [1, 1, 3, 3]
000000 78 65 62 3e dc 44 64 3b a6 d4 2b be 8f 64 5f be
       0.2210902 0.0034831082 -0.16780338 -0.21815704
000010 09 a3 dd bd 85 5a 80 3e 6f 0c 3a bd 87 1c 3a be
       -0.10822112 0.2506906 -0.045422014 -0.18174945
000020 32 28 f1 bc
       -0.029438112

weight f4 [1, 3]
000000 be 94 b4 3f 87 b8 b5 3f 18 24 07 3c
       1.4107893 1.4196938 0.0082483515

bias f4 [1, 2]
000000 c2 bd cc b8 65 a9 d0 bb
       -9.762823e-05 -0.0063678497

running_covar f4 [1, 3]
000000 57 2f 99 3b ec 6a c5 3b 22 46 8a 3b
       0.004674833 0.006024709 0.0042197863

weight f4 [1, 1, 3, 3]
000000 de 24 30 3e 09 f5 87 3e 0b 77 12 3e 65 e6 9a 3d
       0.17201564 0.26554134 0.14303224 0.075634755
000010 f9 1c a4 3e 53 bf e2 3d 04 e1 80 3c 0d 73 eb 3d
       0.32053354 0.110716484 0.015732296 0.114965536
000020 30 0b 8f be
       -0.27938223

weight f4 [1, 1, 3, 3]
000000 a0 ca db 3d 73 0b 83 3e 4a 53 ac 3e 28 5b 83 3e
       0.10732007 0.25594673 0.33657295 0.25655484
000010 5b b2 ef bd 4d 01 c6 3d fb 0d 49 3e 30 68 0b 3e
       -0.117039405 0.09668217 0.1963424 0.13613963
000020 2f 2c 1e be
       -0.15446542

weight f4 [1, 3]
000000 a8 16 ab 3f 83 4f af 3f 22 86 3a bc
       1.3366289 1.369614 -0.011384519

bias f4 [1, 2]
000000 66 52 3d bd ac 1d 25 bd
       -0.04622116 -0.0403115

running_covar f4 [1, 3]
000000 7a 1f 3d 3f a1 dd 9c 3f bc fd d6 3e
       0.73876154 1.2255136 0.4199046

weight f4 [6, 6, 9]
000000 cb dd 04 3e af eb e3 3d 9e 28 8c 3d af 08 8e 3c
       0.12975232 0.111289375 0.068436846 0.017338125
000010 2d c6 bf bd 5c b9 3c bd 88 7b 18 bd 1c 07 f5 bd
       -0.09363971 -0.04607521 -0.037227184 -0.11964247
000020 db ec c3 3d da d0 db bb 7d bd 47 3d 0b 07 c6 bd
       0.09566661 -0.0067082467 0.048764694 -0.09669312
000030 24 6a 69 3d 59 1c 5a 3d 54 cd f5 ba cd ac 84 bb
       0.05698599 0.05324969 -0.0018753209 -0.00404892
000040 72 0b 0e 3d 19 e9 86 bd 5d 42 2c 3e 1c 79 0d 3e
       0.034678884 -0.065874286 0.1682219 0.13815731
000050 db 3e ac 3d b9 27 67 bd 1f 38 21 3e 2c 86 3f bd
       0.08410426 -0.056434367 0.15744065 -0.046758816
000060 5d 19 57 3e e9 40 2c 3e 40 15 64 3e e7 cb ce bb
       0.21005769 0.16821636 0.22273731 -0.006310928
000070 fd 5e c2 bc 70 bd 07 3e 17 4b 97 3d 63 34 12 be
       -0.023726935 0.13255858 0.07387369 -0.14277796
000080 c9 cf 4f bd d8 95 91 3d c8 aa 8c 3d f4 46 18 be
       -0.05073527 0.071086586 0.068685114 -0.14870816
000090 27 0d 84 3d 37 17 a5 bd 67 4e 5d bb 3a 9e 1d 3d
       0.06447821 -0.080610685 -0.0033768655 0.038480975
0000a0 b4 fd 83 3d 25 06 8d 3d 5c 27 a8 bd 0e c8 10 3e
       0.064448744 0.068859376 -0.08210632 0.14138815
0000b0 24 36 e2 bc 39 24 e5 bd dd 8e 0c be a4 d8 5f 3c
       -0.027613707 -0.111885495 -0.13726373 0.013662491
0000c0 9d a7 09 bd 81 11 65 3d 4a 86 b7 bd 2a 11 d5 3c
       -0.033607114 0.055924896 -0.089611605 0.026009161
0000d0 f8 05 14 be 91 da a3 bd 4f 72 9f bd 05 26 a1 3d
       -0.14455402 -0.080006726 -0.077854745 0.0786858
0000e0 1c 89 10 3e c8 b4 20 3d c5 a0 07 3e 96 e1 a7 3d
       0.14114803 0.039234906 0.13244922 0.08197324
0000f0 4c a4 50 bd ab 00 b2 3c 7b 4c ec 3d 30 cc fe 3c
       -0.050937936 0.021728834 0.11538025 0.031103224
000100 73 76 89 3d 9e ab 86 3d b8 d8 84 bc d4 ed 46 bd
       0.067120455 0.06575702 -0.01621662 -0.048566654
000110 2d 39 a9 bc 41 84 0b bd 48 fc 1d be 40 42 07 be
       -0.020657146 -0.034061674 -0.15428269 -0.13208866
000120 59 56 82 bc 73 be 79 3d 90 c0 9a bd 00 13 1e 3d
       -0.015910314 0.060972642 -0.0755626 0.03859234
000130 a6 c3 04 be 98 b3 60 be 85 be 37 be 32 d8 48 be
       -0.12965259 -0.2194351 -0.17943771 -0.19613722
000140 9f 8c ec bd e7 05 93 3d a4 79 97 3d 8f 9f f5 bc
       -0.11550259 0.0717886 0.07396248 -0.02998331
000150 87 bd a0 3d f7 b9 8a 3d 4f fb d6 bd 92 84 d4 3c
       0.078486495 0.06773751 -0.10497152 0.02594212
000160 d7 d8 ba 3d 64 e0 58 3d bb 37 16 be 65 f4 b5 3d
       0.0912339 0.05294837 -0.14669697 0.08884505
000170 5a e0 37 3d c6 a1 41 bd 79 22 0b be a6 b9 cb bd
       0.044891693 -0.04727342 -0.13587369 -0.09947519
000180 e5 73 3e bd 32 f1 55 3c 40 7b 82 bd 1a ed cf 3d
       -0.046497244 0.013057994 -0.06371164 0.101526454
000190 ac 57 c2 3d f3 60 c8 bd d6 70 92 3d 3f 37 ba bd
       0.09489378 -0.097841166 0.07150428 -0.090925686
0001a0 fb 69 ef bd a4 24 8a 3d 1b 62 a0 bd bf 12 0d be
       -0.11690136 0.0674527 -0.07831212 -0.13776682
0001b0 c1 79 7f bc f0 a6 11 3e e8 eb 11 be 4a b9 ce bd
       -0.015592993 0.14223838 -0.14250147 -0.10093935
0001c0 46 57 cd bc 2e ff a2 bd 16 1d 94 3c 01 0c 8f bd
       -0.02506603 -0.07958828 0.018080276 -0.069847114
0001d0 17 18 ec 39 f4 c3 68 bd 3b c0 53 bc e5 88 a5 ba
       0.00045031376 -0.0568275 -0.012924249 -0.0012629299
0001e0 42 36 9c bd 45 f4 58 3d dc 92 1d bc f7 89 85 bb
       -0.07627536 0.05296733 -0.009617534 -0.0040752846
0001f0 48 64 83 3d 0e 70 72 bd 49 94 6f 3d db 9a 1f bc
       0.064156115 -0.059188895 0.058491025 -0.00974151
000200 c2 91 a0 3d 40 d8 1b 3d a5 0a 83 bd 78 16 ae bd
       0.07840301 0.03804803 -0.06398515 -0.08500379
000210 4d bb 15 3d a7 89 09 bd 5f e2 e7 3d a5 de 8c 3d
       0.036555577 -0.03357854 0.11322474 0.068784036
000220 2c aa b5 bd 38 f1 df bc 61 70 e6 bd e1 89 0d bd
       -0.08870348 -0.027336702 -0.11251903 -0.03455532
000230 70 27 7e bd ca 30 80 3d 3c 47 85 bd 45 28 6b bd
       -0.06204933 0.06259306 -0.065077275 -0.05741145
000240 e1 c9 72 3d 3d e6 0b be 59 a6 2d bd 64 52 cc 3d
       0.059274558 -0.13662048 -0.04239497 0.09976652
000250 af 7b 64 3d 2d dc fa 3d 3c 07 06 3e 0b 38 20 3e
       0.055782016 0.122490264 0.13088697 0.15646379
000260 7f e6 5e bd cf e9 62 bd 9e 23 6a bd 0e 48 00 be
       -0.054419037 -0.05539876 -0.057162873 -0.12527487
000270 fc 6a fe bc c9 82 a9 bd b5 4d f3 3d 49 ed 94 3d
       -0.031056874 -0.082768984 0.11880056 0.07271821
000280 40 02 a1 bd f6 a8 fd bd 9a 8a e1 bd 17 61 ea 3c
       -0.07861757 -0.12385742 -0.11012764 0.02861075
000290 43 c0 5b bd b6 7c 84 3d 6f a3 f2 bc eb 46 e1 3c
       -0.053650152 0.06469099 -0.029618947 0.027499637
0002a0 2e bf 29 3d 1a bc d0 3d c6 b9 f0 3d 73 3d 1b 3d
       0.04144209 0.101921275 0.117541835 0.0379004
0002b0 28 2f 88 3a ae e5 88 bd a1 60 c9 3c a2 ab 46 bd
       0.001039003 -0.06684433 0.024582209 -0.048503526
0002c0 ad f9 8e 3c f1 cd 49 bd 44 35 93 3d fb 79 bf 3d
       0.017453039 -0.049268667 0.07187894 0.09349438
0002d0 4d 2b ee bd 75 e2 70 3d 59 08 5f 3d 59 9a 97 3d
       -0.11629353 0.058809716 0.05445132 0.07402486
0002e0 26 99 ba bd 8c bb f4 bb ca 9a 84 bd e6 cd eb bd
       -0.09111242 -0.0074686464 -0.06474836 -0.115138814
0002f0 57 4a 82 3a 1f 8a e8 bd 34 5c ad bd 95 b4 13 be
       0.0009940368 -0.113544695 -0.08464852 -0.14424355
000300 f4 e3 99 3d 7b 00 d7 bc ae f2 cc 3d 65 85 bf b9
       0.07514182 -0.026245346 0.10007225 -0.00036529746
000310 e1 00 d5 bd eb 25 7d bd e1 7a 16 bd bb 5d 1d 3c
       -0.10400558 -0.06180374 -0.03673828 0.009604867
000320 f9 96 df 3d 62 d7 95 3c 95 ec 95 3c a2 d7 3b bd
       0.109174676 0.01829118 0.018301288 -0.04585994
000330 1d 1b e9 bd 1a 34 95 bc 3f 57 fd bc 28 e3 b9 3d
       -0.113821246 -0.01821332 -0.030925391 0.0907653
000340 01 d2 8b 3d 53 ad a2 bd 54 1d 83 bd 48 8b 21 3d
       0.068271644 -0.07943215 -0.06402078 0.03943947
000350 60 0e 2b bc 46 ca 35 3c d6 11 74 3d 16 1a 3c 3d
       -0.010440439 0.011095589 0.059587322 0.045923315
000360 62 70 14 3e f3 57 b4 3d 77 bd b7 39 58 05 55 bd
       0.14495996 0.088058375 0.00035045642 -0.05200705
000370 32 07 f0 bd 24 9f f3 b9 08 9e 2b bc 89 dc ab bd
       -0.117201224 -0.0004646714 -0.010474689 -0.08391673
000380 f8 fe fd 3d 09 7e 2f 3c 28 3d ec 3c 02 8d e4 3d
       0.12402147 0.0107112015 0.028837755 0.111597076
000390 43 15 49 3c dc 24 63 3b 92 65 bd bd bc a7 a4 3d
       0.012273136 0.003465942 -0.092478886 0.08039805
0003a0 a8 eb c2 bd 14 63 be bd d8 2e 68 bc 9e fe 90 bd
       -0.09517604 -0.092962414 -0.014171325 -0.070798144
0003b0 bc 44 0e 3e e5 71 89 bd 37 f5 99 3d 4e 6e 7d bd
       0.13893408 -0.06711177 0.07517474 -0.061872773
0003c0 17 9c 01 be a8 2a 0b be 39 54 49 be e0 92 4d bd
       -0.126572 -0.13590491 -0.19661035 -0.0501889
0003d0 e7 9c be bd 09 ae ce bd 2f 28 24 bd 89 b4 f1 3d
       -0.093072705 -0.10091788 -0.040077385 0.118020125
0003e0 d0 71 1c bd d7 c8 b9 bd d4 0c af bd cd da e2 3d
       -0.038194478 -0.0907151 -0.08547369 0.11076889
0003f0 b4 5f f6 3b 91 c1 6e bd 08 63 72 bd 2a 98 62 3d
       0.007518733 -0.058290068 -0.059176475 0.055320896

weight f4 [6, 6, 9]
000000 91 8b cf bd fa bb 82 3d d1 c2 33 bd b7 db 4c bd
       -0.10134042 0.0638351 -0.043886963 -0.050014224
000010 2c 66 a2 bd 8a 1a eb 3d 27 82 8f bd 9b 92 ea bc
       -0.07929644 0.11479671 -0.070072465 -0.02863436
000020 bc f4 cd bd 9e 04 ca bb fc a8 7a bd 1d 98 1b 3e
       -0.10056445 -0.006165101 -0.061196312 0.15194745
000030 f1 16 5d bd f9 79 5d 3d 2a bd d6 bd 11 7b 7e bd
       -0.053976957 0.0540714 -0.10485299 -0.062129084
000040 c8 c8 c9 bd 89 6c c5 bd 50 e6 29 bd ba 26 a5 3d
       -0.09852749 -0.09639842 -0.04147941 0.08064027
000050 f9 f2 d4 bd cb 28 aa 3d 09 fa b8 bd b4 bc 9e bd
       -0.10397906 0.08308562 -0.090320654 -0.07750836
000060 e1 89 a1 3d cd c1 3b bd 39 5b a6 3d 75 fa b3 bd
       0.078876264 -0.04583912 0.08122868 -0.08788005
000070 8e ea 56 bd 2e 0f 6c bd 4f 25 2e be 9a 74 ab 3d
       -0.052469783 -0.057631664 -0.1700642 0.08371849
000080 99 cd 22 3e bd 64 c9 bd c3 61 1e 3e d9 c4 84 bc
       0.15898742 -0.098336674 0.1546698 -0.016207146
000090 dd 2c 8b 3d c9 b4 93 bd f0 56 a8 3b 5c 64 de 3d
       0.06795666 -0.072122164 0.005137317 0.10858986
0000a0 69 e6 22 be 5e 61 ab 3d b6 11 97 bd 58 e4 36 be
       -0.15908207 0.08368181 -0.07376425 -0.17860544
0000b0 51 46 ce bc c9 66 1b 3d 39 39 e9 3d e8 cc aa 3b
       -0.025180014 0.03793982 0.113878675 0.005212415
0000c0 87 9c d9 3d b4 5f a2 bd 2a c8 95 bd 6a dd ad 3c
       0.10625558 -0.0792841 -0.07313569 0.021223743
0000d0 dd 35 92 bc 1d 29 d5 3d 7d cc 01 3e 43 c7 d2 3d
       -0.01784795 0.10408232 0.12675662 0.102919124
0000e0 27 b3 d9 bd 62 3d de 3d e3 27 15 3d 37 34 0a bd
       -0.10629874 0.108515516 0.036414992 -0.033741202
0000f0 7e 53 d3 bd ed 10 6d 3d 0b 84 8a bd 3f aa 75 bd
       -0.10318659 0.05787747 -0.067634664 -0.059976812
000100 99 a6 bc bd d8 f7 1e 3e 8c de 88 bd 0b 81 03 bd
       -0.092114635 0.15524232 -0.066830724 -0.032105487
000110 66 de 83 bd 41 ce de 3d b2 20 9f 3d f5 46 86 bd
       -0.064389035 0.108791836 0.07769908 -0.06556503
000120 30 9b fa 3b 1d a8 36 3d 65 4d 7c 3d 36 9c 73 bd
       0.0076478943 0.04459392 0.061597247 -0.059475146
000130 9d a9 84 bd b4 43 e4 3d 3e b3 70 bd 2a b8 c8 3c
       -0.06477664 0.11145726 -0.05876469 0.024501879
000140 ff 6a e7 3c 75 dd 27 3e 70 5a 37 bc 99 df be bc
       0.028249262 0.16393073 -0.011190996 -0.023299979
000150 d5 a8 27 bc 41 84 65 bd 0e b9 1c 3e 0f 48 a5 bd
       -0.010233124 -0.05603433 0.15304968 -0.08070385
000160 74 c6 f3 3d 8c 22 de 3d a6 8f c9 bc 6a a7 bc bc
       0.11903086 0.10846433 -0.02460463 -0.023029048
000170 a3 81 b7 3d f1 8e fd bc b5 b7 c9 3d 53 8f a1 bd
       0.08960273 -0.030951949 0.098494925 -0.07888665
000180 fb ce 06 be aa 01 de bd ce d0 bd bd 2c 92 cc bd
       -0.13164894 -0.10840161 -0.09268342 -0.099888176
000190 73 33 ee 3c fd 53 9c 3d d0 59 10 3e 90 77 37 bc
       0.029077267 0.07633207 0.14096761 -0.0111979395
0001a0 c1 a8 e4 3d 9c 4e 83 3d 8f 07 0d 3e ed 8e 8f bd
       0.11165 0.06411478 0.13772415 -0.07009683
0001b0 60 e0 27 3e 2c 20 fe bc 5d 05 2d 3e 74 d7 e6 3a
       0.16394186 -0.0310212 0.16896577 0.0017611817
0001c0 16 87 20 bd 10 ce cd 3c 7e ee 3b bc 98 df c2 bd
       -0.039191328 0.025122672 -0.011470435 -0.095153034
0001d0 ac ff 89 bd 7f 09 7b bb 24 6c a2 3d be 03 94 3d
       -0.06738219 -0.003830522 0.079307824 0.07227276
0001e0 ee 18 88 3d cc b3 1d be bc eb fa bd 1f be 64 bd
       0.0664538 -0.15400618 -0.12251994 -0.055845376
0001f0 08 03 e6 bd 4a 15 8c 3d f7 d5 3a bd f9 ca e8 bc
       -0.11231047 0.06839998 -0.04561421 -0.028417097
000200 9f ec c1 bd 66 82 95 bd 4f 99 69 3d a8 69 00 3e
       -0.0946896 -0.07300262 0.057030972 0.12540305
000210 4e 67 8d 3c ea ea dc 3d a4 ea ec 3d e0 a5 10 be
       0.017261174 0.10786994 0.11568192 -0.14125776
000220 7f 11 ca bd 50 5c 5e bd 45 b4 c2 bd 98 2b 1d 3e
       -0.09866618 -0.054287255 -0.0950704 0.15348661
000230 1a ae 22 bd 24 c7 65 3d 85 bf 13 be 01 57 e3 3d
       -0.039716817 0.05609812 -0.14428528 0.11100579
000240 30 0c 0f be 8d 9f 2c 3d 39 e4 9d 3d 75 db dd 3c
       -0.13969493 0.042144347 0.07709546 0.027082184
000250 a6 f3 20 3e 4a 03 dd 3c 6f 33 0b 3e 00 9e b7 3d
       0.15717945 0.026979107 0.13593839 0.08965683
000260 b4 48 b7 3b 40 78 5f 3c 76 7f ed bd 32 16 ca bd
       0.0055933837 0.01363951 -0.11596577 -0.09867515
000270 8e a4 80 3d 4f 73 b0 3b c8 31 c3 bb 40 e2 fd bd
       0.06281386 0.0053848396 -0.005956862 -0.123966694
000280 88 31 d3 3d 74 53 9e bd 9e 15 7e 3d 86 01 71 bd
       0.10312182 -0.07730761 0.062032335 -0.058839343
000290 d4 c3 ee bc 8c e2 17 be fa 3d e4 bd 42 83 ac 3c
       -0.029146113 -0.14832515 -0.111446336 0.021058682
0002a0 a6 d6 1b 3d c3 ea 1c be c5 17 80 bc e9 f7 09 3e
       0.0380465 -0.1532393 -0.015636334 0.13473476
0002b0 03 50 ed 3d 84 35 33 bb 4e bd 4a ba f5 6d 15 be
       0.11587527 -0.002734513 -0.0007733897 -0.14592727
0002c0 ab c7 0d be 0c 6a 97 3d 78 69 2c be aa 41 f8 bd
       -0.13845699 0.07393274 -0.16837108 -0.121218994
0002d0 26 88 7f 3e e4 62 a5 3b 04 9e 8e 3d e2 eb 64 bd
       0.2495428 0.005047189 0.06963733 -0.055889018
0002e0 60 3a 93 bd 5f 2e f0 bc ca 01 8b 3d 74 ca 8d 3d
       -0.071888685 -0.029318986 0.067874506 0.069233805
0002f0 51 00 c4 3d 1e bb ab bd 7b 2d 28 bd 92 7d a7 bd
       0.09570373 -0.08385299 -0.041059 -0.081782475
000300 85 c3 b0 bc 0e 83 11 3e a8 8e 6c 3d 15 c5 cb 3d
       -0.021577606 0.1421015 0.057753235 0.099497
000310 fb 52 81 bd 66 fc 50 3d cf 13 d9 3d 1e ed 88 bd
       -0.063146554 0.051021956 0.10599481 -0.066858515
000320 8d f6 8c 3c 3e 62 25 bd 53 50 de 3d f6 b0 9d bd
       0.017207408 -0.040376894 0.108551644 -0.07699768
000330 cf 73 9b bd cd 6c 85 3d ba 22 a4 bc 33 5d 3e 3d
       -0.07590448 0.06514893 -0.02003609 0.0464756
000340 97 a7 31 3d de 00 27 3c 14 78 7f 3d 3f 74 b5 bb
       0.043372717 0.010193078 0.062370375 -0.0055375393
000350 ba 44 08 be 90 55 7e 3d 7f 08 90 3d b5 76 a6 bd
       -0.13307467 0.062093318 0.070328705 -0.0812811
000360 bf c1 24 bd 24 40 97 3d 2f bf c7 3d 1c 71 22 bd
       -0.040223833 0.07385281 0.09753262 -0.03965865
000370 40 8b 2b bd b3 eb ca 3c ce 90 0b 3e c4 c2 1e 3a
       -0.041880846 0.024770593 0.13629457 0.0006056244
000380 9f 63 1b 3e fa b1 33 be ef 1b fd bd 79 2d fa bd
       0.15174721 -0.17548361 -0.123588435 -0.122157045
000390 bb f5 0e be 78 17 de 3b e0 41 22 bd 37 a9 d6 3d
       -0.13960926 0.0067777 -0.039613605 0.10481494
0003a0 70 72 e2 3d 1f e0 3b 3e 7e 29 1c be 46 a4 da bd
       0.110569835 0.18347214 -0.15250203 -0.10675864
0003b0 07 a6 44 bd ba b0 39 3d 36 75 7f 3d 7c a2 17 3d
       -0.0480099 0.045334555 0.06236764 0.03702019
0003c0 e5 62 cb bd ea e3 f9 3d 06 91 a4 bd d4 43 05 3e
       -0.09930972 0.12201674 -0.080354735 0.13014156
0003d0 71 cf 0d 3d 22 ba 1c be 9b a7 4b bd 34 72 b9 3d
       0.03462166 -0.15305379 -0.049720388 0.09054986
0003e0 40 d3 6d bd 7a 12 d1 bd a1 17 42 3d 95 ca c2 3d
       -0.05806279 -0.10208602 0.047385816 0.09511296
0003f0 06 af ea bd c8 64 6e 3d 44 8c a4 bd 98 4c 1c 3d
       -0.11459164 0.05820158 -0.08034566 0.038158983

weights f4 [6, 1, 3, 1]
000000 a3 4e 85 3f 42 3d 83 3f c1 28 2e bd 62 1d 80 3f
       1.0414623 1.0253069 -0.042519335 1.0008967
000010 dc a2 82 3f 3d 00 a8 3c f7 b2 6a 3f 99 5e 73 3f
       1.0205951 0.020507926 0.9167933 0.9506622
000020 b8 51 25 3b 86 cc 80 3f 3f 1a 7e 3f 14 3e 0f bd
       0.002522571 1.0062416 0.992588 -0.03497131
000030 e6 b3 80 3f ed 67 87 3f fb fb d2 bc 1d 6e 82 3f
       1.0054901 1.0578591 -0.02575492 1.0189854
000040 b5 3e 7f 3f cd 1d 9a 3b
       0.9970506 0.0047032596

running_cov f4 [1, 6, 2, 2]
000000 3a 13 8b 3f a5 6b 4a be a5 6b 4a be e0 d4 8f 3f
       1.0865242 -0.19767626 -0.19767626 1.1236839
000010 36 ee 81 3f f2 ec c3 bc f2 ec c3 bc 3a c8 82 3f
       1.0150821 -0.023916695 -0.023916695 1.0217354
000020 f6 8a bd 3f fb ac 49 3c fb ac 49 3c f3 76 b2 3f
       1.4808033 0.012309308 0.012309308 1.394255
000030 06 d0 01 40 96 3e c5 bd 96 3e c5 bd 5a c3 f7 3f
       2.0283217 -0.09631078 -0.09631078 1.9356492
000040 10 7d 83 3f c8 dc 6b 3d c8 dc 6b 3d 3f a5 91 3f
       1.0272541 0.0575836 0.0575836 1.1378554
000050 c8 44 f8 3f a7 55 49 3d a7 55 49 3d 9e 18 f5 3f
       1.939599 0.04915395 0.04915395 1.9148138

weight f4 [6, 6, 5]
000000 ca 94 35 3c 07 55 a6 3d f8 2d be 3c 07 ce 16 bd
       0.011082837 0.081216864 0.023215279 -0.036817577
000010 25 cd 22 3d 46 a0 b4 3d 8a 79 43 bc 7a 2b 14 be
       0.039746422 0.08819632 -0.011930833 -0.1446971
000020 ca 57 da bd 48 7f 86 38 b5 af 1e 3e 97 3d 2d bd
       -0.10661276 6.413326e-05 0.15496714 -0.042295065
000030 2f d7 69 bd ac 70 64 3d de 82 67 bd 23 b9 83 3d
       -0.05708998 0.055771515 -0.05652129 0.064317964
000040 8a f2 f6 3c 8b b0 21 bd 34 ea 99 3d 63 01 c2 bd
       0.030144949 -0.039475005 0.07515374 -0.09472921
000050 a6 2b e3 bd 2c 83 93 bd 54 44 6e bd 9d 52 12 be
       -0.1109231 -0.072027534 -0.05817063 -0.14289327
000060 fb b8 2d be d4 ef 11 3d fa fe d6 3b 7b 7e 06 be
       -0.16965096 0.03562911 0.0065611573 -0.13134186
000070 f3 28 40 be 4c 82 2e 3d 51 ca 57 bd a2 b0 5f 3d
       -0.18765621 0.04260473 -0.05268318 0.05461181
000080 64 ac e1 3d 2a 95 c5 bd 6b 32 44 bd dd f5 2d 3e
       0.11019209 -0.096475914 -0.047899645 0.1698832
000090 6d 51 be 3d cf 74 22 bd 64 7a aa 3d 4b 1f 74 be
       0.092928745 -0.03966218 0.083241254 -0.23840062
0000a0 52 6b fd bd c5 51 7a be 20 9d 3a be 65 6c e6 bd
       -0.12373985 -0.24445255 -0.18224001 -0.11251143
0000b0 93 76 8c bc ba 37 f3 3d 79 ab 07 3e de 22 a9 bd
       -0.017146384 0.118758634 0.13249005 -0.082586035
0000c0 04 b4 fe 3d 93 a2 22 be 3f e5 e0 bc 57 f4 df bd
       0.12436679 -0.1588233 -0.027453063 -0.10935276
0000d0 52 ec 4f 3d bd e2 51 3d d6 8f db 3c a6 e0 1a 3e
       0.050762482 0.051241625 0.026801985 0.15124759
0000e0 64 4e a8 bd 39 6f c1 bd 8a 53 0d 3d 97 e0 c2 3d
       -0.08218077 -0.09445042 0.034503497 0.09515493
0000f0 dd 3e de bd 0e 97 21 3e 9b 87 08 be aa 88 9f bd
       -0.10851834 0.15780279 -0.1333298 -0.077897385
000100 48 f9 79 3d 3f f8 ab bd 33 12 34 3e 6f d7 49 3e
       0.06102875 -0.083969586 0.17585067 0.19711088
000110 fd d9 42 be 49 72 0e be 03 97 ef bd 73 7c 76 3d
       -0.19028468 -0.13910784 -0.11698725 0.060177278
000120 8b b5 8c bd fc 80 e9 3d e8 32 17 bd 19 45 0b be
       -0.06870564 0.11401555 -0.036913782 -0.13600577
000130 52 a3 ee 3d c8 f8 e4 bd 3b 48 02 3e 32 73 1f be
       0.11652245 -0.11180264 0.12722866 -0.15571287
000140 a8 c1 a1 3d bb aa fb bd 30 bf ea 3d 3c 4e 15 be
       0.07898265 -0.12288424 0.11462247 -0.14580625
000150 21 08 3f 3e 07 b5 36 3e 23 e4 75 bd 99 e7 3f 3e
       0.18655445 0.17842494 -0.06003202 0.18740691
000160 13 f7 0c be c1 ca 0a 3e 44 b1 ea bd ac 6c 04 be
       -0.13766126 0.13553907 -0.11459592 -0.1293208
000170 d0 de 3f bd b7 9b ae 3c 7f 23 14 3e e9 81 85 bd
       -0.04684335 0.021314485 0.14466666 -0.06518919
000180 7c 12 6a bd 75 98 00 be 04 ff 97 3d 5a f2 e5 3d
       -0.057146534 -0.12558158 0.07421687 0.112278655
000190 7b 48 cc bd de 15 f5 bd 92 23 00 3e 6e 2d 59 bd
       -0.09974762 -0.119670615 0.12513569 -0.05302184
0001a0 ba 58 34 3e 6f 28 5a 3d c2 b5 23 be b4 9c 9c bd
       0.17611971 0.053261217 -0.15987304 -0.07647076
0001b0 1e 82 0d 3e 3a 29 7f 3c df 25 73 3b 0d 1d c8 3a
       0.13819167 0.015573794 0.003710143 0.0015267447
0001c0 03 84 3a 3d 6c bc 9a bd 5d e6 5f bc 2a bf 09 3e
       0.045536052 -0.0755547 -0.013665763 0.1345183
0001d0 66 90 20 be 96 f9 52 3d 7f df 0f be 31 60 92 bd
       -0.15680084 0.051507555 -0.140501 -0.07147253
0001e0 74 79 9c bc d8 a9 41 3d d4 8e f1 bd 44 f3 e9 bd
       -0.019100882 0.047281116 -0.117948204 -0.11423352
0001f0 dc 7b 23 be 51 14 82 3d 38 db 4f 3e 9c cd cf 3d
       -0.15965217 0.06351531 0.20298469 0.10146639
000200 4f 82 00 be 23 c8 41 3e 12 9b 9f 3c d9 fc 02 bc
       -0.12549709 0.18924002 0.019483123 -0.007994854
000210 fa 52 5b 3d 99 c6 8c 3c 4b 95 da 3c be c5 d3 bd
       0.05354593 0.017184542 0.026682517 -0.10340451
000220 3f 17 a6 3d a3 d0 e3 3d c2 e0 80 3d 89 52 05 3e
       0.081099026 0.11123779 0.06292869 0.13019766
000230 81 60 dc 3d 33 df f6 bd 32 e2 88 bd 7f e5 0f 3d
       0.10760594 -0.120542906 -0.06683768 0.035130974
000240 46 fe 9a bd 61 ef 49 be ef 44 1a 3e aa 0c ba bd
       -0.0756803 -0.19720222 0.15065359 -0.09084447
000250 56 f7 f0 3d a9 7e e0 3d 6d fc 45 be 25 bc 0a 3e
       0.117659256 0.109616585 -0.19334574 0.13548334
000260 18 01 ed bd 3d 8e 3c 3e de 39 cf 3d 4c d8 29 3b
       -0.11572474 0.18413635 0.10118459 0.0025916276
000270 c7 46 2b bd 3f 40 38 3e d4 d0 11 3b 59 67 83 3e
       -0.041815545 0.17993258 0.0022249715 0.25664786
000280 0b 80 1c 3c 93 e2 1e bd 8c 70 29 be 32 5a 9b 3d
       0.009552012 -0.038790297 -0.1654684 0.07585563
000290 84 63 ef 3b 08 d8 07 bd a8 19 33 be 1f 75 f0 bd
       0.0073055644 -0.033165008 -0.17490256 -0.11741089
0002a0 53 62 4e be 0e f9 de bd 30 91 fa bd cb 57 d3 bd
       -0.20154695 -0.10887347 -0.122347236 -0.103194796
0002b0 bb f6 c8 3d 4b 39 03 3e 41 fc ca bd a8 45 27 3e
       0.09812685 0.12814824 -0.09911395 0.16335166
0002c0 8d 3c 39 be fb ea 12 3e 41 2c ec 3d 19 db c2 3d
       -0.18089505 0.1434745 0.11531878 0.09514446

weight f4 [6, 6, 5]
000000 82 0d 86 3d b6 25 6b bd d1 d6 ab 3d 2d d4 e3 bd
       0.06545545 -0.05740901 0.08390582 -0.11124454
000010 39 e2 04 3e b1 db 9d 3c 10 dd 93 bd 21 3d 9c bd
       0.12976922 0.019269796 -0.07219899 -0.07628847
000020 19 42 52 be d5 79 71 be 58 bb 09 bc ef 68 1c be
       -0.20533027 -0.23581631 -0.008406483 -0.15274404
000030 f1 35 6b bd 77 85 22 3d b8 2c a0 bc 70 3e 27 be
       -0.05742449 0.039678063 -0.019552574 -0.16332412
000040 0b 38 80 3d 6b 4b 49 3e 75 98 70 3c fb 19 fd bd
       0.06260689 0.19657676 0.014684786 -0.12358471
000050 12 14 a8 bd ab 26 91 3d 84 10 1f be 05 80 ef 3c
       -0.08206953 0.070874535 -0.15533644 0.02923585
000060 9f 6b e8 bc d7 0d ee 3d b3 f0 05 be 79 36 ac bd
       -0.02837163 0.116237335 -0.130801 -0.08408827
000070 51 95 17 3e 31 cf 95 bc 2d 2e 9c 3d 10 37 cb 3d
       0.14803053 -0.018287273 0.07625995 0.09922612
000080 74 49 08 be c5 f9 1e be 86 c1 b3 bd 8e 6a 31 3e
       -0.1330927 -0.15524967 -0.08777146 0.17325804
000090 82 2d 2f 3e db f1 df bc 97 1c fc bd b2 76 53 bd
       0.17107204 -0.027337005 -0.123101406 -0.05162687
0000a0 81 16 98 b9 82 d5 85 bd 26 a0 71 3d 93 49 51 bd
       -0.00029008466 -0.06534864 0.05899062 -0.051095556
0000b0 1f 86 fc 3a b8 12 df 3d ea cb 03 3e f6 c1 ff bd
       0.0019266045 0.10892242 0.12870756 -0.12488167
0000c0 58 84 09 3e d5 d5 01 3d d7 e2 24 3d bd f7 0e be
       0.13429391 0.031698067 0.040255394 -0.13961692
0000d0 fc d1 92 3d bd 6d 9a bd 93 71 16 3e a1 78 1e 3e
       0.071689576 -0.07540462 0.14691763 0.15475704
0000e0 ae e2 07 3e e3 a3 c1 3d a8 e8 6d 3d 6a 55 25 3e
       0.13270065 0.09455087 0.058083206 0.16145864
0000f0 5c 46 c0 bc 4a 9f de 3c 0f 1f cb 3d 90 d4 7a 3d
       -0.02347105 0.027175564 0.09918033 0.06123787
000100 65 ae 22 be dd 87 1c 3e 0d 6e 17 be 47 52 f0 bd
       -0.15886839 0.15286203 -0.14788075 -0.11734443
000110 5d f6 84 3d f9 eb 4c 3e e3 4e 20 3e 5a 0b 80 3c
       0.064923026 0.20011891 0.15655093 0.015630413
000120 f6 f9 74 3d 81 20 97 bd 5f fa 5e 3c 5f 77 d0 3d
       0.059808694 -0.073792465 0.013609498 0.10179018
000130 e2 07 fb 3c 01 21 16 be b2 db 57 bc 7e d1 07 3e
       0.030643407 -0.14661027 -0.013174938 0.13263509
000140 aa 89 3a 3e 98 31 74 3d a8 4c 19 3d ec 32 0a be
       0.18216577 0.05961761 0.03742662 -0.13495988
000150 14 42 45 3d 63 db e3 3d 4f 98 b8 bd a9 b2 7d bd
       0.04815872 0.11125829 -0.090134256 -0.06193796
000160 98 05 43 3e bf 4a 3c bd d6 86 45 bd f7 a4 b2 3d
       0.19045103 -0.04596972 -0.048224293 0.08722871
000170 6a bf 30 be ac ce 62 bd 1f 2b ad 3d 48 2a 03 3e
       -0.17260519 -0.05537288 0.0845549 0.12809098
000180 50 5d 13 3e ed 0a 44 bd 16 38 38 be 5e a6 19 3e
       0.14391065 -0.047861982 -0.17990145 0.1500487
000190 1e ca 7b bd 8a 2e af 3d 5f 3c c2 bb 52 ba 39 3e
       -0.06147205 0.085537985 -0.005927607 0.18137482
0001a0 c1 b7 ab 3d 11 c4 20 3d 18 35 e6 bd f1 ab 05 3e
       0.08384658 0.039249483 -0.112405956 0.13053872
0001b0 94 12 3a be 4c 6f 00 be 5c 4f a0 3c 63 59 ad bd
       -0.1817115 -0.12542456 0.019569091 -0.08464315
0001c0 1d 9a 1c 3d 8f a0 12 be 44 eb 55 3d 5a 42 54 3d
       0.03823291 -0.1431906 0.05222632 0.05182109
0001d0 db 38 2a be 21 62 fd 3d 2d 30 33 bc e1 58 2b be
       -0.16623251 0.12372232 -0.010936779 -0.16733123
0001e0 cc 49 a3 bd 3c 3f 9f bc 19 80 88 3d 65 9f 09 3e
       -0.0797306 -0.019439332 0.06665058 0.1343971
0001f0 35 f1 33 3e f8 a3 9d 3c 84 cc e0 3d f7 e9 df 3d
       0.17572482 0.019243225 0.10976508 0.10933297
000200 e1 03 01 3d d9 f6 56 3e 5f a5 45 3d ed 0d a5 3d
       0.03149784 0.20992602 0.048253413 0.08059297
000210 b2 53 3c be bf 7a cd bd 09 41 ba 3d d6 e0 4e be
       -0.18391302 -0.100331776 0.09094436 -0.20202956
000220 9c 53 22 bd de d9 ef bd 0f a1 1c be a5 31 8d bd
       -0.039630517 -0.11711477 -0.15295814 -0.068942346
000230 9b fd 77 3d 03 4b 20 3e e1 fb 22 be 63 4f 03 bc
       0.06054459 0.15653615 -0.15916397 -0.008014533
000240 61 b8 a4 3d f5 c2 1c bd 62 63 99 3d 6e c1 1c 3e
       0.0804298 -0.038271863 0.07489659 0.15308163
000250 93 34 30 3e 0b 9e 41 be ad 6c ff bd d5 d7 8d bd
       0.17207555 -0.18907945 -0.124719 -0.06925932
000260 95 9f 19 3d 57 00 82 3d ea c5 be 3d c4 f8 bc 3d
       0.037505705 0.06347721 0.09315093 0.09227136
000270 43 5f 7d 3c b8 9c 2c bc a0 d3 e8 3d ac e1 8e bd
       0.015464607 -0.010535412 0.11368489 -0.06976637
000280 df 9a f3 bd 54 94 cd 3b df 34 cd 3d 15 77 3e 3e
       -0.11894774 0.0062737856 0.1001985 0.18600114
000290 c4 b8 f2 bd 0d 43 7f bd 34 b0 20 3e a0 5b 0d be
       -0.118516475 -0.062319804 0.15692216 -0.13804483
0002a0 80 c3 12 3e 23 6f 6c 3d 97 6d 58 bd 35 0d 48 3c
       0.1433239 0.057723176 -0.052838888 0.01221018
0002b0 fa 9a 24 3e 0e cd 09 3e 2b 72 0e bd c5 f2 43 be
       0.16074744 0.13457128 -0.034776848 -0.19135578
0002c0 74 e3 ad bc 8a b0 8f ba de d4 8d bd 61 1b 35 3e
       -0.021226622 -0.0010962647 -0.06925367 0.17686225

weights f4 [6, 1, 3, 1]
000000 fd e7 75 3f f2 1d 81 3f 12 76 11 bd 00 40 85 3f
       0.9605711 1.0087264 -0.03551299 1.0410156
000010 2e a1 84 3f 3c b1 c7 3c ad e9 7f 3f bc a5 80 3f
       1.0361688 0.024376504 0.99965936 1.0050578
000020 11 fe 5d 3c eb 23 78 3f 26 b6 85 3f d3 ea 13 3d
       0.013549344 0.96929806 1.0446212 0.036112618
000030 eb 6c 78 3f 16 cb 83 3f 94 59 7a bd d1 56 79 3f
       0.97041196 1.0296352 -0.061120585 0.97398096
000040 0b 13 7b 3f c2 fc d5 bc
       0.9807593 -0.0261215

running_cov f4 [1, 6, 2, 2]
000000 ce 19 bb 3f e9 e3 56 bd e9 e3 56 bd 68 23 d4 3f
       1.461725 -0.052463446 -0.052463446 1.6573305
000010 86 1f 7d 3f 7b 02 c4 3d 7b 02 c4 3d be ed a0 3f
       0.98876226 0.095707856 0.095707856 1.2572553
000020 74 1c c4 3f 36 48 6a 3e 36 48 6a 3e ca 1a d3 3f
       1.5321183 0.22879109 0.22879109 1.649255
000030 42 71 14 40 73 47 84 3e 73 47 84 3e f2 ed 0c 40
       2.3194127 0.2583576 0.2583576 2.202023
000040 e7 7d ee 3f 6f 73 74 3d 6f 73 74 3d ea 7f e2 3f
       1.8632172 0.0596804 0.0596804 1.7695286
000050 0b 07 e9 3f 10 98 91 3e 10 98 91 3e 3a b2 ea 3f
       1.8205274 0.28436327 0.28436327 1.833564

weight f4 [6, 6, 3]
000000 bd d4 c1 3d 82 c7 3f be 33 02 60 be b3 e9 59 3e
       0.09464405 -0.1872845 -0.21875839 0.21280555
000010 5f a8 e6 3d da 87 b0 bd 44 d7 12 bd b4 05 f2 bc
       0.11262583 -0.08619662 -0.035849825 -0.029543735
000020 1f 32 3d be c7 99 b1 bb 8f 93 a8 bd a5 ef 93 3d
       -0.18476151 -0.005419943 -0.082312696 0.07223443
000030 8c b4 03 be 9b c0 22 3d 9c 64 5a bd a0 67 00 be
       -0.12861842 0.039734464 -0.053318605 -0.1253953
000040 03 a1 d1 3c 5c e6 38 3e 4a e6 47 be 1b 7a 8c bd
       0.025589472 0.18056625 -0.19521442 -0.06859227
000050 5e ae 28 3e 46 d6 0c 3e 9d cf 60 be 5d 9a 65 3d
       0.16472766 0.13753614 -0.21954198 0.056055415
000060 73 fb 59 3b f5 95 ae bd 51 ab a7 3c ed 1f 79 bd
       0.0033261448 -0.08524696 0.020467432 -0.060821462
000070 23 0a 9d bd f4 a4 01 bd 78 b3 ba 3d cb 96 cf bd
       -0.07667949 -0.031651452 0.09116262 -0.10136183
000080 93 ea 1b be 8e 92 37 bd 44 31 08 be 71 11 b1 3c
       -0.15226202 -0.0448175 -0.13300043 0.021614762
000090 70 c3 97 3d 88 29 23 3e d4 25 5e bd 33 57 0c 3e
       0.074103236 0.15933812 -0.054235294 0.13705139
0000a0 e6 df 50 be eb 3d 66 bd a3 b1 6a be 9a bb 42 bd
       -0.2039791 -0.056211393 -0.22919326 -0.047542192
0000b0 0d 2a 71 be ba f3 76 3e 7c 51 cf 3d cf f2 20 3e
       -0.23551197 0.24116412 0.10122964 0.15717624
0000c0 fb 94 1c 3e 24 9e ec 3c 6c bb d9 3d 76 7e 89 3d
       0.15291207 0.028884001 0.10631451 0.06713574
0000d0 aa d2 bc 3d ec 21 ed 3d 89 9a 21 3e e0 68 73 be
       0.092198685 0.11578736 0.15781607 -0.23770475
0000e0 62 09 a1 bd e1 65 0c be 82 ff 79 be f9 6d 9f 3c
       -0.07863118 -0.13710739 -0.24413875 0.019461619
0000f0 4e 63 fa bd 81 9c fd bd 6b 70 bf bc 83 ed e9 3d
       -0.12225972 -0.123833664 -0.023369035 0.11422255
000100 e3 27 1f bd a8 e6 21 be 10 0a f4 bd c6 11 72 be
       -0.0388564 -0.15810645 -0.11915982 -0.23639593
000110 61 6d 47 3d 48 69 52 3e fa dd 37 be 7c 6b 43 3d
       0.048688296 0.20547974 -0.17955771 0.047709927
000120 62 31 b9 bd 87 9a c0 3d 57 07 9b bd cb 12 26 be
       -0.09042622 0.09404474 -0.07569759 -0.16218106
000130 a5 91 05 bb f9 d1 50 3e 11 bf ad 3d 9b 9c 1c 3e
       -0.0020381 0.20392598 0.08483709 0.15294115
000140 8f bd 8a be 6d 60 64 be f9 5a c8 bd 28 74 15 be
       -0.27097747 -0.22302409 -0.09782977 -0.14595091
000150 7f c5 6d be ed d7 f5 bc 28 7c 2f be 3d 06 cf bd
       -0.2321987 -0.030010188 -0.17137206 -0.10108612
000160 37 eb 76 be c6 92 4c 3e 8a 25 01 3d 5e af 40 3e
       -0.24113165 0.19977865 0.03152994 0.18816897
000170 4e b9 76 3e d1 b8 65 bd 14 ed 8b bd 5a 5e ee 3d
       0.24094126 -0.056084458 -0.068323284 0.1163909
000180 96 6b 55 be da 91 39 3d 05 63 50 bd fb 17 84 bc
       -0.20841822 0.04530511 -0.050875682 -0.016124716
000190 46 2a 71 be 67 8b 30 3d a0 4b 3e 3e dc 1e 91 bd
       -0.23551282 0.043101694 0.18583536 -0.07085964
0001a0 80 df 44 be 77 b6 bd bd 67 5a 4b bb 13 3b 03 be
       -0.19225883 -0.09263318 -0.0031029226 -0.12815504

weight f4 [6, 6, 3]
000000 da 15 da bd f4 2d 41 be 9a e1 1c 3e 37 99 8d 3d
       -0.10648699 -0.18865186 0.15320435 0.06913989
000010 4e e7 8c 3e 64 91 44 bd 8d 6d 37 3e e4 5b 51 be
       0.2752022 -0.047990218 0.17912884 -0.2044521
000020 9e 06 4b 3e cd 0f 32 3e d1 1c 03 3e 05 22 5a 3d
       0.19826743 0.1738884 0.12803961 0.0532551
000030 a2 25 80 bc 97 70 80 be 1b a0 a5 3d 26 05 54 3e
       -0.015642945 -0.250859 0.08087178 0.20705089
000040 ba 89 5f 3c 5d c0 24 3e aa 96 4b 3e 44 cb 0c be
       0.013643676 0.16089006 0.19881693 -0.13749415
000050 f7 c9 8c 3d 01 c1 1a 3e ee f4 0e 3e f8 38 4e 3e
       0.06874459 0.15112688 0.13960621 0.2013892
000060 a1 00 66 3e e4 b2 70 be 10 a0 66 3d 7b 5f 4a 3e
       0.22461177 -0.23505741 0.05630499 0.19762985
000070 ee 41 98 bb 87 0e a1 3d b2 3f 20 3d 44 8c f7 bd
       -0.0046465313 0.07864099 0.039123245 -0.120873004
000080 4a b0 fc 3d 8c 40 6b 3c d0 07 e8 3d 5e 8d f9 bd
       0.12338312 0.014358651 0.11329615 -0.12185167
000090 61 ff 00 bc 1a dc 10 3e 6b 31 17 3e 4d 30 0e be
       -0.007873387 0.14146462 0.14764945 -0.13885613
0000a0 24 17 cd 3d de 1b 64 3e 1f 12 38 bb c8 db 20 be
       0.10014179 0.22276255 -0.0028086973 -0.1570884
0000b0 7a d1 a5 bd 69 2f c5 3d c9 95 8b 3d 44 a0 39 3e
       -0.08096595 0.096281834 0.068156786 0.18127543
0000c0 96 4a 31 3e 9e e6 b4 bd de 31 aa 3d 08 e8 07 bd
       0.17313609 -0.08833049 0.08310293 -0.033180267
0000d0 4f ea 95 3b 5d 49 86 3d 08 f8 c6 bc 34 f4 b2 3b
       0.004575051 0.06556962 -0.024288192 0.00546124
0000e0 e5 28 15 3c 09 ac 2c be 99 01 0a be 48 4c 60 be
       0.009103988 -0.16862501 -0.13477172 -0.21904099
0000f0 77 63 b4 3c 2e 57 69 3d 10 a3 a9 bd 64 0d 98 bd
       0.022020085 0.056967907 -0.08283055 -0.07424429
000100 db f2 82 bd 65 9d ca bd ad 67 a7 bd 6e 6d 0c be
       -0.06393977 -0.09893302 -0.081740715 -0.13713619
000110 08 c8 01 3e 5f 25 15 bb cb 6a 71 3d 7d 0b 63 3e
       0.12673962 -0.002275787 0.058939736 0.22172351
000120 79 51 3f be 07 99 34 3d bb d3 df bd ff ac 9e bd
       -0.18683423 0.04409125 -0.10929056 -0.0774784
000130 53 5e 18 be 30 04 cf 3d 2d 93 8b bd 7c fd 9d 3d
       -0.14879732 0.101082206 -0.06815181 0.07714364
000140 c8 8a 0f be 7c ae 07 be 04 86 6b be fb 31 bb 3b
       -0.14017785 -0.13250154 -0.23000342 0.0057127452
000150 c2 10 30 bc bb 57 45 3e 78 f9 ed bd 0f d6 68 3e
       -0.010746183 0.19271748 -0.11619848 0.22737907
000160 0c 01 63 be 48 0f 0a bd a5 97 8f bc 4d 81 15 bd
       -0.22168368 -0.03370598 -0.017528364 -0.036500264
000170 89 b7 9f bd 9c d2 73 3e 7e 35 86 3e 68 8f 78 3d
       -0.077986784 0.2381081 0.26212686 0.060683638
000180 99 b6 93 3c bc 2f 91 3d 13 a5 76 3c e5 58 84 3e
       0.018031405 0.07089183 0.015054005 0.2584907
000190 0f fa 2c 3e 3f b1 7d bd 26 9b 3a be 41 61 a5 3c
       0.16892265 -0.061936613 -0.18223247 0.020187976
0001a0 f0 da 8c bd 03 df 51 ba 7a f1 35 3e 7a 1a 68 3e
       -0.068776965 -0.00080059486 0.17767897 0.2266635

weights f4 [6, 1, 3, 1]
000000 52 72 73 3f 1c 79 70 3f c9 6f 81 3c 24 7d 8e 3f
       0.95096314 0.939348 0.015800374 1.113194
000010 e5 18 78 3f 4c 2b 19 bd 27 20 87 3f 32 59 7b 3f
       0.96912986 -0.037394807 1.0556687 0.98182976
000020 aa a9 d4 3c 79 3a 82 3f 34 2f 76 3f 8f 08 fe bc
       0.025959808 1.0174094 0.96165776 -0.03100994
000030 f0 f4 76 3f 83 ac 6f 3f cd ca 81 3d 92 86 82 3f
       0.96467495 0.93622607 0.06337509 1.0197318
000040 a2 65 80 3f 9b c7 73 3c
       1.0031016 0.014879133

running_cov f4 [1, 6, 2, 2]
000000 52 41 ae 3f e1 fb da 3d e1 fb da 3d a4 56 cd 3f
       1.3613684 0.10692573 0.10692573 1.6042066
000010 68 b3 fc 3f 3d a8 78 be 3d a8 78 be f4 90 f8 3f
       1.974225 -0.24282928 -0.24282928 1.9419236
000020 f4 39 d2 3f 2a 2f d9 bc 2a 2f d9 bc aa b6 a9 3f
       1.6423936 -0.026511747 -0.026511747 1.325887
000030 c2 08 e1 3f ba 2e 20 3e ba 2e 20 3e 18 23 e6 3f
       1.7580798 0.15642825 0.15642825 1.797946
000040 86 b8 f3 3f a3 00 0d 3e a3 00 0d 3e ec 2e e3 3f
       1.9040687 0.13769774 0.13769774 1.7748694
000050 66 eb a6 3f 3e cf a9 bd 3e cf a9 bd d2 65 c0 3f
       1.3040588 -0.082914814 -0.082914814 1.5031073

weight f4 [1, 6, 1]
000000 36 c5 c2 be 54 28 e3 3d 20 ae 88 3e 74 88 a7 3e
       -0.38041085 0.11091676 0.26695347 0.32721293
000010 e5 76 90 3e 13 e9 9b be
       0.2821571 -0.3045126

weight f4 [1, 6, 1]
000000 af c9 ed bc a7 7f c2 be 71 38 bd be 43 61 a6 3e
       -0.029026834 -0.37988016 -0.36957124 0.3249608
000010 08 8b a0 be 97 67 2d bd
       -0.31356072 -0.04233512

weights f4 [1, 1, 3, 1]
000000 82 24 7c 3f 82 9d 94 3f e0 97 d9 3c
       0.98493207 1.1610568 0.026561677

running_cov f4 [1, 1, 2, 2]
000000 a5 47 5b 3f 49 66 8c 3d 49 66 8c 3d ae 11 77 3f
       0.85656196 0.06855447 0.06855447 0.9651135

weight f4 [6, 6, 7]
000000 fa 45 3c bd b3 e6 bf bd bf 45 84 bd c2 c4 75 bd
       -0.045965172 -0.09370174 -0.064586155 -0.060002096
000010 bc 59 d8 bc ce 3a 53 be f6 f9 02 be d6 d1 12 3e
       -0.026409976 -0.20627901 -0.12790665 0.14337859
000020 7e c0 18 3e 78 af 83 3d ad 49 a6 bd a4 32 4a bd
       0.1491718 0.064299524 -0.08119521 -0.0493647
000030 df 6a ab 3d ea f0 9e 3d 50 7d b0 3d dc 1a 35 3d
       0.083699934 0.077607945 0.086176515 0.04421507
000040 54 86 41 bd 2e 60 24 3e f6 77 8b bd 07 21 00 be
       -0.047247246 0.16052315 -0.0680999 -0.12512599
000050 0d 37 08 3c 6a 4a 20 be 5a cc fc bd a6 c7 af bd
       0.008313906 -0.15653387 -0.123436645 -0.08583002
000060 42 8a fc bd bc 3a 9a 3d d1 ad 6e 3d 6b 92 57 bd
       -0.12331058 0.07530734 0.058271233 -0.05262987
000070 2e 67 24 3e 88 d6 a0 bc 3f d8 1f 3d 35 bc 91 bd
       0.16054985 -0.019633546 0.039024588 -0.07115976
000080 55 b7 0a be f4 82 8a 3b 4f f4 c7 bd 40 e8 78 bc
       -0.13546498 0.0042270366 -0.09763395 -0.015192091
000090 bb d1 73 3b ca 83 42 3e a3 61 11 3c f6 83 c9 bd
       0.0037203867 0.18995586 0.008873376 -0.09839623
0000a0 f0 aa af bd 1b 0d 08 be 6d f6 b1 3d ff 92 c4 3d
       -0.085775256 -0.1328625 0.0868958 0.0959835
0000b0 c7 05 37 3e 2f ec d6 bc 42 02 29 bd c6 ed 8f bc
       0.17873298 -0.026235668 -0.04126192 -0.017569434
0000c0 f3 f5 71 3c 2d 1c b4 bd a8 04 44 be 3d 23 dd bd
       0.0147681115 -0.087944366 -0.19142401 -0.10797737
0000d0 1d 37 b5 bd e3 94 33 3e a0 03 b7 bc af 34 09 be
       -0.08848403 0.17537265 -0.022340596 -0.13399003
0000e0 3a 17 44 bd 91 62 ff 3d 05 d5 21 be b4 8e 84 bd
       -0.047873713 0.12469972 -0.15803917 -0.06472531
0000f0 ba 7a 9c bd a9 e7 c7 3c d8 17 47 3e 43 16 0a be
       -0.07640596 0.024402456 0.1944269 -0.13485055
000100 35 fd 50 3c ad 19 80 3d 1b 63 d5 ba cc 43 33 3d
       0.012755682 0.06254897 -0.0016280146 0.043765828
000110 89 0c e2 3c 66 17 b2 bc e4 63 bf b9 6e a6 24 3e
       0.027593868 -0.021739673 -0.00036504783 0.16079113
000120 89 56 0a 3c 31 b5 22 3c 76 0b 20 be a5 2c 40 3d
       0.008443483 0.009930895 -0.15629372 0.046917576
000130 94 4c 3c 3d cd 8f 6b bd 37 4b db bc b8 c8 02 3e
       0.045971468 -0.057510186 -0.026769264 0.1277188
000140 b9 d2 c2 3d 30 b5 c4 3d a5 95 b6 bd 29 41 1d 3d
       0.095128484 0.09604871 -0.08915261 0.03839222
000150 49 d6 94 bd b0 f7 98 3c 0c cb 6a bd 6d 71 5f 3d
       -0.07267434 0.018672794 -0.057322547 0.05455153
000160 6d f3 ea bd eb 53 08 bc e7 46 18 3e 02 50 af 3d
       -0.11472211 -0.008320789 0.14870797 0.08560182
000170 da fe 77 bc 93 fc 1c 3d 0d 09 cf 3d 0e bd e0 bc
       -0.015136445 0.03832681 0.10109148 -0.027433898
000180 d1 2e c9 3d b6 77 07 bb df 87 3f be 2d 85 ca 3d
       0.09823383 -0.0020670719 -0.18704174 0.098886825
000190 ca 71 e6 3d bb ad 9a 3d ad 4e d0 3c 61 51 a3 3d
       0.11252172 0.07552668 0.02542814 0.07974506
0001a0 0b 2a 75 bd 7d 87 ab bb 89 d9 84 bc 05 d2 6b 3d
       -0.05985455 -0.0052346573 -0.01621701 0.057573337
0001b0 6c 27 46 be 30 7e 9e 3c 50 04 58 bd cf 20 e2 3c
       -0.19350976 0.01934728 -0.052738488 0.027603535
0001c0 12 2b fb bd 66 0d 32 bb 56 f4 a0 bc 55 84 d0 bd
       -0.122640744 -0.002716863 -0.019647758 -0.1018149
0001d0 50 cd 07 be 8b c2 94 3d 94 5f 86 bd 35 90 97 bc
       -0.13261914 0.072636686 -0.06561199 -0.01850138
0001e0 5b 34 28 bd 1f 3e 57 3d 81 92 8d 3c ee 25 30 be
       -0.041065555 0.052549478 0.017281773 -0.17201969
0001f0 4a 1a f1 3c 54 7f eb bd a1 ad 04 bc 1d 2e 53 3c
       0.02943148 -0.11498895 -0.008098037 0.012889412
000200 62 d3 d7 3d 0b 0b b3 3c 83 00 f6 3d e8 8a 4a 3e
       0.10538365 0.021855852 0.12011816 0.19779551
000210 9c 8f bf 3d b7 e8 20 be 1d 2d eb 3d 7d d0 1b 3d
       0.09353563 -0.15713774 0.11483214 0.038040627
000220 3d 8d 8f bd 6e 35 ef bd aa af 51 bd 9f ae 03 be
       -0.07009361 -0.11680113 -0.051192917 -0.12859581
000230 4a c7 40 bd 3c 02 22 bd cf c2 09 be e6 24 1e bd
       -0.047065057 -0.039552912 -0.1345322 -0.038609408
000240 45 78 8d bc 0f d1 0b 3d 63 ff 7d be 0f 73 d8 b9
       -0.017269263 0.03413492 -0.24804454 -0.00041284456
000250 52 9f b0 3d a8 a9 87 bd 6e e8 bc bd 0e cf a8 bd
       0.08624138 -0.06624156 -0.0922402 -0.082426175
000260 62 ca e8 bd 98 b0 d5 bd 61 d5 53 bd 18 00 89 3d
       -0.113667265 -0.10434073 -0.051717166 0.06689471
000270 70 cf b5 3d 9d 34 4f bd 01 9f 9a bc 66 3e aa 3c
       0.08877456 -0.050587285 -0.018874647 0.020781707
000280 ea b9 18 bc 29 98 28 3e b1 7f 37 bd 1a bd d9 3d
       -0.009321669 0.16464294 -0.04479951 0.106317714
000290 19 a4 ca 3d 95 1d b5 3c 49 a3 91 3d d7 da 4a 3d
       0.098945804 0.022108832 0.07111222 0.04952511
0002a0 96 2e c1 3d fa 24 1a be 2a fa a5 bc 32 ae b6 3d
       0.09432714 -0.15053168 -0.02026089 0.08919944
0002b0 be 44 c5 bd a7 9c c6 3d 5e e6 27 be 04 a9 f4 3d
       -0.09632252 0.09697848 -0.16396472 0.119463
0002c0 5e 65 e7 bc d3 88 fc bc e6 6c 06 be 65 22 33 3e
       -0.028246578 -0.030826962 -0.13127479 0.17493589
0002d0 7e d0 ee bd 20 52 26 3e e3 19 85 bd f1 9d 2c 3d
       -0.116608605 0.16242266 -0.06499078 0.042142812
0002e0 3d f9 a5 bd 23 91 23 be 60 cb c7 bd db 31 d3 3d
       -0.08104179 -0.15973334 -0.097555876 0.103122436
0002f0 da 7d da bd cf 13 c2 3d 17 92 ab bd 4f e5 b2 bd
       -0.106685355 0.094764344 -0.08377474 -0.087351434
000300 cf 9d ad bd c1 84 c3 bd 77 50 e9 bd 1b 07 e7 bd
       -0.08477365 -0.09546805 -0.113923006 -0.11280652
000310 c9 e2 d6 3d b1 28 e8 3d 7b 06 07 be 43 c4 12 3e
       0.104924746 0.11335886 -0.13186066 0.1433268
000320 b8 fe f3 bd 37 8a 1f bd 5e b6 b5 bd b2 a0 09 3e
       -0.11913818 -0.03895017 -0.088726744 0.13440207
000330 1e f1 5c 3e 90 e8 51 3d a3 e9 a4 3d 17 c6 1c 3e
       0.21576354 0.05124718 0.08052375 0.1530994
000340 36 62 9f 3d 9b df b7 bd 57 61 98 bb 78 85 b7 3d
       0.07782404 -0.08978196 -0.0046502757 0.08961004
000350 f4 eb 51 bb 41 c1 75 bd 9a 19 06 be 32 d6 08 3e
       -0.0032031508 -0.059998754 -0.13095704 0.13362959
000360 2f 56 03 3e 67 9d 2c bd 53 c1 45 be aa 43 2b be
       0.12825845 -0.042142298 -0.19312029 -0.1672503
000370 a4 05 79 3d b5 0f 3b bc 37 cd bf 3c 12 8f 98 3d
       0.060796395 -0.011417319 0.023413284 0.074491635
000380 6d d1 1d be db 07 5b bd 7c 6b 9f 3c 6e 67 3c 3d
       -0.15411921 -0.05347429 0.019460432 0.045997076
000390 e4 b3 84 bd 6a 02 35 be a9 67 b6 3d b9 52 5b bd
       -0.06479624 -0.17676702 0.0890649 -0.053545687
0003a0 72 89 05 be 9c 37 fd 3d 02 8e ba 3d 01 0d 21 3d
       -0.13040712 0.12364122 0.09109117 0.039319042
0003b0 72 64 bc 3b 24 1a ec bd e4 3b a4 bd 66 27 4c 3d
       0.0057492787 -0.115284234 -0.08019236 0.04984226
0003c0 e4 a9 a6 bd 74 80 89 3c 78 aa 10 be e7 97 c2 3d
       -0.08137873 0.016784884 -0.14127529 0.09501629
0003d0 fe 45 d4 3b 17 6d 96 3d 48 de 22 3e 83 33 24 3d
       0.0064780703 0.07345026 0.15905106 0.040088188
0003e0 e3 e4 67 bc 68 b1 ea 3c 0b 04 24 3d eb fc 3b bc
       -0.014153692 0.028649047 0.04004292 -0.011473875
