Homography_Trained_Model/E2EMP_UL1_40.pth (torch, 885260 bytes, 291 tensors)

weight f4 [1, 1, 1, 7]
000000 7f 2a 63 3e 86 a7 11 3d 32 2d e1 be 7e 53 06 3e
       0.2218418 0.035560153 -0.43979794 0.13117787
000010 68 a7 87 be 25 28 bd be 41 c7 80 be
       -0.26494908 -0.3694469 -0.2515202

weight f4 [1, 1, 1, 7]
000000 76 c5 86 3d 9a b5 74 be d0 10 93 be ca 0d 88 be
       0.065806314 -0.238974 -0.28723764 -0.2657302
000010 d3 a8 97 3e 50 9c 7e be ee 97 6b 3e
       0.2962099 -0.24864316 0.23007175

weight f4 [1, 3]
000000 88 bb ac 3f 81 11 af 3f c3 89 c6 ba
       1.349473 1.3677217 -0.0015147257

bias f4 [1, 2]
000000 ab 0e 66 3e 42 58 43 3e
       0.22466533 0.19076636

running_covar f4 [1, 3]
000000 2c a7 33 3c c6 75 ea 3b 66 60 7a 3b
       0.01096515 0.007155153 0.003820443

weight f4 [1, 1, 5, 1]
000000 43 f0 83 3e 00 78 e7 bd b9 9b 2c bd 5c 96 d1 3e
       0.25769243 -0.11302185 -0.042140696 0.40935028
000010 f4 ed b3 be
       -0.3514248

weight f4 [1, 1, 5, 1]
000000 b4 44 d2 be 9f 0f 23 be 4b ca ba 3e 9a 2d 37 3d
       -0.4106804 -0.15923928 0.36482462 0.044721223
000010 7f e0 75 3e
       0.2401142

weight f4 [1, 3]
000000 0c ca b5 3f b6 e2 aa 3f 63 af 03 be
       1.4202285 1.3350437 -0.12859873

bias f4 [1, 2]
000000 a7 15 c1 3d 59 f4 0b 3e
       0.09427958 0.1366743

running_covar f4 [1, 3]
000000 18 0a 43 3e 81 c6 7d 3e 73 4c 06 3c
       0.19046819 0.24782754 0.008196938

weight f4 [1, 1, 5, 1]
000000 0d fb 9c 3d 4f 71 5f be 40 41 08 bf 32 12 da be
       0.07665072 -0.21820568 -0.53224564 -0.42592007
000010 b6 87 19 be
       -0.14993176

weight f4 [1, 1, 5, 1]
000000 6f 80 49 3d bb b6 a6 3d 16 ac 0b be 18 86 60 be
       0.04919475 0.08140322 -0.13639864 -0.21926153
000010 11 41 e8 bd
       -0.113405354

weight f4 [1, 3]
000000 89 c5 b7 3f 81 2f a4 3f 30 7f 05 be
       1.4357158 1.2826997 -0.130368

bias f4 [1, 2]
000000 61 e2 10 3d 26 b0 a9 3d
       0.03537214 0.08285551

running_covar f4 [1, 3]
000000 60 4a 17 3b 44 07 05 3c d8 0b de 3a
       0.0023085102 0.008119408 0.0016940786

weight f4 [1, 1, 1, 7]
000000 6e 3b ef 3d d9 a7 95 be 0d 29 f8 3d 8f 2c de be
       0.11681257 -0.2922962 0.12117205 -0.4339337
000010 51 56 8b be 12 4f cb be 13 35 44 3e
       -0.27214292 -0.39708763 0.19160871

weight f4 [1, 1, 1, 7]
000000 1b f2 8f be 18 d5 10 be e5 f2 64 be 07 cd a5 be
       -0.281144 -0.14143789 -0.22358282 -0.32382986
000010 4a 03 96 be ce 67 ca 3e bc d8 aa be
       -0.29299384 0.39532322 -0.3336848

weight f4 [1, 3]
000000 cc 88 b2 3f 3f 94 c3 3f 36 95 bd bd
       1.3947997 1.5279616 -0.09256975

bias f4 [1, 2]
000000 f7 9e 2b bb a8 1e a9 3d
       -0.002618728 0.082578

running_covar f4 [1, 3]
000000 8d 8e 2d 40 9d 6a 55 40 50 b4 08 3b
       2.7118256 3.3346322 0.0020859428

weight f4 [1, 1, 3, 3]
000000 11 58 82 be be 38 94 be a8 01 32 be 52 cf 86 be
       -0.25457814 -0.2894954 -0.17383444 -0.26330048
000010 d3 28 a9 3e 2b eb a8 be f8 1a 3b be e8 15 3d be
       0.3303896 -0.3299192 -0.18272007 -0.18465388
000020 04 1a 84 be
       -0.25801098

weight f4 [1, 1, 3, 3]
000000 7b 77 10 bd 24 c3 2d bd e9 c0 81 be 4f 3e 4f be
       -0.035270195 -0.04242243 -0.2534249 -0.20238613
000010 0d 58 b4 3e d4 bf 44 3e 54 34 17 bd a9 ec a2 be
       0.35223427 0.19213802 -0.03691514 -0.31821182
000020 03 3a 8c bd
       -0.06847002

weight f4 [1, 3]
000000 47 63 b3 3f 71 fe a5 3f 42 d3 c1 bd
       1.4014672 1.2968274 -0.09464122

bias f4 [1, 2]
000000 a1 fb 90 3e 19 04 b7 bd
       0.28316978 -0.089363284

running_covar f4 [1, 3]
000000 07 bd 07 3c b0 04 dd 3c 5c fe 01 3c
       0.008284814 0.026979774 0.007934179

weight f4 [1, 1, 3, 3]
000000 4d b6 0a 3e 80 0e 0f 3d 22 70 4f bd ce 2b 5f bb
       0.13546105 0.034925938 -0.050644048 -0.003405321
000010 bb a3 a0 3d fe 69 7c bd 8e c2 65 be 99 b1 de 3d
       0.07843729 -0.06162452 -0.22437498 0.10873718
000020 06 26 f7 bd
       -0.12067799

weight f4 [1, 1, 3, 3]
000000 eb e6 8f be 6a e4 9d 3e 4f 05 9c 3d 58 3d 86 be
       -0.28105864 0.3083833 0.076182 -0.26218677
000010 f2 4d 2f be ab 43 6b be 56 29 28 be 73 0b f8 3d
       -0.17119578 -0.22975032 -0.16422018 0.12111559
000020 7e c8 b9 3e
       0.36285776

weight f4 [1, 3]
000000 e4 4a ab 3f f9 c6 bb 3f 04 87 5f 3d
       1.338223 1.4670097 0.05457212

bias f4 [1, 2]
000000 13 30 0e bd c0 2d 19 bc
       -0.034713816 -0.009349287

running_covar f4 [1, 3]
000000 42 99 0c 3f 06 8f 16 3f 70 ca c4 bc
       0.5492135 0.58811986 -0.024022311

weight f4 [1, 1, 1, 7]
000000 ef 50 05 3e e2 e3 61 be 5c 41 79 3e 1c 08 de 3d
       0.13019155 -0.22059587 0.24341339 0.108413905
000010 3b 0e fd bd 5c 78 95 3e 9b d2 26 be
       -0.1235623 0.2919339 -0.16291277

weight f4 [1, 1, 1, 7]
000000 db 19 9a be 74 50 73 3d ba 3c a3 bd 49 dc 22 be
       -0.3009785 0.059402898 -0.07970567 -0.15904345
000010 d5 6b b7 3e 83 d4 a7 3e 7a 5f 29 3d
       0.35824457 0.3277932 0.04135082

weight f4 [1, 3]
000000 26 a4 b2 3f 3b a2 b7 3f 68 09 4a 3d
       1.3956344 1.4346384 0.049325377

bias f4 [1, 2]
000000 5c 11 42 3d e2 f0 12 3a
       0.047379836 0.00056053523

running_covar f4 [1, 3]
000000 47 2e 87 3b e4 dd 77 3b 28 92 53 bb
       0.0041253897 0.0037821466 -0.003228316

weight f4 [1, 1, 5, 1]
000000 b7 51 c7 3e 70 9f 9b be 24 13 3b 3d a9 45 c6 be
       0.3892953 -0.3039508 0.04567255 -0.3872502
000010 a4 bb c8 be
       -0.39205658

weight f4 [1, 1, 5, 1]
000000 40 f3 86 3e 20 b2 23 3d 6a 4c 54 3e 47 ed c1 3c
       0.2635746 0.039964795 0.20732275 0.023672713
000010 35 a2 ed 3d
       0.11603204

weight f4 [1, 3]
000000 e3 65 b4 3f b3 9c af 3f 89 81 0e 3d
       1.4093593 1.3719696 0.034791503

bias f4 [1, 2]
000000 c1 b8 91 ba 0f 1b aa bd
       -0.0011117683 -0.08305942

running_covar f4 [1, 3]
000000 42 ec 4c 3f c6 ef 9a 3e 0d 6a 52 bd
       0.80048 0.30261058 -0.05137067

weight f4 [1, 1, 5, 1]
000000 f0 47 d3 3e 72 63 17 be 83 aa 36 3e 37 69 5f be
       0.4126582 -0.14784029 0.17838483 -0.2181748
000010 b1 e1 a4 3e
       0.3220344

weight f4 [1, 1, 5, 1]
000000 b0 01 13 3e ce 5b 80 be 14 c1 af be 08 7e 1b 3d
       0.14356112 -0.2507004 -0.34326994 0.03796199
000010 f1 9d 33 bc
       -0.010962949

weight f4 [1, 3]
000000 3a f0 b3 3f 28 bd b5 3f e4 16 fc ba
       1.4057686 1.4198351 -0.0019232896

bias f4 [1, 2]
000000 e5 b3 97 bd ee a6 26 bd
       -0.07407359 -0.04068654

running_covar f4 [1, 3]
000000 1b aa 16 3b 7d f8 50 3b 2d 69 11 3b
       0.0022989574 0.0031886392 0.0022187934

weight f4 [1, 1, 1, 7]
000000 2d 5a 66 be 76 96 a8 3e ea ef 85 be 00 88 76 3d
       -0.22495337 0.32927293 -0.26159602 0.060188293
000010 89 30 1f 3e 0f 1e b5 3c 0f 19 a0 3e
       0.15545858 0.02210906 0.31269118

weight f4 [1, 1, 1, 7]
000000 32 22 91 be 6d 88 9f bb e2 c6 30 3c 80 07 c4 be
       -0.283464 -0.004868558 0.010789605 -0.38286972
000010 4e 35 55 3e 1f ad 34 3e 1d ee a4 3e
       0.20821115 0.17644165 0.32212916

weight f4 [1, 3]
000000 79 c3 bd 3f 15 2d b1 3f b1 5a d1 3a
       1.4825279 1.3841883 0.0015972463

bias f4 [1, 2]
000000 68 05 01 bd 19 8a 2f bd
       -0.031499296 -0.04285631

running_covar f4 [1, 3]
000000 37 ec 69 3b ec 95 32 3c 1c 77 06 bb
       0.0035693774 0.010900002 -0.0020517772

weight f4 [1, 1, 3, 3]
000000 4e 7e 15 3e 4b 61 1f bd d4 81 4e 3e 9f 28 78 3e
       0.14598963 -0.038911145 0.20166713 0.24234246
000010 37 ed a7 be 42 ab aa 3e 9a ee c9 bd e0 71 9f 3b
       -0.32798168 0.33333784 -0.09859963 0.00486587
000020 f1 61 62 be
       -0.22107674

weight f4 [1, 1, 3, 3]
000000 f9 96 a2 3e 03 a9 17 3e 17 91 2b be b3 cb cc 3d
       0.31755808 0.14810567 -0.16754566 0.0999979
000010 a5 d5 0b 3d 2e 34 da bc 6b d3 b5 3d 86 75 4b be
       0.034139294 -0.02663621 0.088782154 -0.1986905
000020 b6 e2 c1 bd
       -0.0946707

weight f4 [1, 3]
000000 55 ad af 3f 37 d4 ba 3f b5 5a 17 3b
       1.3724772 1.4596013 0.0023094837

bias f4 [1, 2]
000000 51 48 2b bd 19 fb db 3c
       -0.041817013 0.026853131

running_covar f4 [1, 3]
000000 e8 65 d9 3a 3d 27 ee 3b 8a 54 be b8
       0.0016586157 0.007267861 -9.0756526e-05

weight f4 [1, 1, 3, 3]
000000 49 30 8f bb b4 36 c8 3d a1 26 7d be 4d 17 1b be
       -0.0043697697 0.09776059 -0.24721767 -0.15145607
000010 37 15 4f be 0e 32 d6 bc 8e a1 8d 3c 2e e3 7b be
       -0.20222937 -0.026146915 0.01728895 -0.24598381
000020 08 cc 0e 3e
       0.13945019

weight f4 [1, 1, 3, 3]
000000 29 72 0e bd 04 59 97 be c0 d6 06 3c 6a 96 18 3e
       -0.03477684 -0.295601 0.008229911 0.14901128
000010 5a 76 e0 bd 54 36 4e 3e 92 a5 6b bd bc 4a 9e 3e
       -0.10960074 0.20137912 -0.057530947 0.30916393
000020 8b 10 76 3e
       0.24029748

weight f4 [1, 3]
000000 c6 0a b6 3f 88 95 b0 3f 61 08 c7 bb
       1.4222038 1.3795633 -0.006073997

bias f4 [1, 2]
000000 93 71 45 3c cc c2 09 3d
       0.012051004 0.03363304

running_covar f4 [1, 3]
000000 3e f4 85 3e a9 db 6d 3d 22 51 c7 3c
       0.26162905 0.058070812 0.02433068

weight f4 [6, 6, 9]
000000 1c 56 aa 3d a0 d3 22 3e ed 75 f6 bb 60 70 9c bd
       0.08317205 0.15901041 -0.007521382 -0.07638621
000010 28 63 6c 3c 67 f6 0e bd b2 e7 56 3c e1 86 ab bd
       0.014427938 -0.034902956 0.013116764 -0.083753355
000020 c2 45 46 bd 65 32 f3 bc 2b 81 8d bd b5 23 9e 3d
       -0.04840637 -0.029687116 -0.069094025 0.07721654
000030 97 12 09 be 9b ef c4 bd e6 27 17 be 30 37 33 be
       -0.13385998 -0.096160136 -0.14761314 -0.17501521
000040 0f c1 01 3d 53 27 77 bd 9c dc a8 3d e3 d7 3f 3d
       0.031678256 -0.060340237 0.08245203 0.046836745
000050 ab dc 5b 3c 1b 20 e0 3d 6e bd f7 3c 55 1d ca bc
       0.013419311 0.10943624 0.030241694 -0.02467219
000060 3e 2b fc bd b4 1d 14 bd 7e da ea bc a3 d8 ed 3d
       -0.12312935 -0.03616114 -0.028668638 0.11613586
000070 61 41 ba bd 89 c0 c0 bd 80 21 ab bd 58 d4 d2 3d
       -0.09094501 -0.09411723 -0.08355999 0.102944076
000080 d0 c8 36 3d cb 5c 12 bd 46 38 54 bc cf 8b 33 be
       0.044625103 -0.035733026 -0.01295287 -0.17533801
000090 9d 24 d1 3d 35 61 2f 3d dd 8b 1e bd 6d 76 03 be
       0.102120616 0.042817313 -0.038707603 -0.12838145
0000a0 a2 a1 19 3d 62 3c 6e 3d 5f 9d 03 3e bb d3 f2 3d
       0.03750766 0.058163054 0.12853001 0.11856791
0000b0 bf 8f 98 3d 77 51 89 3d dd 3e 91 3d bb 89 b9 3d
       0.074492924 0.06704991 0.07092068 0.09059473
0000c0 39 88 34 bc 2c a8 82 3d 2d 7e 21 3e 2a 43 a1 3d
       -0.011018806 0.063797325 0.15770788 0.07874139
0000d0 72 ce a2 3d 34 6c ba bd ea 2c a1 bd 8f ea 52 bb
       0.079495326 -0.09102669 -0.07869895 -0.0032183265
0000e0 22 d5 29 be 2a 0d 05 bd 6d 20 60 bd 94 92 41 be
       -0.1658521 -0.032483257 -0.054718424 -0.18903571
0000f0 e5 12 97 bd 5c 7e d9 bc 4c 26 08 bd 08 60 f8 3d
       -0.07376651 -0.02654951 -0.033239648 0.121276915
000100 b8 f1 8c bd 17 47 07 3b 65 da d4 bb 74 d9 9c b9
       -0.06882042 0.0020641738 -0.006495761 -0.00029916654
000110 66 ba e4 3d 31 9f ca 3d 97 e6 7a bc 75 da 12 3d
       0.11168365 0.098936446 -0.015313766 0.035852868
000120 c7 9e ef bd 3c 5e 24 3d 1e c9 c2 3d 70 7d ea bc
       -0.11700206 0.04012893 0.09511016 -0.028624266
000130 a0 1c fc 3d be 41 03 bd df 2c 81 3d a0 9c e9 3d
       0.12310147 -0.03204512 0.063073866 0.11406827
000140 21 32 7e 3d 83 61 2b bd a5 32 dd 3c 9e 16 82 3c
       0.062059525 -0.04184104 0.027001688 0.015879925
000150 78 14 b8 3d b7 94 0d 3e 3c 50 8a 3d 80 23 db bd
       0.08988279 0.13826261 0.06753585 -0.107001305
000160 3a 8a 9d 3b 4e c7 cd 3d e9 13 ea 3c 12 5b 81 3b
       0.0048077377 0.1004778 0.028573947 0.003947624
000170 8c c5 bb bc f0 7e d0 bd 7e 12 80 3d 44 51 3b 3d
       -0.022921346 -0.101804614 0.06253527 0.045731798
000180 58 f0 59 bd 18 9b 97 3d c7 d5 2f 3d 2b 47 e0 3a
       -0.053207725 0.07402629 0.042928483 0.0017111053
000190 2a 7b b3 bb be 60 ca bd 71 3b dd bd 7c ec e8 bc
       -0.005477329 -0.09881733 -0.10802353 -0.028433077
0001a0 49 73 04 be b0 6b 48 bd e9 86 70 bd 68 0d 87 bd
       -0.12934603 -0.048930824 -0.05872241 -0.06594354
0001b0 da 05 2e 3d a2 40 db bd 21 bd 16 be 8f d9 23 bd
       0.04248605 -0.10705687 -0.14720584 -0.040002402
0001c0 92 50 1d be 7e 5e 93 bd e1 5d f8 3b ff 0c d1 bd
       -0.15362766 -0.07195757 0.0075795506 -0.10207557
0001d0 f3 16 2a be fc ee 33 be 5e fa 17 be 66 04 89 3d
       -0.16610317 -0.17571634 -0.14841601 0.06690292
0001e0 df f1 8a 3d ff 95 0b be 7b d4 55 3d 60 1e 1c 3c
       0.067844145 -0.13631438 0.05220459 0.009528726
0001f0 d0 e1 d3 bd 08 57 0c be 31 9a 54 3d ef 89 60 bd
       -0.10345805 -0.13705075 0.05190486 -0.054819044
000200 24 f3 1a 3e c5 89 29 3e db 96 7a bc ba 0e 2e 3e
       0.15131813 0.16556461 -0.015294756 0.16997805
000210 10 15 96 3d 83 29 26 bc 7e 6f a0 3b 6b ea 63 3d
       0.07328236 -0.010141733 0.0048961034 0.05564348
000220 86 97 16 bd a0 7b 36 3e ea c4 50 bd c1 b1 c7 3d
       -0.036765598 0.17820597 -0.050969042 0.09750701
000230 9a 0b 15 be 75 d1 a8 bc 1e b6 05 3e f3 be 13 be
       -0.14555207 -0.02060769 0.13057753 -0.1442831
000240 34 84 f8 3d 23 dd 90 bd c8 db 8c 3c ee 89 00 3e
       0.12134591 -0.070734285 0.017194644 0.12552616
000250 94 6e 1b bd 8d 95 75 bd f0 b4 94 3d 2c 82 e3 3d
       -0.037947252 -0.059957076 0.072610736 0.11108813
000260 19 bc bd bc 63 79 65 bd d2 e6 57 3d 44 ca 9a bd
       -0.023160981 -0.056023967 0.05271036 -0.0755811
000270 9b 7d 0e be 76 64 1e bd e3 e0 16 be ee 3f d7 3d
       -0.13915102 -0.038670026 -0.14734225 0.105102405
000280 c8 86 90 bc 64 54 bc 3d c3 69 e7 bd 45 db 17 3e
       -0.017642394 0.09195784 -0.11299469 0.14829738
000290 29 1b 13 3d 29 7d f7 3d cc 9d 29 3e 11 5d c1 bc
       0.035914574 0.12084419 0.16564101 -0.023603948
0002a0 65 31 ab bd bf 8a 41 3d 66 5d ab 3d 5f f5 dc 3c
       -0.08359031 0.04725146 0.08367424 0.02697247
0002b0 cd a3 38 3c 33 ea 33 3d 40 09 9a 39 48 e1 18 be
       0.011269522 0.04392452 0.0002938006 -0.14929688
0002c0 be 82 90 bd 39 21 de 3b db a7 a2 bd 7a f2 da 3d
       -0.07056187 0.006778863 -0.07942172 0.1069078
0002d0 f2 e2 90 3d 72 d5 07 bd ee fb a7 3d df 86 12 3c
       0.070745364 -0.03316254 0.08202349 0.008943289
0002e0 9a 23 ab 3c 94 2e f2 bd 52 d4 23 be 50 53 37 bd
       0.020891 -0.1182529 -0.15998963 -0.044757187
0002f0 03 1a 3a bd cf ce 15 3d 37 73 ef 3c 1a c4 c4 3d
       -0.045434963 0.03657418 0.029229743 0.09607716
000300 1f 7b 96 3d db 48 96 3d ac e2 d6 3d 24 75 50 bd
       0.07347702 0.07338115 0.10492453 -0.050892964
000310 a5 6f 93 3c b9 50 9c 3d 36 a5 43 bd e7 fc 86 bd
       0.017997572 0.07632584 -0.04776498 -0.06591206
000320 12 91 da bd 87 53 41 be 20 aa 57 bb 79 63 1b 3c
       -0.10672201 -0.1887952 -0.00329078 0.009484165
000330 71 3f 96 bc 39 b5 24 bd 30 94 32 3d 92 11 6c 3d
       -0.018340798 -0.04021189 0.043598354 0.057633944
000340 2d fe 8e bd 52 1f db bc 39 4f 91 3b 4d d3 0c 3d
       -0.06982074 -0.026748333 0.004434493 0.0343812
000350 b2 7c de bd ee 90 06 be 2e 3d 8b 3d 47 15 7e 3c
       -0.108636275 -0.13141224 0.067987785 0.015508003
000360 4f 3d 12 be be 2d 87 bc 91 0f 9f bd df 3c a2 bd
       -0.142812 -0.016501304 -0.07766641 -0.079217665
000370 fe e2 f2 bd 08 0b 31 be c8 df ce 3d 04 4b da bd
       -0.118597016 -0.17289364 0.10101277 -0.10658839
000380 f5 e2 46 bd 36 4c d1 bc b7 7b 9f bd e5 39 25 be
       -0.048556287 -0.025549036 -0.077872686 -0.16135366
000390 91 ce 85 3d 51 ef 1c be 5b ac 29 be 55 5f ef 3c
       0.0653354 -0.15325667 -0.16569655 0.029220263
0003a0 64 e9 88 bc d9 17 72 3d 9e 36 cc bd 33 45 e1 bd
       -0.016712852 0.059104774 -0.09971355 -0.10999527
0003b0 22 b7 f4 3d 3d e6 c7 3d 8c f8 17 3e e7 34 34 3e
       0.11948992 0.09760711 0.14840907 0.17598306
0003c0 85 c0 0d 3e 4a a2 e9 bc 40 a8 e7 3d 32 0e 93 bd
       0.13842972 -0.028519768 0.11311388 -0.07180442
0003d0 65 0b 4f 3d 98 44 75 3c c5 94 ec 3d 71 b6 22 3d
       0.050547976 0.014969967 0.11551813 0.03972477
0003e0 4e fa 6c 3c f4 20 88 bd a5 fb 15 bc 9c c4 45 3d
       0.014463974 -0.0664691 -0.009154235 0.048283204
0003f0 7f ea 69 3d f8 e3 c0 3d 6a 9d e8 bd fb 26 28 3d
       0.0571084 0.094184816 -0.11358149 0.0410528

weight f4 [6, 6, 9]
000000 40 1b b5 bc 61 de bb 3d e8 f6 e4 3d 29 ee 0b be
       -0.02210772 0.09173275 0.11179906 -0.1366507
000010 a4 ff 57 3c 63 7c 00 be a8 df c7 bd 5d 41 df bd
       0.013183508 -0.1254745 -0.09759456 -0.10901139
000020 73 3e 87 bd 26 08 05 3d 9f 33 8a 3d 8d a1 20 3e
       -0.06603708 0.032478474 0.06748127 0.15686627
000030 a5 9b 19 3e 0f aa 19 3e dd 81 0a 3e 3d 00 1b 3d
       0.1500078 0.15006278 0.13526101 0.037842024
000040 2d f2 a4 bd a6 30 b2 bc cf 80 a3 bd a7 40 5c 3d
       -0.08054004 -0.021751713 -0.07983553 0.053772595
000050 f8 eb 3f bd 00 27 af bd 7c a6 43 bd 1d 4f 8a 3d
       -0.046855897 -0.085523605 -0.047766194 0.06753371
000060 18 f2 14 be 3d b2 2c be d8 81 2c 3d 5a 00 d7 bd
       -0.14545476 -0.16864868 0.042116016 -0.10498114
000070 b5 75 bf 3d e9 b7 15 be 87 a2 17 be cf 57 28 3d
       0.09348623 -0.14620937 -0.14808093 0.041099366
000080 a6 fe d1 bd 2a da 77 3c fc 33 65 bd 2c 47 47 3d
       -0.102536485 0.015127698 -0.05595778 0.04865186
000090 01 51 ec bb c3 56 3a 3d 76 8c 5a bd 3a b7 be bd
       -0.007211805 0.0454929 -0.05335661 -0.093122914
0000a0 17 89 ff 3c c8 df a0 bd 24 44 5e bc f7 2f db 3d
       0.0311933 -0.07855183 -0.013566051 0.10702508
0000b0 37 d8 e2 bd b2 3c e8 bc 52 29 0e 3d 1f 72 26 bd
       -0.11076396 -0.028349254 0.034707375 -0.040636178
0000c0 e9 73 79 bd 0c 3c 0f bd 99 07 27 bd c6 37 07 be
       -0.060901556 -0.034969375 -0.04077873 -0.1320487
0000d0 47 74 53 bd 2a 90 06 be 0f 32 e8 bd 9c 33 a3 bd
       -0.051624563 -0.13140932 -0.11337673 -0.07968828
0000e0 e0 f3 d0 bd 07 53 3c bc 0b 78 cc 3d d8 94 6c 3c
       -0.102027655 -0.011494405 0.09983834 0.014439784
0000f0 39 1d 04 3e 65 7a 99 bd 2a 3d 08 3e d5 56 5e bd
       0.12901773 -0.07494048 0.13304582 -0.05428203
000100 17 08 44 3d a5 f4 05 bd db 3e e6 bd 8a e2 85 3c
       0.047859278 -0.032704014 -0.112424575 0.016343374
000110 84 1e f8 bd c2 ab 26 bd bf 6e 97 bd 59 2d a8 bd
       -0.121151954 -0.040691145 -0.0739417 -0.082117744
000120 82 c1 13 3e d6 da 1c be 27 9d b3 bd 20 5b 03 be
       0.14429286 -0.15317854 -0.08770209 -0.1282773
000130 ab f4 03 3d 5a 8a 5c be 6a 03 10 bd e0 ab 5e bd
       0.032215755 -0.21537152 -0.035159506 -0.05436313
000140 a6 ab 83 bd 23 eb 0f 3e 4d d2 be 3d 8b b8 96 3d
       -0.06429224 0.14054541 0.093174554 0.073594175
000150 49 0b d5 bd ca fe 71 3d 1a bf bc bd db 73 02 be
       -0.10402543 0.059080876 -0.09216137 -0.12739508
000160 f1 43 08 be 89 12 a5 bd a6 47 c0 bd 67 e7 2f 3d
       -0.13307168 -0.08060176 -0.09388666 0.04294529
000170 47 99 1d 3e 59 c3 1f 3d b8 a3 11 3e 9c 5f dc 3c
       0.15390502 0.039004657 0.1422261 0.026901059
000180 5e a3 12 3d a7 c7 dc bc 4f c0 67 bc 26 2d c4 3c
       0.03580033 -0.02695067 -0.014144971 0.02394731
000190 0e 8a 1c 3d 08 9f 4d 3d 04 24 53 bd 20 42 09 be
       0.038217597 0.050200492 -0.05154802 -0.13404131
0001a0 62 37 9a bd 1b c5 18 bd ae 28 0c be 84 0b fc bd
       -0.07530095 -0.03729735 -0.13687393 -0.12306884
0001b0 dc 21 1e 3d 5c d1 21 bd 8e 8e d4 bd 85 a1 6c 3b
       0.03860651 -0.0395063 -0.10378753 0.0036107015
0001c0 ef 18 13 bd 83 ab e3 3d 3f 3b e6 3d e9 44 bf 3d
       -0.03591245 0.11116698 0.11241769 0.093393154
0001d0 90 25 87 3d da 87 66 3d 30 bf 92 3d 8e eb 10 3c
       0.06598961 0.056281902 0.07165372 0.008845223
0001e0 0d 8d cf 3d 19 10 e3 3d 8c 11 d9 3d 90 70 0a bd
       0.10134325 0.11087055 0.1059905 -0.033798754
0001f0 20 65 32 bd 71 39 7e bd a0 9b 0b bd fc 92 f4 bc
       -0.04355347 -0.0620665 -0.034083962 -0.029855244
000200 0f de 29 3d da f6 62 3d 1f 83 e6 bc d6 55 f7 bd
       0.041471537 0.055411197 -0.028138695 -0.12076919
000210 21 2b 9e bc d6 8b 3f 3d 87 b3 1c 3d b3 bd cd 3d
       -0.019307675 0.046764217 0.038257148 0.10045948
000220 da 46 63 bc 43 6c 46 bc ff 0c b8 3d 0d 26 1f 3d
       -0.013871873 -0.012110773 0.08986854 0.038854647
000230 33 b4 36 3d bd 27 8e 3d 7a d8 10 3e c5 d3 ae bd
       0.044605445 0.06941173 0.1414508 -0.085364856
000240 45 b0 e9 3d 64 b2 d1 3d 55 68 f7 3d 3c 88 8c 3d
       0.11410574 0.102391034 0.12080447 0.06861922
000250 d9 3d 4e 3d 99 50 1c be 56 cd 8d bd e2 49 a4 bc
       0.05035195 -0.1526512 -0.0692393 -0.020054761
000260 15 39 0b 3d 72 58 2b 3e 0d 2a b6 bd 48 ff 22 3e
       0.033989985 0.16732958 -0.08894739 0.15917695
000270 3b 5c d4 bd 13 80 0c 3c 02 81 56 bd 71 2c 78 3d
       -0.10369154 0.008575457 -0.052369125 0.060589258
000280 54 15 97 3d ea 8f 1f 3d 78 12 c9 bd c6 4f 23 3e
       0.07377115 0.038955607 -0.09817976 0.159484
000290 da 33 d3 bd ed 08 14 3d 60 69 87 3c 4c ce 21 bd
       -0.10312624 0.036141325 0.016529739 -0.03950338
0002a0 f9 17 e7 bc 70 05 88 bd 14 e4 25 bc 38 61 be 3c
       -0.028209673 -0.06641662 -0.010125179 0.023239717
0002b0 f0 92 04 3e 01 61 e3 bd 0d 20 84 bd f2 a5 e9 3d
       0.12946677 -0.111024864 -0.06451426 0.11408605
0002c0 6b 9c bf 3d f2 63 e9 bd 91 f9 63 3d fd 86 bd 3d
       0.09356006 -0.11396016 0.055657927 0.092542626
0002d0 35 c1 9d 3d a5 67 a4 bd 82 29 48 bd 6e 6b 3a be
       0.07702867 -0.08027581 -0.04886771 -0.18205044
0002e0 cc e0 85 3c 6b 5f 42 be 8f f1 f5 bd 15 5e 4b bd
       0.016342543 -0.18981712 -0.12008964 -0.04965027
0002f0 03 21 1f be c0 9f b5 3c e2 ae 29 3d b9 7c ff bd
       -0.15539937 0.022170901 0.041426547 -0.12474961
000300 e8 e6 4d be 3d dc 7a bd 02 b2 de bd d5 dd f4 bd
       -0.20107615 -0.06124519 -0.10873796 -0.119563736
000310 b3 15 e4 3d 2d 08 47 bd 9d 57 90 3d 6a c3 0e 3e
       0.11136951 -0.04859178 0.07047961 0.13941732
000320 e3 a1 12 3e fa 64 2f bd e6 5b 2c 3e da 7d 94 bb
       0.14319567 -0.042820908 0.16831931 -0.0045316042
000330 e1 91 f7 bd 37 c7 c8 bd 7f 55 94 3d 19 02 c2 3c
       -0.12088371 -0.09803622 0.072428696 0.02368264
000340 76 a2 48 bd 97 b8 1c bc 05 06 fb 3d f5 1d 91 3d
       -0.04898306 -0.009565494 0.122570075 0.07085792
000350 16 62 90 bb c2 13 a3 bd 7c 9c 1f 3d c0 65 4a bd
       -0.004406224 -0.07962753 0.038967595 -0.049413443
000360 76 99 de 3d 02 a5 01 be 61 95 b7 bd ac 25 c2 3d
       0.10869114 -0.12660602 -0.08964039 0.094798416
000370 1b 72 8a 3d 51 32 e2 bd 01 f1 c2 3c ae 37 84 bc
       0.06760045 -0.11044753 0.02379656 -0.016139831
000380 cc c6 a9 3d a6 93 f6 bb f4 27 98 3d 61 84 b8 3c
       0.082898706 -0.0075249253 0.074294955 0.02252406
000390 9f 9a 60 bd a2 13 48 3d 56 09 a7 3c 8b 88 dc bb
       -0.05483496 0.04884685 0.020390194 -0.0067301444
0003a0 60 32 9f 3d 1e c3 9b bd ef 2d 89 3b e4 a1 05 3d
       0.0777328 -0.07605575 0.004186384 0.032625094
0003b0 32 64 02 bd 9e 0e 31 ba f9 2b 4b 3d 20 77 18 3d
       -0.031833835 -0.0006754192 0.049602482 0.03722298
0003c0 be 3e d7 bd 39 ab 99 bd ed 45 e7 bd 14 e8 c2 bd
       -0.10510014 -0.07503361 -0.11292634 -0.09516922
0003d0 e6 da d2 bc a8 bc 03 bd 0a 10 5f be 61 8f ac bd
       -0.025739145 -0.03216234 -0.21783462 -0.08425785
0003e0 46 2b 3a be c2 9a b6 bd 3c 90 ca 3b 62 6c 28 3d
       -0.1818057 -0.089162365 0.006181745 0.041118987
0003f0 82 57 97 3d 65 cb e4 bd de fe ea bd 10 ea 95 b8
       0.07389738 -0.11171607 -0.11474393 -7.148471e-05

weights f4 [6, 1, 3, 1]
000000 84 35 73 3f 54 e0 80 3f 43 bf 54 bd 43 65 88 3f
       0.95003533 1.006846 -0.051940214 1.0655903
000010 ee 39 85 3f 2a ca db 3c 48 85 89 3f 3c 0d 79 3f
       1.0408304 0.026829798 1.0743799 0.9728582
000020 76 8e c5 bc 29 29 7d 3f d6 b2 71 3f 87 c8 f7 bc
       -0.024115782 0.9889093 0.94413507 -0.030246986
000030 3a b7 6d 3f 55 cc 95 3f 73 59 17 3d 7a c7 78 3f
       0.92857707 1.1702982 0.03695054 0.9717938
000040 0b 1e 75 3f 1c 2e 03 3d
       0.95748967 0.032026395

running_cov f4 [1, 6, 2, 2]
000000 1e 0b 95 3f c9 a4 b3 3d c9 a4 b3 3d 30 9d 8b 3f
       1.1644018 0.08771665 0.08771665 1.0907345
000010 08 0a a3 3f 82 3c 78 3e 82 3c 78 3e 72 75 62 3f
       1.2737436 0.24241832 0.24241832 0.8846046
000020 4c c4 a7 3f 42 05 0f 3c 42 05 0f 3c 96 b2 a5 3f
       1.310678 0.008729281 0.008729281 1.2945125
000030 bf 8c ad 3f 07 a3 8b be 07 a3 8b be ef b2 83 3f
       1.3558577 -0.27272817 -0.27272817 1.0288981
000040 b1 a5 8e 3f fd 32 e3 bd fd 32 e3 bd 03 57 f6 3f
       1.1144315 -0.110937096 -0.110937096 1.9245304
000050 cc 6e 83 3f a5 a3 6f bd a5 a3 6f bd 29 e3 ab 3f
       1.0268188 -0.058505673 -0.058505673 1.3428699

weight f4 [6, 6, 5]
000000 b9 46 37 3e 29 85 a8 bd cf fb 19 3e 8b 7e de 3d
       0.17898072 -0.08228523 0.15037464 0.1086398
000010 33 18 ab 3d 97 c8 9e bd 9b c4 c0 3d 4a 46 bb 3c
       0.08354225 -0.07753103 0.094124995 0.022860665
000020 7b c0 98 bd b8 35 48 bd 06 d0 7e bd 4c 4f 25 3e
       -0.07458588 -0.048879355 -0.062210105 0.1614353
000030 d8 03 c8 3d 0e b9 b5 3c fe ae 94 bd a1 5e 73 bc
       0.09766358 0.022182968 -0.072599396 -0.014854104
000040 bc 1a 9e bd cd 4f b9 3d 4b 16 ec bb 41 f2 00 3e
       -0.07719943 0.09048424 -0.007204806 0.12592413
000050 d8 ff ad 3d c0 f7 3b bd 47 c2 3b bd d5 6b db 3d
       0.08496064 -0.04589057 -0.045839574 0.10713927
000060 5c 1e ea 3d bb ba 3c 3e e2 64 45 bd f3 7d 30 bc
       0.11431572 0.18430607 -0.048191912 -0.010772216
000070 4a aa ce bc 6f ce 24 3e 50 2e 35 be 6e f3 1e bc
       -0.025227685 0.16094373 -0.17693448 -0.009701593
000080 f1 35 fe bd 4c d2 9e bd 59 3e 11 39 ac 3e e6 3b
       -0.12412632 -0.07754955 0.00013851504 0.007026514
000090 60 b7 0a 3d 5b 64 a0 3c dd 40 ee 3d 57 b9 8a bd
       0.033866286 0.019579103 0.116334654 -0.06773632
0000a0 eb 60 e6 bc c9 3d 9a 3d d4 2f fc bd 12 ce b4 3d
       -0.028122386 0.07531316 -0.1231381 0.08828367
0000b0 69 00 d2 bc bc 82 fb bd 01 06 f2 3d 54 ea 00 be
       -0.025634961 -0.12280795 0.118175514 -0.12589389
0000c0 bb 10 b5 3d bc f1 b3 bd d9 95 d8 bd 35 38 b6 bc
       0.08841082 -0.087863415 -0.10575456 -0.022243598
0000d0 03 79 48 bd c7 b7 20 3e c0 b4 0d 3d 2b a2 e0 3d
       -0.04894353 0.15695105 0.034596205 0.10968431
0000e0 60 36 2f be 4f 0c a3 3d bf f7 79 3d be d8 6a bc
       -0.17110586 0.07961332 0.061027285 -0.014333902
0000f0 76 40 1e be cf b8 04 bc 60 d7 d4 bd 61 ec 44 bd
       -0.15454277 -0.008100702 -0.10392642 -0.04807699
000100 dd 66 c4 bc 98 ab 3b be af ef 2e 3d 53 40 84 bd
       -0.02397483 -0.18327177 0.04270905 -0.06457581
000110 9f 01 6a 3d db f4 9a 3d 08 00 0a be b4 06 3b 3e
       0.057130452 0.07566234 -0.13476574 0.18264276
000120 5a 18 2c be 76 35 a0 3b 2d d8 ff bc ae 87 06 3e
       -0.16806164 0.0048891855 -0.03123101 0.13137695
000130 8f c0 13 be 6e dc b7 3d 76 5a 6c be be fb bc 3d
       -0.14428924 0.089775905 -0.23081383 0.092277035
000140 e1 86 e1 bd db 9e 06 3e 7e 2f f5 bc 4b 3b c3 bc
       -0.11012054 0.13146536 -0.029929873 -0.023831984
000150 a8 1a 9d bd 50 d0 99 bb 4f 53 cc 3d 44 e9 3d be
       -0.076711 -0.0046940222 0.09976827 -0.18546015
000160 91 36 14 3c 64 cc 0a be b1 33 3c 3d 49 ad 9a bd
       0.009046213 -0.13554531 0.045947734 -0.07552583
000170 03 10 f8 bc f9 ca 00 bd 5b 1d 9b 3d 37 bb 43 be
       -0.030281072 -0.03144357 0.075739585 -0.19114386
000180 ce 60 6e 3d 53 6b 10 3e 2a 9d 34 3d d4 3d 80 3c
       0.05819779 0.14103441 0.044095196 0.015654482
000190 3a 14 15 3d 6c ef 51 be 10 f9 03 be c2 c7 4e bb
       0.036396243 -0.20501488 -0.12887979 -0.003155217
0001a0 b2 b6 e7 bd 28 f0 c9 3d 34 8d 4d be 55 ff 41 be
       -0.11314143 0.09860259 -0.20073396 -0.18945058
0001b0 3a 7a 96 bd 7e df a8 bd 7f b6 dc 3c 72 3c 1c be
       -0.073475316 -0.08245753 0.02694249 -0.15257433
0001c0 76 97 04 3e 7f a9 02 3b 23 53 09 be 77 d0 0d bd
       0.12948403 0.0019937453 -0.1341062 -0.034622636
0001d0 a4 f0 10 bb e6 fb 3f bc 6d db 5f 3c 88 2d 37 be
       -0.002211609 -0.011717772 0.013663155 -0.17888463
0001e0 dc 28 48 be db c3 82 be 4d fc 1f bd 77 bf 67 be
       -0.19546837 -0.2554005 -0.039058972 -0.22631632
0001f0 eb 23 9e 3b 23 e9 0d 3e 3a d0 27 3e 63 33 b3 3d
       0.004826059 0.13858466 0.16388026 0.087500356
000200 68 f5 0a be 00 d3 37 be fe 95 fd 3d c9 55 b1 bc
       -0.13570178 -0.17951584 0.12382124 -0.02164735
000210 5b 16 44 bd 39 cb f3 bd d7 a6 43 bc 37 ac fe 3d
       -0.047872882 -0.11903996 -0.011941633 0.12435191
000220 8b 89 62 3e e2 f0 4f 3c 49 6d 4a 3d 94 12 ab bd
       0.22122781 0.012691708 0.04942063 -0.08353153
000230 9d e0 59 3e 5b 81 01 3e 83 18 aa bd ef 8e 15 3a
       0.2127709 0.12647001 -0.083054565 0.00057051977
000240 72 ab 10 3e 1f 9b d7 bd 95 13 ba bd 8f 0b 7f be
       0.14127901 -0.10527634 -0.09085766 -0.24906753
000250 c7 13 04 bd bd 17 8c be 94 23 2f be 39 f0 0c 3e
       -0.032245424 -0.2736186 -0.17103416 0.13763513
000260 7f 32 af 3d 8a f7 74 3d 87 c3 b6 bc 57 ce 59 bd
       0.08554553 0.059806384 -0.022310032 -0.053175297
000270 f7 ee 5e bd 2e 41 21 bd 17 8a fc bc 3d ac 8d 3d
       -0.054427113 -0.0393688 -0.030827565 0.069176175
000280 20 99 99 3d f7 2e 82 bc dc bb a5 3d 4f ed 84 bd
       0.074999094 -0.015891535 0.08092472 -0.064905755
000290 3c 45 1e be 65 4e aa 3d 40 a2 87 be 9f b8 7c be
       -0.15456098 0.08315734 -0.26490974 -0.24679802
0002a0 66 e1 74 3d 7b c1 9b 3d 03 c8 41 bd 99 59 ca bd
       0.05978527 0.07605263 -0.047309887 -0.09880371
0002b0 f2 5e 48 3e 7b ab 13 be f7 dc 52 bd 71 d9 4d be
       0.19567469 -0.14420883 -0.05148026 -0.20102479
0002c0 0b 23 f0 3d 28 51 47 be f9 c9 8d bd 0f 10 fc bd
       0.11725434 -0.19464552 -0.06923289 -0.123077504

weight f4 [6, 6, 5]
000000 0e b8 db bd be 3e 2a be e9 51 3d be 30 57 39 be
       -0.10728465 -0.16625497 -0.18488277 -0.18099666
000010 ac cd 53 bd fe d6 59 3d 8c 14 0e bd 3d 97 76 3c
       -0.051709816 0.05318355 -0.034687564 0.015050706
000020 dd 30 0a 3d e3 91 cc 3d 2a 72 f3 bc 51 17 6b 3e
       0.033738006 0.09988763 -0.029717524 0.22958113
000030 44 73 44 3e 43 f0 3c 3e 39 3f 2d 3d 7f 01 b0 bc
       0.19184595 0.18451028 0.042296622 -0.021485088
000040 d6 90 b0 bd 91 ef be bd 89 c7 c8 bc 66 2e 00 3e
       -0.08621375 -0.093230374 -0.024509208 0.125177
000050 de ae 60 bd c4 a2 a4 3d 91 e0 76 3d 17 9c a7 bd
       -0.054854266 0.080388576 0.060272757 -0.08184069
000060 a1 0c 07 3c d0 4f 4c bc 5d da 28 3e fc 1d 04 be
       0.008242757 -0.012470201 0.16489549 -0.12902063
000070 b7 9a b9 bd 6d 70 c5 3d 88 8e 53 bd 14 f2 f2 bd
       -0.09062713 0.09640584 -0.0516496 -0.11862579
000080 e9 c1 4c 3e b3 ee e5 3d 13 b9 8c bd bf 54 d9 bd
       0.19995846 0.11227169 -0.068712376 -0.10611867
000090 9c ed 81 be f2 6f 91 be 73 b9 ad be 55 7f 8a be
       -0.25376594 -0.2840572 -0.3393055 -0.27050272
0000a0 4c 39 b9 bd 4c e0 12 be 43 59 2a 3d 2c 88 5d be
       -0.09044132 -0.14343375 0.041589033 -0.21633977
0000b0 a1 4f 0d 3d a0 52 12 bd b8 bf 1c 3e 21 b8 83 3d
       0.03449977 -0.03572333 0.1530751 0.06431604
0000c0 fa c5 ca 3d bd 5f 46 be cc 19 d9 bd 40 c4 26 3e
       0.09901042 -0.19372459 -0.106006235 0.16285801
0000d0 11 af 28 bd 05 65 0d 3d 22 b7 94 bc e2 91 60 bc
       -0.04118258 0.034520168 -0.01815373 -0.013706656
0000e0 7e 24 3e 3d de c8 04 3d 50 ca 12 3e 0b b2 49 be
       0.04642152 0.032418124 0.14334989 -0.19696824
0000f0 52 c7 71 3d 57 bb 88 bd bb 91 39 3e 9b 06 d3 bd
       0.059027977 -0.06676357 0.18121998 -0.10303994
000100 97 5c 27 3e 89 65 df bd 98 d7 a2 3b 0e 4f 39 3e
       0.16343914 -0.10908038 0.0049695484 0.18096563
000110 e6 69 16 3e 1b 42 44 3d 96 16 9a 3d b2 62 a4 bd
       0.14688835 0.047914606 0.07523839 -0.08026637
000120 0a 10 35 3a 70 5e 41 be 82 ff d8 bc 83 24 1c 3e
       0.0006906992 -0.18883681 -0.026489023 0.15248303
000130 65 1e 54 be 73 07 0c 3e fe 31 7b be 88 72 59 3d
       -0.2071472 0.13674717 -0.2453079 0.05308774
000140 66 37 c0 bd e6 b5 05 3e 8a 3f 04 3e a5 c4 e1 3d
       -0.093855664 0.1305767 0.12914863 0.11023835
000150 5b 04 94 3d cd b4 ed 3d 8e b0 11 3e 16 05 b3 bb
       0.07227393 0.11606751 0.14227507 -0.005463253
000160 73 61 1c 3e a0 63 1f 3e fe 22 30 3e 7e 97 88 bd
       0.15271549 0.15565348 0.17200848 -0.0666952
000170 ed e3 4f bd d9 2d eb 3d cc 6a 72 3d 94 d1 98 bd
       -0.050754476 0.11483354 0.05918388 -0.07461849
000180 a4 80 f4 3d a4 dc 0b bd bb 49 17 3e d2 7e 37 be
       0.11938599 -0.034145966 0.1477422 -0.17919472
000190 98 e4 c6 3d 41 19 c6 bc 2e 5c ec bd 7f 00 64 3c
       0.097115695 -0.024181964 -0.115410194 0.013916134
0001a0 f5 b4 f2 bd ab b7 65 be e5 b6 15 be 88 7f 37 3e
       -0.11850921 -0.22433345 -0.1462055 0.17919743
0001b0 72 58 d0 3c 26 5f a7 3c f3 09 e5 3d 3e 09 86 3c
       0.025432799 0.020431112 0.11183538 0.016361829
0001c0 e9 b4 25 3d 7c 42 16 be 56 ba ab bc 54 d3 94 bd
       0.040455732 -0.146738 -0.020962875 -0.0726687
0001d0 ef 84 e2 3d b6 47 4e bc a2 d6 5c 3e 51 0b fe bd
       0.11060511 -0.012590339 0.21566251 -0.12404502
0001e0 29 e5 8f 3d 60 b2 8a 3a d7 7d 9c 3d 1b ab 05 be
       0.07026131 0.0010581724 0.076411895 -0.13053553
0001f0 90 ed d8 bd ef fd 5c be ec da 60 be f8 66 4a bc
       -0.105921865 -0.21581243 -0.21958512 -0.012353651
000200 79 5c 41 bd 36 75 7d be b0 14 1e 3e bf 7a 77 3d
       -0.04720733 -0.24751744 0.15437579 0.060419794
000210 62 ab 27 3d f3 33 b6 3d 1f f8 75 bd ac 4e 43 3d
       0.040934928 0.08896627 -0.06005108 0.04768245
000220 e9 81 26 be b4 f7 f5 bb 74 a6 d6 bd 8a e3 bf bc
       -0.16260494 -0.007506335 -0.10480967 -0.023423929
000230 a9 7d fd bc 70 d0 7c 3d 5d 5a 40 bd 42 a9 ef 3d
       -0.030943708 0.06172222 -0.046961177 0.11702205
000240 64 d4 62 bd d1 ea cb 3d 85 9d 2a 3d d5 38 cf 3d
       -0.055378333 0.09956897 0.04165413 0.10118262
000250 5a 53 f9 3d 6b f3 53 be 7f de 3d 3e 60 38 06 3d
       0.12174101 -0.20698325 0.18541907 0.032768607
000260 88 44 bb 3d fb 6f cc 3d ef 87 c2 bc 1c e5 1e 3e
       0.09143931 0.09982296 -0.023746459 0.15517086
000270 e7 b1 1c 3e e9 12 60 3e b5 39 9d bd 4d 5f e7 3d
       0.1530224 0.21882214 -0.07677022 0.11297474
000280 9d 9e 9f 3c c7 8f 12 3e 5f 80 2e 3d 9c 00 17 3e
       0.019484812 0.14312659 0.042602893 0.14746326
000290 93 12 cc bd 06 ef 91 bd 70 e5 18 3e fc ba 89 bb
       -0.0996448 -0.07125668 0.14931273 -0.0042031985
0002a0 8f 19 f1 3d 63 21 c5 bb db fa 25 3e 1a 6a 05 bd
       0.11772453 -0.006015943 0.16208975 -0.03257189
0002b0 af 43 41 3d c7 01 d5 bd 4f 68 a1 3d 4a d3 20 3d
       0.04718369 -0.104007296 0.078812234 0.039264
0002c0 61 fa a8 3d 99 9c a4 bd 8c 61 30 3e 5e d4 e6 3d
       0.08250881 -0.08037681 0.17224711 0.112709746

weights f4 [6, 1, 3, 1]
000000 82 5b 83 3f 21 54 64 3f e7 4b a4 bd 02 3d 7d 3f
       1.0262301 0.8919087 -0.0802229 0.98921216
000010 22 d9 7f 3f a2 14 12 3a ef f8 79 3f 87 7c 79 3f
       0.99940693 0.00055725325 0.9764547 0.9745564
000020 e0 a9 f4 3c 95 b1 86 3f d4 12 80 3f 0e 3d e6 bb
       0.029866159 1.0522944 1.0005746 -0.0070263213
000030 f6 4d 8b 3f 2e cb 65 3f b9 b7 03 3d 9f 76 7f 3f
       1.0883167 0.8976315 0.032157633 0.99790376
000040 e2 11 75 3f 50 db 34 3d
       0.9573041 0.044154465

running_cov f4 [1, 6, 2, 2]
000000 8f f9 ac 3f f4 4e 93 bd f4 4e 93 bd 8c eb 6e 3f
       1.3513659 -0.071927935 -0.071927935 0.93328166
000010 8c 5a be 3f b1 02 c3 bd b1 02 c3 bd ac 1f 20 3f
       1.4871383 -0.09521998 -0.09521998 0.6254833
000020 a1 6b 9e 3f a6 7d ed 3b a6 7d ed 3b a3 8d be 3f
       1.2376596 0.0072476445 0.0072476445 1.4886974
000030 e4 3c 03 40 7a d9 d9 be 7a d9 d9 be e0 dd fc 3f
       2.0505915 -0.42548734 -0.42548734 1.9755211
000040 fa c6 b6 3f 26 9a f2 bd 26 9a f2 bd 12 41 59 3f
       1.4279473 -0.11845808 -0.11845808 0.84864914
000050 48 35 ea 3f 1b 20 32 3d 1b 20 32 3d ec e3 90 3f
       1.829751 0.04348765 0.04348765 1.1319556

weight f4 [6, 6, 3]
000000 27 2e 26 be 19 f2 55 3e cc 34 8d bb 8f 67 47 be
       -0.16228543 0.20893134 -0.0043092724 -0.19473098
000010 e5 3f ea bb 62 d1 dc 3a e9 44 46 3e a2 d1 b4 bd
       -0.00714873 0.0016847069 0.19362225 -0.08829047
000020 4e b1 8d be 9b 47 13 be e2 8c 19 3e a3 9b 94 3d
       -0.27674335 -0.14382784 0.14995149 0.07256248
000030 d5 64 2d bd 00 fb ea bd 54 06 54 bb 87 ce 20 be
       -0.04233249 -0.11473656 -0.0032352405 -0.15703784
000040 d9 1a 81 3c bd 5d a9 bd 78 44 91 be 65 45 83 be
       0.015759872 -0.08269832 -0.2837255 -0.2563888
000050 c6 6f 96 be 81 b2 22 be 5f 22 ac bc 20 50 f3 3d
       -0.2938215 -0.15888406 -0.021012483 0.11880517
000060 c2 b1 24 3d 04 52 00 3e 00 5e 1f bd d3 0b 7d bd
       0.040208586 0.12531286 -0.038908005 -0.061778855
000070 3b 5c 1c bd 74 a7 d9 3d 77 83 2e 3e 85 79 a6 bb
       -0.038173895 0.10627642 0.17042337 -0.005080404
000080 1a 46 39 be 56 75 c0 bd 4c 94 b5 bd b3 1e 2b 3d
       -0.18093148 -0.0939738 -0.08866176 0.041777324
000090 41 6f 70 3c 21 24 23 be ad 0c 1f be b5 fe 33 3e
       0.0146749625 -0.15931751 -0.15532179 0.17577632
0000a0 63 2a ac bc 86 f6 1a be 58 ce 8e bd d4 9b 27 be
       -0.021016305 -0.15133104 -0.06972951 -0.16368037
0000b0 28 c1 a0 bc 78 d0 cd bd 05 3a 33 3e bf 21 98 be
       -0.019623354 -0.10049528 0.17502601 -0.29713246
0000c0 ba 89 3e 3e f5 23 0d be 65 1f af bc ba f0 8c 3d
       0.18607226 -0.13783248 -0.021377275 0.068818524
0000d0 ab e4 be 3d 39 11 0f 3e a5 21 8c bd 61 91 2f 3e
       0.09320959 0.13971414 -0.06842355 0.17145301
0000e0 82 26 93 3d 18 18 a1 be f8 9a 89 be 4a 6b 60 be
       0.07185079 -0.31463695 -0.26876044 -0.21915928
0000f0 1a d1 b7 3d 24 70 7c be 0c 8b b5 be 4e d5 c6 3d
       0.0897543 -0.24652153 -0.35457647 0.097086534
000100 87 f3 a8 3b 68 0d d0 3d 5d 9a 23 be 92 b0 bb bb
       0.005155984 0.10158807 -0.15976854 -0.005727836
000110 6a 59 35 bd f5 fe 0c 3d 3d 4d 13 be 41 ae 42 be
       -0.044274725 0.034422833 -0.14384933 -0.19011785
000120 37 01 93 3c 5e 44 a3 be 95 ea 9a bc 9f d0 57 3e
       0.017944915 -0.31888098 -0.018910686 0.21075676
000130 a9 8c 97 3d 97 bf 6f be 66 95 86 3d 92 bb 82 3c
       0.07399876 -0.2341293 0.06571464 0.015958581
000140 58 37 0d 3e 57 75 47 3e be c9 f9 bd e4 bc c7 bd
       0.13790643 0.19478355 -0.121966824 -0.09752825
000150 6d 12 e2 bd 24 47 2a 3e 53 4d 1b be 92 ec ab 3d
       -0.11038671 0.166287 -0.15166216 0.083947316
000160 76 f3 e8 bd 47 b7 7f be 79 1b cf 3d 27 ef 76 3e
       -0.113745615 -0.24972259 0.10112662 0.24114667
000170 69 16 80 3e 6f bd 59 3c 8f a9 21 3e aa da 2c be
       0.25017098 0.013289793 0.15787338 -0.16880289
000180 50 7e b9 bd 2d 2e 4d 3d 94 2b 38 3e b4 94 74 3c
       -0.09057295 0.050092865 0.17985374 0.014928032
000190 6d 6f f1 bd 25 06 1e 3e 71 a3 16 3e 48 4e 9d 3d
       -0.11788831 0.15432031 0.14710785 0.076809466
0001a0 2c a9 1c 3d 7a 5f 30 3e d1 ed 1d 3e 35 99 3c 3e
       0.038247272 0.17223921 0.15422751 0.18417819

weight f4 [6, 6, 3]
000000 35 9e f6 3d b3 6a 88 3d 2c d7 80 be 31 74 1e 3c
       0.12041894 0.06660976 -0.25164163 0.009671257
000010 7e 83 0f 3e 31 64 60 3e ad 33 c0 bd cb 91 3d 3e
       0.14015004 0.2191322 -0.093848564 0.18512647
000020 13 f8 48 3e 7f 08 32 be 40 27 32 be 7f 0d 77 3e
       0.19625883 -0.17386054 -0.17397785 0.24126242
000030 77 c3 51 3e b1 2e 57 be 83 28 68 3e 18 3b 3b 3e
       0.2048472 -0.21013905 0.22671704 0.18284261
000040 50 5c f7 bd 48 0b 00 3e 49 a2 51 3d 1d 5e 30 3e
       -0.12078154 0.12504303 0.051180158 0.17223401
000050 d7 d2 e8 3d 29 07 06 3e 83 6a 09 be 0b 6f ff 3d
       0.113683395 0.13088669 -0.13419537 0.12472352
000060 0a 39 c7 3d 70 a1 10 3e 4c 46 e3 3d d5 02 12 be
       0.09727676 0.14124084 0.110973924 -0.14258893
000070 da cd 66 3e 6c 4f 25 3e d7 e5 66 3c ea af 09 be
       0.22539464 0.16143578 0.014092884 -0.13446012
000080 08 44 ff bd 34 94 9b bd 4a 00 4a 3e 62 70 b7 bd
       -0.12464148 -0.07596627 0.19726673 -0.08956982
000090 54 b2 8e 3d fc 17 5d 3e 13 1a db bd b2 19 80 be
       0.06967607 0.2159118 -0.10698333 -0.25019604
0000a0 71 32 ab be 11 d2 38 be e5 1b 2d bd 3f 8f 59 be
       -0.3343692 -0.18048884 -0.04226293 -0.2124605
0000b0 b6 75 0c be e3 ed 25 bd be 7a 0b be 80 28 8c 3d
       -0.13716778 -0.04051007 -0.13621041 0.06843662
0000c0 3c e6 32 bb 03 2e 08 3e 4e ff 99 be 40 d1 f7 3d
       -0.0027297875 0.13298802 -0.30077595 0.12100458
0000d0 37 ba 71 bd b8 de 3a be e4 5f 1e 3e 76 3e ba 3c
       -0.05901548 -0.18249023 0.15466267 0.022734862
0000e0 11 3e ba 3d 6f ea 15 be 7a 45 27 3e 67 23 de 3d
       0.090938695 -0.1464021 0.16335097 0.10846596
0000f0 39 7a e3 bd 35 d7 c0 bc cc f9 28 3d e5 1f 58 be
       -0.111072965 -0.023540119 0.04125385 -0.21105917
000100 e8 9b 16 3d af 4f 6a 3e dd b2 21 3e fc 17 36 be
       0.036769778 0.2288196 0.15790887 -0.17782587
000110 32 e1 6b 3d ff 93 d5 bd b9 86 55 3d 0c 5d 39 be
       0.05758781 -0.10428619 0.052130435 -0.18101901
000120 67 65 39 3e 2c 74 5c 3d a4 71 f7 3c c8 37 70 3d
       0.18105088 0.053821728 0.030205555 0.058646947
000130 38 b6 55 be 5d ec 8b bd 55 d2 8b be 6c a2 72 3d
       -0.20870292 -0.06832192 -0.27308908 0.05923693
000140 4f 9c 89 bd 8e 52 7f be 55 e5 70 be fc ab fa 3d
       -0.067192666 -0.24933836 -0.23524983 0.12239835
000150 c0 d8 5c 3d 2f 69 a8 bd ae 69 8e 3e da 6a 62 be
       0.053917646 -0.08223187 0.27815002 -0.22111073
000160 9a 50 20 3d 9c 3e 8d 3d 0a aa 17 3e c8 da 34 3e
       0.039139368 0.068967074 0.14810959 0.17661583
000170 85 9e 95 bd ff fc f0 3c 84 9e bc 3d aa 1e 31 3e
       -0.07305626 0.029417513 0.09209922 0.17296854
000180 1d cf 4a 3e 09 ba 01 be 05 31 da bd 4e d9 fc 3d
       0.1980557 -0.12668623 -0.10653881 0.12346135
000190 07 56 60 be 8f e6 4d 3d 0b 10 8a 3e 6d 1e 83 3d
       -0.21907817 0.050268706 0.26965365 0.06402288
0001a0 5a c8 36 bd 03 87 9e bd 94 88 0e bc f4 fd 40 bc
       -0.044624664 -0.07740595 -0.008699555 -0.011779297

weights f4 [6, 1, 3, 1]
000000 07 c7 7a 3f 17 5b 80 3f b4 c5 02 bc 76 4e 84 3f
       0.9795994 1.0027798 -0.007981706 1.0336444
000010 c3 06 6d 3f 31 16 4a bd 1a 0a 91 3f eb dc 75 3f
       0.9258844 -0.04933757 1.1331208 0.9604022
000020 e5 5a b9 bc 78 c0 86 3f 57 c1 80 3f 91 4f 63 3c
       -0.02262635 1.0527487 1.0059003 0.013873951
000030 d3 92 87 3f 0e 79 81 3f 06 35 93 3c 89 2a 80 3f
       1.0591682 1.0115068 0.01796962 1.0012981
000040 40 12 71 3f 64 68 a3 bc
       0.9416847 -0.019947238

running_cov f4 [1, 6, 2, 2]
000000 c0 1d d8 3f 22 72 3b 3e 22 72 3b 3e bc d3 b3 3f
       1.6884079 0.18305257 0.18305257 1.4048991
000010 96 3a 75 3f 86 49 d7 bd 86 49 d7 bd fa 07 8e 3f
       0.9579252 -0.1051207 -0.1051207 1.1096184
000020 7a 18 f2 3f 5a cb a7 be 5a cb a7 be 96 ed 5b 3f
       1.891372 -0.32772332 -0.32772332 0.859094
000030 eb 56 55 3f b4 23 3a 3e b4 23 3a 3e 1c e1 ed 3f
       0.8333575 0.18177682 0.18177682 1.8584323
000040 94 b3 f9 3f e6 a0 30 3e e6 a0 30 3e c0 b0 b0 3f
       1.9507928 0.17248878 0.17248878 1.380394
000050 36 28 c3 3f b3 03 d5 bd b3 03 d5 bd f6 8d 8b 3f
       1.5246646 -0.10401096 -0.10401096 1.0902698

weight f4 [1, 6, 1]
000000 ff d9 96 3e a4 f1 cb 3d a1 08 bc 3e c0 0b 57 bd
       0.29463193 0.09958199 0.36725333 -0.05250144
000010 e2 23 d3 3d d1 24 5d be
       0.103095785 -0.21596076

weight f4 [1, 6, 1]
000000 43 49 c7 bc fa c2 c5 bb 7d f8 66 3e 10 9b bf 3e
       -0.024326926 -0.006035206 0.22555728 0.3742299
000010 a3 84 0f bd 40 18 a9 3d
       -0.0350386 0.082565784

weights f4 [1, 1, 3, 1]
000000 20 ce 96 3f 5b a4 7d 3f ed ae a4 3d
       1.1781654 0.9907891 0.08041177

running_cov f4 [1, 1, 2, 2]
000000 34 40 9b 3f 3b a9 2f be 3b a9 2f be 38 bb c9 3f
       1.2128968 -0.171544 -0.171544 1.576026

weight f4 [6, 6, 7]
000000 3d a1 83 3d 53 33 94 3c 59 f3 03 be 98 a6 89 bd
       0.06427238 0.01809088 -0.12885799 -0.06721228
000010 d5 77 11 bc a1 3a 9d bd 34 69 da 3c 2a 10 72 bd
       -0.008878668 -0.07677198 0.026661493 -0.059097447
000020 48 f0 15 3e 76 34 d4 3b 2b a1 82 bd 49 49 98 bb
       0.14642441 0.0064759804 -0.063783966 -0.004647408
000030 26 e3 34 be 51 ec 36 3d 67 7a 14 be 97 14 b3 3d
       -0.17664775 0.044658963 -0.14499818 0.087441616
000040 76 98 a0 3d e1 23 1a be c5 bd 53 3c 08 fb 73 3d
       0.078415796 -0.15052749 0.012923663 0.059565574
000050 19 83 c7 3d c5 32 dc bd 42 91 cb 3c e3 cd bb 3d
       0.09741802 -0.10751871 0.024849538 0.09170129
000060 81 92 89 bc d2 22 8b 3d 53 e8 39 3c 0d 0d d1 bd
       -0.016793491 0.06793751 0.011346894 -0.10207567
000070 e3 24 2f 3e 73 c0 80 3d 43 42 08 bb aa 7a a2 3d
       0.17103915 0.06286707 -0.0020791448 0.079335526
000080 18 87 33 be 19 21 09 be 02 0b 60 3e 13 88 67 bc
       -0.17532003 -0.13391532 0.21879199 -0.014131564
000090 76 07 a2 3d aa 5a 1c be 24 4b aa 3c ba ce 38 be
       0.07911579 -0.1526896 0.020787783 -0.1804761
0000a0 80 3b f1 bd ab 6b bc bd b8 34 43 3c 64 05 52 bd
       -0.11778927 -0.092002235 0.011914425 -0.051274672
0000b0 da 62 3b 3e d8 84 b3 3d 90 0f c8 bd 67 5a ac bd
       0.18299428 0.08765572 -0.09768593 -0.084156804
0000c0 ca ee 04 be 79 40 1c 3d e6 14 82 3d 07 55 90 3d
       -0.12981716 0.038147423 0.06351642 0.07047468
0000d0 d3 c8 c6 bd 17 73 aa bd 0a 46 04 3d d3 4d 5b bd
       -0.09706273 -0.08322733 0.032293357 -0.053541016
0000e0 56 5d a9 3c 4a de 00 3e ed b9 a0 bd eb 9e fd bd
       0.020674389 0.12584797 -0.078479625 -0.12383827
0000f0 87 54 ca 3c 2c 58 75 3d 8f 41 76 be 0f 47 7e be
       0.024698509 0.05989854 -0.24048446 -0.24831794
000100 50 59 7c bc 29 b3 06 be e9 bd 60 3b 77 68 7c 3d
       -0.015402153 -0.13154282 0.0034292883 0.061623063
000110 c0 30 e9 3d 2c 99 5a 3d dd cb ad 3c 53 e6 1f 3e
       0.113862514 0.053368732 0.021215374 0.15615205
000120 a4 44 e7 3d 18 19 dd bd 4e 92 0f bd 17 4a ad 3c
       0.11292389 -0.10795802 -0.035051636 0.021153493
000130 1f 8e c7 3d 95 29 ff bd b9 54 a7 bd fd b6 10 3d
       0.09743904 -0.12459103 -0.081704564 0.03533076
000140 bf 18 27 bd 1e 59 40 bd a0 0b 53 be cc e9 0c be
       -0.040795084 -0.04695999 -0.20609903 -0.13761061
000150 73 38 6b 3c 04 da c3 bd 8c 04 94 bd 6d 9d 00 bd
       0.01435672 -0.095630676 -0.0722743 -0.031400133
000160 31 fb 89 3d 27 81 de 3c 37 94 02 3d c4 aa 1a bd
       0.06737364 0.027161194 0.03187963 -0.03776051
000170 94 74 13 be 70 6b 08 3e 92 12 7c bd 73 a2 b1 3a
       -0.1439994 0.13322234 -0.061541148 0.0013552442
000180 b0 f4 9c 3d 36 5a fc 3d 5b 54 f0 bc 37 63 1f 3e
       0.07663858 0.12321894 -0.029337099 0.15565191
000190 39 00 b8 3d 33 22 5e bd 9e 70 86 bd 2f b6 e6 3d
       0.089844175 -0.054231834 -0.06564449 0.112652175
0001a0 bb 12 f9 3d d9 f5 a8 3c 9e 44 66 bd 3a 7b a4 bd
       0.12161776 0.020625042 -0.056217782 -0.08031316
0001b0 29 cc 1f bd 29 62 f5 bd 65 fc 0d be d1 d3 bb 3d
       -0.03901306 -0.11981613 -0.13865812 0.0917126
0001c0 e2 16 e6 3c 3d 3a b1 bd 2e 19 0f be 8c ad c8 bd
       0.028087083 -0.08653686 -0.13974449 -0.097987264
0001d0 cd 7f 01 3e ce 07 23 3d 33 e8 10 bd d0 47 b3 bd
       0.12646408 0.039802365 -0.035377692 -0.087539315
0001e0 5d 8b 98 3c a9 7b 1d be df ab 24 bd 41 e9 7c 3d
       0.018621141 -0.15379204 -0.04020297 0.061745886
0001f0 90 22 b1 bd 8f ea 8d bb 7b db 5b bd 4a 3c 8f 3d
       -0.086491704 -0.00433094 -0.05367611 0.06993921
000200 56 38 a6 bd f2 60 16 be 85 60 11 bc 31 df 31 3c
       -0.08116214 -0.14685419 -0.00887311 0.010856436
000210 9b 02 43 bc be 57 f7 3d 00 c9 26 3e 32 a9 9d 3d
       -0.011902477 0.12077282 0.16287613 0.07698287
000220 ca e8 31 3e 18 d8 b0 bc e5 c9 87 bc 60 3a 08 be
       0.17373958 -0.021587417 -0.016575763 -0.13303518
000230 c0 4a 87 bc 66 bd 06 3e 2f 91 08 be 33 be 8e bd
       -0.016515136 0.13158187 -0.13336633 -0.06969871
000240 1c 91 c8 bd 16 f5 6c bc 5e bb ae 3c ad 0e 1d be
       -0.097933024 -0.01446273 0.021329578 -0.1533763
000250 e0 d0 22 bd 39 ab 04 3d d9 a7 77 3d d4 5d 73 3d
       -0.03974998 0.032389853 0.060462806 0.059415653
000260 cd ec f8 3d 52 d7 99 bd dc 1a 51 3d 7e 12 85 bc
       0.12154541 -0.07511772 0.051051006 -0.01624417
000270 ff 4d f7 3c 9c cc 75 bd 00 52 4c 3d cb 4a f5 3c
       0.030188559 -0.060009584 0.04988289 0.02994289
000280 ee 33 fa 3d a6 a9 27 bd 66 57 47 3e 48 6c 24 be
       0.12216936 -0.040933274 0.19466934 -0.16056931
000290 f8 f0 1b 3c 83 63 9c bd 7b 4d a2 3d cb 15 18 3d
       0.009517901 -0.07636168 0.079249345 0.03713016
0002a0 a5 26 90 bd c9 a5 51 39 83 98 af 3d 15 93 bd 3d
       -0.07038621 0.00019993553 0.08574011 0.09256569
0002b0 6d 27 02 be 76 6e 4b bd c4 24 db bd ff 0c d5 3d
       -0.12710352 -0.04966589 -0.10700372 0.104028694
0002c0 7a 40 41 bd 9d 96 a1 bd 38 a8 2e bd 89 4e f5 bc
       -0.04718063 -0.07890055 -0.042640895 -0.029944675
0002d0 72 07 b1 3d 5a 42 9e bd a9 c6 ff 3d fa 4a 2c 3d
       0.08643998 -0.07727499 0.12489063 0.04206369
0002e0 ab 3f 0b be da 2e 86 3d 68 24 af 3d e7 c8 ce bc
       -0.13598506 0.06551905 0.08551866 -0.025242282
0002f0 1c d4 da bd 7f 13 63 3e 7b e5 08 be 5b 22 df 3d
       -0.10684988 0.22175406 -0.1336879 0.10895225
000300 59 97 2a 3e 1e c7 0e 3c 11 a0 f3 3c 13 b4 29 3d
       0.16659297 0.008714465 0.029739412 0.041431498
000310 e3 27 b7 bd 6e 7e f5 bd ab 8e 71 be e4 50 35 3e
       -0.08943155 -0.11987005 -0.2358958 0.17706639
000320 bb 5f c3 3d ec b3 30 3d 41 d1 07 3e c0 96 71 bd
       0.095397435 0.043140337 0.13263418 -0.058981657
000330 91 41 8b 3d a7 97 5f bd 81 08 88 bc 61 ee 12 3e
       0.06799615 -0.054587986 -0.016605617 0.14348747
000340 72 4c 35 3d 5f e9 ed bc 88 9a 96 bd 49 ea ce 3d
       0.044262357 -0.029041944 -0.07353693 0.1010328
000350 5e 0f 20 3e 48 95 68 3d 50 d0 aa bd d4 5f f6 3c
       0.15630862 0.05678299 -0.08340514 0.030074991
000360 8c 6b 60 3d 9f f9 25 3d 30 50 4f bd 16 01 88 bd
       0.054790065 0.04052126 -0.050613582 -0.06640832
000370 89 af 04 3e 1e 42 02 bd 1b 48 97 3d d8 79 8e 3d
       0.12957586 -0.031801336 0.073868 0.069568336
000380 26 7c 81 bd 58 38 93 bd 7a b4 0d 3e 39 72 fa 3d
       -0.063225076 -0.07188481 0.13838378 0.122288175
000390 4a ca 41 3e 24 15 51 bd 9c cc 20 be 54 e5 0f be
       0.18924823 -0.051045552 -0.15703052 -0.14052325
0003a0 d1 ad 2d 3d c4 44 37 3d 9e 97 0b be 0f 74 d8 3d
       0.042402092 0.044743314 -0.13632056 0.105690114
0003b0 f9 c2 d9 3d db 19 ea bd f8 63 3b be f6 4c 72 3d
       0.10632891 -0.11430713 -0.18299854 0.059155427
0003c0 79 dd ac 3d dd 8c 3d bd e7 03 07 be 2d 00 c1 3d
       0.0844068 -0.046276916 -0.13185082 0.09423862
0003d0 0e a2 05 bc 52 b4 5c bc 76 68 29 3e 65 7d e6 3d
       -0.008156313 -0.013470726 0.16543755 0.11254386
0003e0 48 fb 1b 3d d4 0d e4 bd 0c 51 f6 bd b0 f9 ab 3d
       0.038081437 -0.1113545 -0.12027177 0.083972335
